<?xml version="1.0"?>
<net name="Model0" version="11">
	<layers>
		<layer id="0" name="frames" type="Parameter" version="opset1">
			<data shape="?,?,?,?,?" element_type="f32" />
			<output>
				<port id="0" precision="FP32" names="frames">
					<dim>-1</dim>
					<dim>-1</dim>
					<dim>-1</dim>
					<dim>-1</dim>
					<dim>-1</dim>
				</port>
			</output>
		</layer>
		<layer id="1" name="__module.model/aten::flatten/Constant_2" type="Const" version="opset1">
			<data element_type="i32" shape="1" offset="0" size="4" />
			<rt_info>
				<attribute name="precise" version="0" />
			</rt_info>
			<output>
				<port id="0" precision="I32">
					<dim>1</dim>
				</port>
			</output>
		</layer>
		<layer id="2" name="__module.model/aten::flatten/ShapeOf" type="ShapeOf" version="opset3">
			<data output_type="i32" />
			<input>
				<port id="0" precision="FP32">
					<dim>-1</dim>
					<dim>-1</dim>
					<dim>-1</dim>
					<dim>-1</dim>
					<dim>-1</dim>
				</port>
			</input>
			<output>
				<port id="1" precision="I32">
					<dim>5</dim>
				</port>
			</output>
		</layer>
		<layer id="3" name="Add_118" type="Const" version="opset1">
			<data element_type="i32" shape="1" offset="4" size="4" />
			<rt_info>
				<attribute name="precise" version="0" />
			</rt_info>
			<output>
				<port id="0" precision="I32">
					<dim>1</dim>
				</port>
			</output>
		</layer>
		<layer id="4" name="__module.model/aten::flatten/Constant_3" type="Const" version="opset1">
			<data element_type="i32" shape="1" offset="8" size="4" />
			<rt_info>
				<attribute name="precise" version="0" />
			</rt_info>
			<output>
				<port id="0" precision="I32">
					<dim>1</dim>
				</port>
			</output>
		</layer>
		<layer id="5" name="__module.model/aten::flatten/Constant_1" type="Const" version="opset1">
			<data element_type="i32" shape="1" offset="12" size="4" />
			<rt_info>
				<attribute name="precise" version="0" />
			</rt_info>
			<output>
				<port id="0" precision="I32">
					<dim>1</dim>
				</port>
			</output>
		</layer>
		<layer id="6" name="Constant_120" type="Const" version="opset1">
			<data element_type="i64" shape="1" offset="16" size="8" />
			<rt_info>
				<attribute name="precise" version="0" />
			</rt_info>
			<output>
				<port id="0" precision="I64">
					<dim>1</dim>
				</port>
			</output>
		</layer>
		<layer id="7" name="__module.model/aten::flatten/Slice_1" type="Slice" version="opset8">
			<input>
				<port id="0" precision="I32">
					<dim>5</dim>
				</port>
				<port id="1" precision="I32">
					<dim>1</dim>
				</port>
				<port id="2" precision="I32">
					<dim>1</dim>
				</port>
				<port id="3" precision="I32">
					<dim>1</dim>
				</port>
				<port id="4" precision="I64">
					<dim>1</dim>
				</port>
			</input>
			<output>
				<port id="5" precision="I32">
					<dim>3</dim>
				</port>
			</output>
		</layer>
		<layer id="8" name="__module.model/aten::flatten/Concat" type="Concat" version="opset1">
			<data axis="0" />
			<input>
				<port id="0" precision="I32">
					<dim>1</dim>
				</port>
				<port id="1" precision="I32">
					<dim>3</dim>
				</port>
			</input>
			<output>
				<port id="2" precision="I32">
					<dim>4</dim>
				</port>
			</output>
		</layer>
		<layer id="9" name="__module.model/aten::flatten/Reshape" type="Reshape" version="opset1">
			<data special_zero="true" />
			<input>
				<port id="0" precision="FP32">
					<dim>-1</dim>
					<dim>-1</dim>
					<dim>-1</dim>
					<dim>-1</dim>
					<dim>-1</dim>
				</port>
				<port id="1" precision="I32">
					<dim>4</dim>
				</port>
			</input>
			<output>
				<port id="2" precision="FP32" names="94,input.1">
					<dim>-1</dim>
					<dim>-1</dim>
					<dim>-1</dim>
					<dim>-1</dim>
				</port>
			</output>
		</layer>
		<layer id="10" name="__module.model/aten::upsample_bilinear2d/Multiply" type="Const" version="opset1">
			<data element_type="i32" shape="2" offset="24" size="8" />
			<rt_info>
				<attribute name="precise" version="0" />
			</rt_info>
			<output>
				<port id="0" precision="I32">
					<dim>2</dim>
				</port>
			</output>
		</layer>
		<layer id="11" name="Constant_126" type="Const" version="opset1">
			<data element_type="i32" shape="2" offset="32" size="8" />
			<output>
				<port id="0" precision="I32">
					<dim>2</dim>
				</port>
			</output>
		</layer>
		<layer id="12" name="__module.model/aten::upsample_bilinear2d/Interpolate" type="Interpolate" version="opset11">
			<data mode="linear_onnx" shape_calculation_mode="sizes" coordinate_transformation_mode="pytorch_half_pixel" nearest_mode="floor" antialias="false" pads_begin="0, 0, 0, 0" pads_end="0, 0, 0, 0" cube_coeff="-0.75" />
			<input>
				<port id="0" precision="FP32">
					<dim>-1</dim>
					<dim>-1</dim>
					<dim>-1</dim>
					<dim>-1</dim>
				</port>
				<port id="1" precision="I32">
					<dim>2</dim>
				</port>
				<port id="2" precision="I32">
					<dim>2</dim>
				</port>
			</input>
			<output>
				<port id="3" precision="FP32" names="96,input.3">
					<dim>-1</dim>
					<dim>-1</dim>
					<dim>288</dim>
					<dim>512</dim>
				</port>
			</output>
		</layer>
		<layer id="13" name="Convert_93299" type="Convert" version="opset1">
			<data destination_type="i64" />
			<input>
				<port id="0" precision="I32">
					<dim>5</dim>
				</port>
			</input>
			<output>
				<port id="1" precision="I64">
					<dim>5</dim>
				</port>
			</output>
		</layer>
		<layer id="14" name="Constant_78209" type="Const" version="opset1">
			<data element_type="i64" shape="2" offset="40" size="16" />
			<rt_info>
				<attribute name="precise" version="0" />
			</rt_info>
			<output>
				<port id="0" precision="I64">
					<dim>2</dim>
				</port>
			</output>
		</layer>
		<layer id="15" name="Constant_78210" type="Const" version="opset1">
			<data element_type="i64" shape="" offset="16" size="8" />
			<rt_info>
				<attribute name="precise" version="0" />
			</rt_info>
			<output>
				<port id="0" precision="I64" />
			</output>
		</layer>
		<layer id="16" name="Gather_78211" type="Gather" version="opset8">
			<data batch_dims="0" />
			<input>
				<port id="0" precision="I64">
					<dim>5</dim>
				</port>
				<port id="1" precision="I64">
					<dim>2</dim>
				</port>
				<port id="2" precision="I64" />
			</input>
			<output>
				<port id="3" precision="I64">
					<dim>2</dim>
				</port>
			</output>
		</layer>
		<layer id="17" name="Constant_40198" type="Const" version="opset1">
			<data element_type="i64" shape="1" offset="56" size="8" />
			<rt_info>
				<attribute name="precise" version="0" />
			</rt_info>
			<output>
				<port id="0" precision="I64">
					<dim>1</dim>
				</port>
			</output>
		</layer>
		<layer id="18" name="Constant_40199" type="Const" version="opset1">
			<data element_type="i64" shape="1" offset="64" size="8" />
			<rt_info>
				<attribute name="precise" version="0" />
			</rt_info>
			<output>
				<port id="0" precision="I64">
					<dim>1</dim>
				</port>
			</output>
		</layer>
		<layer id="19" name="Constant_40200" type="Const" version="opset1">
			<data element_type="i64" shape="1" offset="72" size="8" />
			<rt_info>
				<attribute name="precise" version="0" />
			</rt_info>
			<output>
				<port id="0" precision="I64">
					<dim>1</dim>
				</port>
			</output>
		</layer>
		<layer id="20" name="__module.model/prim::ListConstruct/SequenceMark" type="Concat" version="opset1">
			<data axis="0" />
			<input>
				<port id="0" precision="I64">
					<dim>2</dim>
				</port>
				<port id="1" precision="I64">
					<dim>1</dim>
				</port>
				<port id="2" precision="I64">
					<dim>1</dim>
				</port>
				<port id="3" precision="I64">
					<dim>1</dim>
				</port>
			</input>
			<output>
				<port id="4" precision="I64">
					<dim>5</dim>
				</port>
			</output>
		</layer>
		<layer id="21" name="__module.model/aten::view/Reshape" type="Reshape" version="opset1">
			<data special_zero="false" />
			<input>
				<port id="0" precision="FP32">
					<dim>-1</dim>
					<dim>-1</dim>
					<dim>288</dim>
					<dim>512</dim>
				</port>
				<port id="1" precision="I64">
					<dim>5</dim>
				</port>
			</input>
			<output>
				<port id="2" precision="FP32" names="7675,7678,7679,frames_1">
					<dim>-1</dim>
					<dim>-1</dim>
					<dim>3</dim>
					<dim>288</dim>
					<dim>512</dim>
				</port>
			</output>
		</layer>
		<layer id="22" name="Constant_40229" type="Const" version="opset1">
			<data element_type="i64" shape="1" offset="16" size="8" />
			<output>
				<port id="0" precision="I64">
					<dim>1</dim>
				</port>
			</output>
		</layer>
		<layer id="23" name="Constant_40231" type="Const" version="opset1">
			<data element_type="i64" shape="1" offset="56" size="8" />
			<output>
				<port id="0" precision="I64">
					<dim>1</dim>
				</port>
			</output>
		</layer>
		<layer id="24" name="Constant_40233" type="Const" version="opset1">
			<data element_type="i64" shape="1" offset="80" size="8" />
			<output>
				<port id="0" precision="I64">
					<dim>1</dim>
				</port>
			</output>
		</layer>
		<layer id="25" name="Constant_40227" type="Const" version="opset1">
			<data element_type="i64" shape="1" offset="88" size="8" />
			<output>
				<port id="0" precision="I64">
					<dim>1</dim>
				</port>
			</output>
		</layer>
		<layer id="26" name="__module.model.ball_grid/aten::slice/Slice_2" type="Slice" version="opset8">
			<input>
				<port id="0" precision="FP32">
					<dim>-1</dim>
					<dim>-1</dim>
					<dim>3</dim>
					<dim>288</dim>
					<dim>512</dim>
				</port>
				<port id="1" precision="I64">
					<dim>1</dim>
				</port>
				<port id="2" precision="I64">
					<dim>1</dim>
				</port>
				<port id="3" precision="I64">
					<dim>1</dim>
				</port>
				<port id="4" precision="I64">
					<dim>1</dim>
				</port>
			</input>
			<output>
				<port id="5" precision="FP32" names="7680,rgb">
					<dim>-1</dim>
					<dim>-1</dim>
					<dim>3</dim>
					<dim>288</dim>
					<dim>512</dim>
				</port>
			</output>
		</layer>
		<layer id="27" name="__module.model.ball_grid/aten::unsqueeze/Unsqueeze_3" type="Const" version="opset1">
			<data element_type="f32" shape="1, 1, 3, 1, 1" offset="96" size="12" />
			<output>
				<port id="0" precision="FP32" names="7687,weights">
					<dim>1</dim>
					<dim>1</dim>
					<dim>3</dim>
					<dim>1</dim>
					<dim>1</dim>
				</port>
			</output>
		</layer>
		<layer id="28" name="__module.model.ball_grid/aten::mul/Multiply" type="Multiply" version="opset1">
			<data auto_broadcast="numpy" />
			<input>
				<port id="0" precision="FP32">
					<dim>-1</dim>
					<dim>-1</dim>
					<dim>3</dim>
					<dim>288</dim>
					<dim>512</dim>
				</port>
				<port id="1" precision="FP32">
					<dim>1</dim>
					<dim>1</dim>
					<dim>3</dim>
					<dim>1</dim>
					<dim>1</dim>
				</port>
			</input>
			<output>
				<port id="2" precision="FP32" names="7688">
					<dim>-1</dim>
					<dim>-1</dim>
					<dim>3</dim>
					<dim>288</dim>
					<dim>512</dim>
				</port>
			</output>
		</layer>
		<layer id="29" name="Constant_40259" type="Const" version="opset1">
			<data element_type="i64" shape="1" offset="88" size="8" />
			<output>
				<port id="0" precision="I64">
					<dim>1</dim>
				</port>
			</output>
		</layer>
		<layer id="30" name="__module.model.ball_grid/aten::sum/ReduceSum" type="ReduceSum" version="opset1">
			<data keep_dims="false" />
			<input>
				<port id="0" precision="FP32">
					<dim>-1</dim>
					<dim>-1</dim>
					<dim>3</dim>
					<dim>288</dim>
					<dim>512</dim>
				</port>
				<port id="1" precision="I64">
					<dim>1</dim>
				</port>
			</input>
			<output>
				<port id="2" precision="FP32" names="7690,input.407">
					<dim>-1</dim>
					<dim>-1</dim>
					<dim>288</dim>
					<dim>512</dim>
				</port>
			</output>
		</layer>
		<layer id="31" name="__module.model.ball_grid.features.0.block.0.depthwise/aten::_convolution/Reshape_compressed" type="Const" version="opset1">
			<data element_type="f16" shape="18, 1, 1, 3, 3" offset="108" size="324" />
			<output>
				<port id="0" precision="FP16">
					<dim>18</dim>
					<dim>1</dim>
					<dim>1</dim>
					<dim>3</dim>
					<dim>3</dim>
				</port>
			</output>
		</layer>
		<layer id="32" name="__module.model.ball_grid.features.0.block.0.depthwise/aten::_convolution/Reshape" type="Convert" version="opset1">
			<data destination_type="f32" />
			<rt_info>
				<attribute name="decompression" version="0" />
			</rt_info>
			<input>
				<port id="0" precision="FP16">
					<dim>18</dim>
					<dim>1</dim>
					<dim>1</dim>
					<dim>3</dim>
					<dim>3</dim>
				</port>
			</input>
			<output>
				<port id="1" precision="FP32">
					<dim>18</dim>
					<dim>1</dim>
					<dim>1</dim>
					<dim>3</dim>
					<dim>3</dim>
				</port>
			</output>
		</layer>
		<layer id="33" name="__module.model.ball_grid.features.0.block.0.depthwise/aten::_convolution/GroupConvolution" type="GroupConvolution" version="opset1">
			<data strides="1, 1" pads_begin="1, 1" pads_end="1, 1" dilations="1, 1" auto_pad="explicit" />
			<input>
				<port id="0" precision="FP32">
					<dim>-1</dim>
					<dim>-1</dim>
					<dim>288</dim>
					<dim>512</dim>
				</port>
				<port id="1" precision="FP32">
					<dim>18</dim>
					<dim>1</dim>
					<dim>1</dim>
					<dim>3</dim>
					<dim>3</dim>
				</port>
			</input>
			<output>
				<port id="2" precision="FP32" names="7713,input.409">
					<dim>-1</dim>
					<dim>18</dim>
					<dim>288</dim>
					<dim>512</dim>
				</port>
			</output>
		</layer>
		<layer id="34" name="Multiply_89713_compressed" type="Const" version="opset1">
			<data element_type="f16" shape="64, 18, 1, 1" offset="432" size="2304" />
			<output>
				<port id="0" precision="FP16">
					<dim>64</dim>
					<dim>18</dim>
					<dim>1</dim>
					<dim>1</dim>
				</port>
			</output>
		</layer>
		<layer id="35" name="Multiply_89713" type="Convert" version="opset1">
			<data destination_type="f32" />
			<rt_info>
				<attribute name="decompression" version="0" />
			</rt_info>
			<input>
				<port id="0" precision="FP16">
					<dim>64</dim>
					<dim>18</dim>
					<dim>1</dim>
					<dim>1</dim>
				</port>
			</input>
			<output>
				<port id="1" precision="FP32">
					<dim>64</dim>
					<dim>18</dim>
					<dim>1</dim>
					<dim>1</dim>
				</port>
			</output>
		</layer>
		<layer id="36" name="Multiply_89627" type="Convolution" version="opset1">
			<data strides="1, 1" dilations="1, 1" pads_begin="0, 0" pads_end="0, 0" auto_pad="explicit" />
			<input>
				<port id="0" precision="FP32">
					<dim>-1</dim>
					<dim>18</dim>
					<dim>288</dim>
					<dim>512</dim>
				</port>
				<port id="1" precision="FP32">
					<dim>64</dim>
					<dim>18</dim>
					<dim>1</dim>
					<dim>1</dim>
				</port>
			</input>
			<output>
				<port id="2" precision="FP32">
					<dim>-1</dim>
					<dim>64</dim>
					<dim>288</dim>
					<dim>512</dim>
				</port>
			</output>
		</layer>
		<layer id="37" name="Constant_89632_compressed" type="Const" version="opset1">
			<data element_type="f16" shape="1, 64, 1, 1" offset="2736" size="128" />
			<output>
				<port id="0" precision="FP16">
					<dim>1</dim>
					<dim>64</dim>
					<dim>1</dim>
					<dim>1</dim>
				</port>
			</output>
		</layer>
		<layer id="38" name="Constant_89632" type="Convert" version="opset1">
			<data destination_type="f32" />
			<rt_info>
				<attribute name="decompression" version="0" />
			</rt_info>
			<input>
				<port id="0" precision="FP16">
					<dim>1</dim>
					<dim>64</dim>
					<dim>1</dim>
					<dim>1</dim>
				</port>
			</input>
			<output>
				<port id="1" precision="FP32">
					<dim>1</dim>
					<dim>64</dim>
					<dim>1</dim>
					<dim>1</dim>
				</port>
			</output>
		</layer>
		<layer id="39" name="__module.model.ball_grid.features.0.block.1/aten::batch_norm/BatchNormInference" type="Add" version="opset1">
			<data auto_broadcast="numpy" />
			<input>
				<port id="0" precision="FP32">
					<dim>-1</dim>
					<dim>64</dim>
					<dim>288</dim>
					<dim>512</dim>
				</port>
				<port id="1" precision="FP32">
					<dim>1</dim>
					<dim>64</dim>
					<dim>1</dim>
					<dim>1</dim>
				</port>
			</input>
			<output>
				<port id="2" precision="FP32" names="7724_1">
					<dim>-1</dim>
					<dim>64</dim>
					<dim>288</dim>
					<dim>512</dim>
				</port>
			</output>
		</layer>
		<layer id="40" name="__module.model.ball_grid.features.0.block.2/aten::relu_/Relu" type="ReLU" version="opset1">
			<input>
				<port id="0" precision="FP32">
					<dim>-1</dim>
					<dim>64</dim>
					<dim>288</dim>
					<dim>512</dim>
				</port>
			</input>
			<output>
				<port id="1" precision="FP32" names="7724,input.413">
					<dim>-1</dim>
					<dim>64</dim>
					<dim>288</dim>
					<dim>512</dim>
				</port>
			</output>
		</layer>
		<layer id="41" name="__module.model.ball_grid.features.1.block.0.depthwise/aten::_convolution/Reshape_compressed" type="Const" version="opset1">
			<data element_type="f16" shape="64, 1, 1, 3, 3" offset="2864" size="1152" />
			<output>
				<port id="0" precision="FP16">
					<dim>64</dim>
					<dim>1</dim>
					<dim>1</dim>
					<dim>3</dim>
					<dim>3</dim>
				</port>
			</output>
		</layer>
		<layer id="42" name="__module.model.ball_grid.features.1.block.0.depthwise/aten::_convolution/Reshape" type="Convert" version="opset1">
			<data destination_type="f32" />
			<rt_info>
				<attribute name="decompression" version="0" />
			</rt_info>
			<input>
				<port id="0" precision="FP16">
					<dim>64</dim>
					<dim>1</dim>
					<dim>1</dim>
					<dim>3</dim>
					<dim>3</dim>
				</port>
			</input>
			<output>
				<port id="1" precision="FP32">
					<dim>64</dim>
					<dim>1</dim>
					<dim>1</dim>
					<dim>3</dim>
					<dim>3</dim>
				</port>
			</output>
		</layer>
		<layer id="43" name="__module.model.ball_grid.features.1.block.0.depthwise/aten::_convolution/GroupConvolution" type="GroupConvolution" version="opset1">
			<data strides="1, 1" pads_begin="1, 1" pads_end="1, 1" dilations="1, 1" auto_pad="explicit" />
			<input>
				<port id="0" precision="FP32">
					<dim>-1</dim>
					<dim>64</dim>
					<dim>288</dim>
					<dim>512</dim>
				</port>
				<port id="1" precision="FP32">
					<dim>64</dim>
					<dim>1</dim>
					<dim>1</dim>
					<dim>3</dim>
					<dim>3</dim>
				</port>
			</input>
			<output>
				<port id="2" precision="FP32" names="7736,input.417">
					<dim>-1</dim>
					<dim>64</dim>
					<dim>288</dim>
					<dim>512</dim>
				</port>
			</output>
		</layer>
		<layer id="44" name="Multiply_89717_compressed" type="Const" version="opset1">
			<data element_type="f16" shape="64, 64, 1, 1" offset="4016" size="8192" />
			<output>
				<port id="0" precision="FP16">
					<dim>64</dim>
					<dim>64</dim>
					<dim>1</dim>
					<dim>1</dim>
				</port>
			</output>
		</layer>
		<layer id="45" name="Multiply_89717" type="Convert" version="opset1">
			<data destination_type="f32" />
			<rt_info>
				<attribute name="decompression" version="0" />
			</rt_info>
			<input>
				<port id="0" precision="FP16">
					<dim>64</dim>
					<dim>64</dim>
					<dim>1</dim>
					<dim>1</dim>
				</port>
			</input>
			<output>
				<port id="1" precision="FP32">
					<dim>64</dim>
					<dim>64</dim>
					<dim>1</dim>
					<dim>1</dim>
				</port>
			</output>
		</layer>
		<layer id="46" name="Multiply_89634" type="Convolution" version="opset1">
			<data strides="1, 1" dilations="1, 1" pads_begin="0, 0" pads_end="0, 0" auto_pad="explicit" />
			<input>
				<port id="0" precision="FP32">
					<dim>-1</dim>
					<dim>64</dim>
					<dim>288</dim>
					<dim>512</dim>
				</port>
				<port id="1" precision="FP32">
					<dim>64</dim>
					<dim>64</dim>
					<dim>1</dim>
					<dim>1</dim>
				</port>
			</input>
			<output>
				<port id="2" precision="FP32">
					<dim>-1</dim>
					<dim>64</dim>
					<dim>288</dim>
					<dim>512</dim>
				</port>
			</output>
		</layer>
		<layer id="47" name="Constant_89639" type="Const" version="opset1">
			<data element_type="f32" shape="1, 64, 1, 1" offset="12208" size="256" />
			<output>
				<port id="0" precision="FP32">
					<dim>1</dim>
					<dim>64</dim>
					<dim>1</dim>
					<dim>1</dim>
				</port>
			</output>
		</layer>
		<layer id="48" name="__module.model.ball_grid.features.1.block.1/aten::batch_norm/BatchNormInference" type="Add" version="opset1">
			<data auto_broadcast="numpy" />
			<input>
				<port id="0" precision="FP32">
					<dim>-1</dim>
					<dim>64</dim>
					<dim>288</dim>
					<dim>512</dim>
				</port>
				<port id="1" precision="FP32">
					<dim>1</dim>
					<dim>64</dim>
					<dim>1</dim>
					<dim>1</dim>
				</port>
			</input>
			<output>
				<port id="2" precision="FP32" names="7747_1">
					<dim>-1</dim>
					<dim>64</dim>
					<dim>288</dim>
					<dim>512</dim>
				</port>
			</output>
		</layer>
		<layer id="49" name="__module.model.ball_grid.features.1.block.2/aten::relu_/Relu" type="ReLU" version="opset1">
			<input>
				<port id="0" precision="FP32">
					<dim>-1</dim>
					<dim>64</dim>
					<dim>288</dim>
					<dim>512</dim>
				</port>
			</input>
			<output>
				<port id="1" precision="FP32" names="7747,input.421">
					<dim>-1</dim>
					<dim>64</dim>
					<dim>288</dim>
					<dim>512</dim>
				</port>
			</output>
		</layer>
		<layer id="50" name="__module.model.ball_grid.features.2/aten::max_pool2d/MaxPool" type="MaxPool" version="opset14">
			<data strides="2, 2" dilations="1, 1" pads_begin="0, 0" pads_end="0, 0" kernel="2, 2" rounding_type="floor" auto_pad="explicit" index_element_type="i64" axis="2" />
			<input>
				<port id="0" precision="FP32">
					<dim>-1</dim>
					<dim>64</dim>
					<dim>288</dim>
					<dim>512</dim>
				</port>
			</input>
			<output>
				<port id="1" precision="FP32" names="7753,input.425">
					<dim>-1</dim>
					<dim>64</dim>
					<dim>144</dim>
					<dim>256</dim>
				</port>
				<port id="2" precision="I64">
					<dim>-1</dim>
					<dim>64</dim>
					<dim>144</dim>
					<dim>256</dim>
				</port>
			</output>
		</layer>
		<layer id="51" name="__module.model.ball_grid.features.3.block.0.depthwise/aten::_convolution/Reshape_compressed" type="Const" version="opset1">
			<data element_type="f16" shape="64, 1, 1, 3, 3" offset="12464" size="1152" />
			<output>
				<port id="0" precision="FP16">
					<dim>64</dim>
					<dim>1</dim>
					<dim>1</dim>
					<dim>3</dim>
					<dim>3</dim>
				</port>
			</output>
		</layer>
		<layer id="52" name="__module.model.ball_grid.features.3.block.0.depthwise/aten::_convolution/Reshape" type="Convert" version="opset1">
			<data destination_type="f32" />
			<rt_info>
				<attribute name="decompression" version="0" />
			</rt_info>
			<input>
				<port id="0" precision="FP16">
					<dim>64</dim>
					<dim>1</dim>
					<dim>1</dim>
					<dim>3</dim>
					<dim>3</dim>
				</port>
			</input>
			<output>
				<port id="1" precision="FP32">
					<dim>64</dim>
					<dim>1</dim>
					<dim>1</dim>
					<dim>3</dim>
					<dim>3</dim>
				</port>
			</output>
		</layer>
		<layer id="53" name="__module.model.ball_grid.features.3.block.0.depthwise/aten::_convolution/GroupConvolution" type="GroupConvolution" version="opset1">
			<data strides="1, 1" pads_begin="1, 1" pads_end="1, 1" dilations="1, 1" auto_pad="explicit" />
			<input>
				<port id="0" precision="FP32">
					<dim>-1</dim>
					<dim>64</dim>
					<dim>144</dim>
					<dim>256</dim>
				</port>
				<port id="1" precision="FP32">
					<dim>64</dim>
					<dim>1</dim>
					<dim>1</dim>
					<dim>3</dim>
					<dim>3</dim>
				</port>
			</input>
			<output>
				<port id="2" precision="FP32" names="7764,input.427">
					<dim>-1</dim>
					<dim>64</dim>
					<dim>144</dim>
					<dim>256</dim>
				</port>
			</output>
		</layer>
		<layer id="54" name="Multiply_89721_compressed" type="Const" version="opset1">
			<data element_type="f16" shape="128, 64, 1, 1" offset="13616" size="16384" />
			<output>
				<port id="0" precision="FP16">
					<dim>128</dim>
					<dim>64</dim>
					<dim>1</dim>
					<dim>1</dim>
				</port>
			</output>
		</layer>
		<layer id="55" name="Multiply_89721" type="Convert" version="opset1">
			<data destination_type="f32" />
			<rt_info>
				<attribute name="decompression" version="0" />
			</rt_info>
			<input>
				<port id="0" precision="FP16">
					<dim>128</dim>
					<dim>64</dim>
					<dim>1</dim>
					<dim>1</dim>
				</port>
			</input>
			<output>
				<port id="1" precision="FP32">
					<dim>128</dim>
					<dim>64</dim>
					<dim>1</dim>
					<dim>1</dim>
				</port>
			</output>
		</layer>
		<layer id="56" name="Multiply_89641" type="Convolution" version="opset1">
			<data strides="1, 1" dilations="1, 1" pads_begin="0, 0" pads_end="0, 0" auto_pad="explicit" />
			<input>
				<port id="0" precision="FP32">
					<dim>-1</dim>
					<dim>64</dim>
					<dim>144</dim>
					<dim>256</dim>
				</port>
				<port id="1" precision="FP32">
					<dim>128</dim>
					<dim>64</dim>
					<dim>1</dim>
					<dim>1</dim>
				</port>
			</input>
			<output>
				<port id="2" precision="FP32">
					<dim>-1</dim>
					<dim>128</dim>
					<dim>144</dim>
					<dim>256</dim>
				</port>
			</output>
		</layer>
		<layer id="57" name="Constant_89646_compressed" type="Const" version="opset1">
			<data element_type="f16" shape="1, 128, 1, 1" offset="30000" size="256" />
			<output>
				<port id="0" precision="FP16">
					<dim>1</dim>
					<dim>128</dim>
					<dim>1</dim>
					<dim>1</dim>
				</port>
			</output>
		</layer>
		<layer id="58" name="Constant_89646" type="Convert" version="opset1">
			<data destination_type="f32" />
			<rt_info>
				<attribute name="decompression" version="0" />
			</rt_info>
			<input>
				<port id="0" precision="FP16">
					<dim>1</dim>
					<dim>128</dim>
					<dim>1</dim>
					<dim>1</dim>
				</port>
			</input>
			<output>
				<port id="1" precision="FP32">
					<dim>1</dim>
					<dim>128</dim>
					<dim>1</dim>
					<dim>1</dim>
				</port>
			</output>
		</layer>
		<layer id="59" name="__module.model.ball_grid.features.3.block.1/aten::batch_norm/BatchNormInference" type="Add" version="opset1">
			<data auto_broadcast="numpy" />
			<input>
				<port id="0" precision="FP32">
					<dim>-1</dim>
					<dim>128</dim>
					<dim>144</dim>
					<dim>256</dim>
				</port>
				<port id="1" precision="FP32">
					<dim>1</dim>
					<dim>128</dim>
					<dim>1</dim>
					<dim>1</dim>
				</port>
			</input>
			<output>
				<port id="2" precision="FP32" names="7775_1">
					<dim>-1</dim>
					<dim>128</dim>
					<dim>144</dim>
					<dim>256</dim>
				</port>
			</output>
		</layer>
		<layer id="60" name="__module.model.ball_grid.features.3.block.2/aten::relu_/Relu" type="ReLU" version="opset1">
			<input>
				<port id="0" precision="FP32">
					<dim>-1</dim>
					<dim>128</dim>
					<dim>144</dim>
					<dim>256</dim>
				</port>
			</input>
			<output>
				<port id="1" precision="FP32" names="7775,input.431">
					<dim>-1</dim>
					<dim>128</dim>
					<dim>144</dim>
					<dim>256</dim>
				</port>
			</output>
		</layer>
		<layer id="61" name="__module.model.ball_grid.features.4.block.0.depthwise/aten::_convolution/Reshape_compressed" type="Const" version="opset1">
			<data element_type="f16" shape="128, 1, 1, 3, 3" offset="30256" size="2304" />
			<output>
				<port id="0" precision="FP16">
					<dim>128</dim>
					<dim>1</dim>
					<dim>1</dim>
					<dim>3</dim>
					<dim>3</dim>
				</port>
			</output>
		</layer>
		<layer id="62" name="__module.model.ball_grid.features.4.block.0.depthwise/aten::_convolution/Reshape" type="Convert" version="opset1">
			<data destination_type="f32" />
			<rt_info>
				<attribute name="decompression" version="0" />
			</rt_info>
			<input>
				<port id="0" precision="FP16">
					<dim>128</dim>
					<dim>1</dim>
					<dim>1</dim>
					<dim>3</dim>
					<dim>3</dim>
				</port>
			</input>
			<output>
				<port id="1" precision="FP32">
					<dim>128</dim>
					<dim>1</dim>
					<dim>1</dim>
					<dim>3</dim>
					<dim>3</dim>
				</port>
			</output>
		</layer>
		<layer id="63" name="__module.model.ball_grid.features.4.block.0.depthwise/aten::_convolution/GroupConvolution" type="GroupConvolution" version="opset1">
			<data strides="1, 1" pads_begin="1, 1" pads_end="1, 1" dilations="1, 1" auto_pad="explicit" />
			<input>
				<port id="0" precision="FP32">
					<dim>-1</dim>
					<dim>128</dim>
					<dim>144</dim>
					<dim>256</dim>
				</port>
				<port id="1" precision="FP32">
					<dim>128</dim>
					<dim>1</dim>
					<dim>1</dim>
					<dim>3</dim>
					<dim>3</dim>
				</port>
			</input>
			<output>
				<port id="2" precision="FP32" names="7787,input.435">
					<dim>-1</dim>
					<dim>128</dim>
					<dim>144</dim>
					<dim>256</dim>
				</port>
			</output>
		</layer>
		<layer id="64" name="Multiply_89725_compressed" type="Const" version="opset1">
			<data element_type="f16" shape="128, 128, 1, 1" offset="32560" size="32768" />
			<output>
				<port id="0" precision="FP16">
					<dim>128</dim>
					<dim>128</dim>
					<dim>1</dim>
					<dim>1</dim>
				</port>
			</output>
		</layer>
		<layer id="65" name="Multiply_89725" type="Convert" version="opset1">
			<data destination_type="f32" />
			<rt_info>
				<attribute name="decompression" version="0" />
			</rt_info>
			<input>
				<port id="0" precision="FP16">
					<dim>128</dim>
					<dim>128</dim>
					<dim>1</dim>
					<dim>1</dim>
				</port>
			</input>
			<output>
				<port id="1" precision="FP32">
					<dim>128</dim>
					<dim>128</dim>
					<dim>1</dim>
					<dim>1</dim>
				</port>
			</output>
		</layer>
		<layer id="66" name="Multiply_89648" type="Convolution" version="opset1">
			<data strides="1, 1" dilations="1, 1" pads_begin="0, 0" pads_end="0, 0" auto_pad="explicit" />
			<input>
				<port id="0" precision="FP32">
					<dim>-1</dim>
					<dim>128</dim>
					<dim>144</dim>
					<dim>256</dim>
				</port>
				<port id="1" precision="FP32">
					<dim>128</dim>
					<dim>128</dim>
					<dim>1</dim>
					<dim>1</dim>
				</port>
			</input>
			<output>
				<port id="2" precision="FP32">
					<dim>-1</dim>
					<dim>128</dim>
					<dim>144</dim>
					<dim>256</dim>
				</port>
			</output>
		</layer>
		<layer id="67" name="Constant_89653_compressed" type="Const" version="opset1">
			<data element_type="f16" shape="1, 128, 1, 1" offset="65328" size="256" />
			<output>
				<port id="0" precision="FP16">
					<dim>1</dim>
					<dim>128</dim>
					<dim>1</dim>
					<dim>1</dim>
				</port>
			</output>
		</layer>
		<layer id="68" name="Constant_89653" type="Convert" version="opset1">
			<data destination_type="f32" />
			<rt_info>
				<attribute name="decompression" version="0" />
			</rt_info>
			<input>
				<port id="0" precision="FP16">
					<dim>1</dim>
					<dim>128</dim>
					<dim>1</dim>
					<dim>1</dim>
				</port>
			</input>
			<output>
				<port id="1" precision="FP32">
					<dim>1</dim>
					<dim>128</dim>
					<dim>1</dim>
					<dim>1</dim>
				</port>
			</output>
		</layer>
		<layer id="69" name="__module.model.ball_grid.features.4.block.1/aten::batch_norm/BatchNormInference" type="Add" version="opset1">
			<data auto_broadcast="numpy" />
			<input>
				<port id="0" precision="FP32">
					<dim>-1</dim>
					<dim>128</dim>
					<dim>144</dim>
					<dim>256</dim>
				</port>
				<port id="1" precision="FP32">
					<dim>1</dim>
					<dim>128</dim>
					<dim>1</dim>
					<dim>1</dim>
				</port>
			</input>
			<output>
				<port id="2" precision="FP32" names="7798_1">
					<dim>-1</dim>
					<dim>128</dim>
					<dim>144</dim>
					<dim>256</dim>
				</port>
			</output>
		</layer>
		<layer id="70" name="__module.model.ball_grid.features.4.block.2/aten::relu_/Relu" type="ReLU" version="opset1">
			<input>
				<port id="0" precision="FP32">
					<dim>-1</dim>
					<dim>128</dim>
					<dim>144</dim>
					<dim>256</dim>
				</port>
			</input>
			<output>
				<port id="1" precision="FP32" names="7798,input.439">
					<dim>-1</dim>
					<dim>128</dim>
					<dim>144</dim>
					<dim>256</dim>
				</port>
			</output>
		</layer>
		<layer id="71" name="__module.model.ball_grid.features.5/aten::max_pool2d/MaxPool" type="MaxPool" version="opset14">
			<data strides="2, 2" dilations="1, 1" pads_begin="0, 0" pads_end="0, 0" kernel="2, 2" rounding_type="floor" auto_pad="explicit" index_element_type="i64" axis="2" />
			<input>
				<port id="0" precision="FP32">
					<dim>-1</dim>
					<dim>128</dim>
					<dim>144</dim>
					<dim>256</dim>
				</port>
			</input>
			<output>
				<port id="1" precision="FP32" names="7804,input.443">
					<dim>-1</dim>
					<dim>128</dim>
					<dim>72</dim>
					<dim>128</dim>
				</port>
				<port id="2" precision="I64">
					<dim>-1</dim>
					<dim>128</dim>
					<dim>72</dim>
					<dim>128</dim>
				</port>
			</output>
		</layer>
		<layer id="72" name="__module.model.ball_grid.features.6.block.0.depthwise/aten::_convolution/Reshape_compressed" type="Const" version="opset1">
			<data element_type="f16" shape="128, 1, 1, 3, 3" offset="65584" size="2304" />
			<output>
				<port id="0" precision="FP16">
					<dim>128</dim>
					<dim>1</dim>
					<dim>1</dim>
					<dim>3</dim>
					<dim>3</dim>
				</port>
			</output>
		</layer>
		<layer id="73" name="__module.model.ball_grid.features.6.block.0.depthwise/aten::_convolution/Reshape" type="Convert" version="opset1">
			<data destination_type="f32" />
			<rt_info>
				<attribute name="decompression" version="0" />
			</rt_info>
			<input>
				<port id="0" precision="FP16">
					<dim>128</dim>
					<dim>1</dim>
					<dim>1</dim>
					<dim>3</dim>
					<dim>3</dim>
				</port>
			</input>
			<output>
				<port id="1" precision="FP32">
					<dim>128</dim>
					<dim>1</dim>
					<dim>1</dim>
					<dim>3</dim>
					<dim>3</dim>
				</port>
			</output>
		</layer>
		<layer id="74" name="__module.model.ball_grid.features.6.block.0.depthwise/aten::_convolution/GroupConvolution" type="GroupConvolution" version="opset1">
			<data strides="1, 1" pads_begin="1, 1" pads_end="1, 1" dilations="1, 1" auto_pad="explicit" />
			<input>
				<port id="0" precision="FP32">
					<dim>-1</dim>
					<dim>128</dim>
					<dim>72</dim>
					<dim>128</dim>
				</port>
				<port id="1" precision="FP32">
					<dim>128</dim>
					<dim>1</dim>
					<dim>1</dim>
					<dim>3</dim>
					<dim>3</dim>
				</port>
			</input>
			<output>
				<port id="2" precision="FP32" names="7815,input.445">
					<dim>-1</dim>
					<dim>128</dim>
					<dim>72</dim>
					<dim>128</dim>
				</port>
			</output>
		</layer>
		<layer id="75" name="Multiply_89729_compressed" type="Const" version="opset1">
			<data element_type="f16" shape="256, 128, 1, 1" offset="67888" size="65536" />
			<output>
				<port id="0" precision="FP16">
					<dim>256</dim>
					<dim>128</dim>
					<dim>1</dim>
					<dim>1</dim>
				</port>
			</output>
		</layer>
		<layer id="76" name="Multiply_89729" type="Convert" version="opset1">
			<data destination_type="f32" />
			<rt_info>
				<attribute name="decompression" version="0" />
			</rt_info>
			<input>
				<port id="0" precision="FP16">
					<dim>256</dim>
					<dim>128</dim>
					<dim>1</dim>
					<dim>1</dim>
				</port>
			</input>
			<output>
				<port id="1" precision="FP32">
					<dim>256</dim>
					<dim>128</dim>
					<dim>1</dim>
					<dim>1</dim>
				</port>
			</output>
		</layer>
		<layer id="77" name="Multiply_89655" type="Convolution" version="opset1">
			<data strides="1, 1" dilations="1, 1" pads_begin="0, 0" pads_end="0, 0" auto_pad="explicit" />
			<input>
				<port id="0" precision="FP32">
					<dim>-1</dim>
					<dim>128</dim>
					<dim>72</dim>
					<dim>128</dim>
				</port>
				<port id="1" precision="FP32">
					<dim>256</dim>
					<dim>128</dim>
					<dim>1</dim>
					<dim>1</dim>
				</port>
			</input>
			<output>
				<port id="2" precision="FP32">
					<dim>-1</dim>
					<dim>256</dim>
					<dim>72</dim>
					<dim>128</dim>
				</port>
			</output>
		</layer>
		<layer id="78" name="Constant_89660_compressed" type="Const" version="opset1">
			<data element_type="f16" shape="1, 256, 1, 1" offset="133424" size="512" />
			<output>
				<port id="0" precision="FP16">
					<dim>1</dim>
					<dim>256</dim>
					<dim>1</dim>
					<dim>1</dim>
				</port>
			</output>
		</layer>
		<layer id="79" name="Constant_89660" type="Convert" version="opset1">
			<data destination_type="f32" />
			<rt_info>
				<attribute name="decompression" version="0" />
			</rt_info>
			<input>
				<port id="0" precision="FP16">
					<dim>1</dim>
					<dim>256</dim>
					<dim>1</dim>
					<dim>1</dim>
				</port>
			</input>
			<output>
				<port id="1" precision="FP32">
					<dim>1</dim>
					<dim>256</dim>
					<dim>1</dim>
					<dim>1</dim>
				</port>
			</output>
		</layer>
		<layer id="80" name="__module.model.ball_grid.features.6.block.1/aten::batch_norm/BatchNormInference" type="Add" version="opset1">
			<data auto_broadcast="numpy" />
			<input>
				<port id="0" precision="FP32">
					<dim>-1</dim>
					<dim>256</dim>
					<dim>72</dim>
					<dim>128</dim>
				</port>
				<port id="1" precision="FP32">
					<dim>1</dim>
					<dim>256</dim>
					<dim>1</dim>
					<dim>1</dim>
				</port>
			</input>
			<output>
				<port id="2" precision="FP32" names="7826_1">
					<dim>-1</dim>
					<dim>256</dim>
					<dim>72</dim>
					<dim>128</dim>
				</port>
			</output>
		</layer>
		<layer id="81" name="__module.model.ball_grid.features.6.block.2/aten::relu_/Relu" type="ReLU" version="opset1">
			<input>
				<port id="0" precision="FP32">
					<dim>-1</dim>
					<dim>256</dim>
					<dim>72</dim>
					<dim>128</dim>
				</port>
			</input>
			<output>
				<port id="1" precision="FP32" names="7826,input.449">
					<dim>-1</dim>
					<dim>256</dim>
					<dim>72</dim>
					<dim>128</dim>
				</port>
			</output>
		</layer>
		<layer id="82" name="__module.model.ball_grid.features.7.block.0.depthwise/aten::_convolution/Reshape_compressed" type="Const" version="opset1">
			<data element_type="f16" shape="256, 1, 1, 3, 3" offset="133936" size="4608" />
			<output>
				<port id="0" precision="FP16">
					<dim>256</dim>
					<dim>1</dim>
					<dim>1</dim>
					<dim>3</dim>
					<dim>3</dim>
				</port>
			</output>
		</layer>
		<layer id="83" name="__module.model.ball_grid.features.7.block.0.depthwise/aten::_convolution/Reshape" type="Convert" version="opset1">
			<data destination_type="f32" />
			<rt_info>
				<attribute name="decompression" version="0" />
			</rt_info>
			<input>
				<port id="0" precision="FP16">
					<dim>256</dim>
					<dim>1</dim>
					<dim>1</dim>
					<dim>3</dim>
					<dim>3</dim>
				</port>
			</input>
			<output>
				<port id="1" precision="FP32">
					<dim>256</dim>
					<dim>1</dim>
					<dim>1</dim>
					<dim>3</dim>
					<dim>3</dim>
				</port>
			</output>
		</layer>
		<layer id="84" name="__module.model.ball_grid.features.7.block.0.depthwise/aten::_convolution/GroupConvolution" type="GroupConvolution" version="opset1">
			<data strides="1, 1" pads_begin="1, 1" pads_end="1, 1" dilations="1, 1" auto_pad="explicit" />
			<input>
				<port id="0" precision="FP32">
					<dim>-1</dim>
					<dim>256</dim>
					<dim>72</dim>
					<dim>128</dim>
				</port>
				<port id="1" precision="FP32">
					<dim>256</dim>
					<dim>1</dim>
					<dim>1</dim>
					<dim>3</dim>
					<dim>3</dim>
				</port>
			</input>
			<output>
				<port id="2" precision="FP32" names="7838,input.453">
					<dim>-1</dim>
					<dim>256</dim>
					<dim>72</dim>
					<dim>128</dim>
				</port>
			</output>
		</layer>
		<layer id="85" name="Multiply_89733_compressed" type="Const" version="opset1">
			<data element_type="f16" shape="256, 256, 1, 1" offset="138544" size="131072" />
			<output>
				<port id="0" precision="FP16">
					<dim>256</dim>
					<dim>256</dim>
					<dim>1</dim>
					<dim>1</dim>
				</port>
			</output>
		</layer>
		<layer id="86" name="Multiply_89733" type="Convert" version="opset1">
			<data destination_type="f32" />
			<rt_info>
				<attribute name="decompression" version="0" />
			</rt_info>
			<input>
				<port id="0" precision="FP16">
					<dim>256</dim>
					<dim>256</dim>
					<dim>1</dim>
					<dim>1</dim>
				</port>
			</input>
			<output>
				<port id="1" precision="FP32">
					<dim>256</dim>
					<dim>256</dim>
					<dim>1</dim>
					<dim>1</dim>
				</port>
			</output>
		</layer>
		<layer id="87" name="Multiply_89662" type="Convolution" version="opset1">
			<data strides="1, 1" dilations="1, 1" pads_begin="0, 0" pads_end="0, 0" auto_pad="explicit" />
			<input>
				<port id="0" precision="FP32">
					<dim>-1</dim>
					<dim>256</dim>
					<dim>72</dim>
					<dim>128</dim>
				</port>
				<port id="1" precision="FP32">
					<dim>256</dim>
					<dim>256</dim>
					<dim>1</dim>
					<dim>1</dim>
				</port>
			</input>
			<output>
				<port id="2" precision="FP32">
					<dim>-1</dim>
					<dim>256</dim>
					<dim>72</dim>
					<dim>128</dim>
				</port>
			</output>
		</layer>
		<layer id="88" name="Constant_89667_compressed" type="Const" version="opset1">
			<data element_type="f16" shape="1, 256, 1, 1" offset="269616" size="512" />
			<output>
				<port id="0" precision="FP16">
					<dim>1</dim>
					<dim>256</dim>
					<dim>1</dim>
					<dim>1</dim>
				</port>
			</output>
		</layer>
		<layer id="89" name="Constant_89667" type="Convert" version="opset1">
			<data destination_type="f32" />
			<rt_info>
				<attribute name="decompression" version="0" />
			</rt_info>
			<input>
				<port id="0" precision="FP16">
					<dim>1</dim>
					<dim>256</dim>
					<dim>1</dim>
					<dim>1</dim>
				</port>
			</input>
			<output>
				<port id="1" precision="FP32">
					<dim>1</dim>
					<dim>256</dim>
					<dim>1</dim>
					<dim>1</dim>
				</port>
			</output>
		</layer>
		<layer id="90" name="__module.model.ball_grid.features.7.block.1/aten::batch_norm/BatchNormInference" type="Add" version="opset1">
			<data auto_broadcast="numpy" />
			<input>
				<port id="0" precision="FP32">
					<dim>-1</dim>
					<dim>256</dim>
					<dim>72</dim>
					<dim>128</dim>
				</port>
				<port id="1" precision="FP32">
					<dim>1</dim>
					<dim>256</dim>
					<dim>1</dim>
					<dim>1</dim>
				</port>
			</input>
			<output>
				<port id="2" precision="FP32" names="7849_1">
					<dim>-1</dim>
					<dim>256</dim>
					<dim>72</dim>
					<dim>128</dim>
				</port>
			</output>
		</layer>
		<layer id="91" name="__module.model.ball_grid.features.7.block.2/aten::relu_/Relu" type="ReLU" version="opset1">
			<input>
				<port id="0" precision="FP32">
					<dim>-1</dim>
					<dim>256</dim>
					<dim>72</dim>
					<dim>128</dim>
				</port>
			</input>
			<output>
				<port id="1" precision="FP32" names="7849,input.457">
					<dim>-1</dim>
					<dim>256</dim>
					<dim>72</dim>
					<dim>128</dim>
				</port>
			</output>
		</layer>
		<layer id="92" name="__module.model.ball_grid.features.8/aten::max_pool2d/MaxPool" type="MaxPool" version="opset14">
			<data strides="2, 2" dilations="1, 1" pads_begin="0, 0" pads_end="0, 0" kernel="2, 2" rounding_type="floor" auto_pad="explicit" index_element_type="i64" axis="2" />
			<input>
				<port id="0" precision="FP32">
					<dim>-1</dim>
					<dim>256</dim>
					<dim>72</dim>
					<dim>128</dim>
				</port>
			</input>
			<output>
				<port id="1" precision="FP32" names="7855,input.461">
					<dim>-1</dim>
					<dim>256</dim>
					<dim>36</dim>
					<dim>64</dim>
				</port>
				<port id="2" precision="I64">
					<dim>-1</dim>
					<dim>256</dim>
					<dim>36</dim>
					<dim>64</dim>
				</port>
			</output>
		</layer>
		<layer id="93" name="__module.model.ball_grid.features.9.block.0.depthwise/aten::_convolution/Reshape_compressed" type="Const" version="opset1">
			<data element_type="f16" shape="256, 1, 1, 3, 3" offset="270128" size="4608" />
			<output>
				<port id="0" precision="FP16">
					<dim>256</dim>
					<dim>1</dim>
					<dim>1</dim>
					<dim>3</dim>
					<dim>3</dim>
				</port>
			</output>
		</layer>
		<layer id="94" name="__module.model.ball_grid.features.9.block.0.depthwise/aten::_convolution/Reshape" type="Convert" version="opset1">
			<data destination_type="f32" />
			<rt_info>
				<attribute name="decompression" version="0" />
			</rt_info>
			<input>
				<port id="0" precision="FP16">
					<dim>256</dim>
					<dim>1</dim>
					<dim>1</dim>
					<dim>3</dim>
					<dim>3</dim>
				</port>
			</input>
			<output>
				<port id="1" precision="FP32">
					<dim>256</dim>
					<dim>1</dim>
					<dim>1</dim>
					<dim>3</dim>
					<dim>3</dim>
				</port>
			</output>
		</layer>
		<layer id="95" name="__module.model.ball_grid.features.9.block.0.depthwise/aten::_convolution/GroupConvolution" type="GroupConvolution" version="opset1">
			<data strides="1, 1" pads_begin="1, 1" pads_end="1, 1" dilations="1, 1" auto_pad="explicit" />
			<input>
				<port id="0" precision="FP32">
					<dim>-1</dim>
					<dim>256</dim>
					<dim>36</dim>
					<dim>64</dim>
				</port>
				<port id="1" precision="FP32">
					<dim>256</dim>
					<dim>1</dim>
					<dim>1</dim>
					<dim>3</dim>
					<dim>3</dim>
				</port>
			</input>
			<output>
				<port id="2" precision="FP32" names="7866,input.463">
					<dim>-1</dim>
					<dim>256</dim>
					<dim>36</dim>
					<dim>64</dim>
				</port>
			</output>
		</layer>
		<layer id="96" name="Multiply_89737_compressed" type="Const" version="opset1">
			<data element_type="f16" shape="256, 256, 1, 1" offset="274736" size="131072" />
			<output>
				<port id="0" precision="FP16">
					<dim>256</dim>
					<dim>256</dim>
					<dim>1</dim>
					<dim>1</dim>
				</port>
			</output>
		</layer>
		<layer id="97" name="Multiply_89737" type="Convert" version="opset1">
			<data destination_type="f32" />
			<rt_info>
				<attribute name="decompression" version="0" />
			</rt_info>
			<input>
				<port id="0" precision="FP16">
					<dim>256</dim>
					<dim>256</dim>
					<dim>1</dim>
					<dim>1</dim>
				</port>
			</input>
			<output>
				<port id="1" precision="FP32">
					<dim>256</dim>
					<dim>256</dim>
					<dim>1</dim>
					<dim>1</dim>
				</port>
			</output>
		</layer>
		<layer id="98" name="Multiply_89669" type="Convolution" version="opset1">
			<data strides="1, 1" dilations="1, 1" pads_begin="0, 0" pads_end="0, 0" auto_pad="explicit" />
			<input>
				<port id="0" precision="FP32">
					<dim>-1</dim>
					<dim>256</dim>
					<dim>36</dim>
					<dim>64</dim>
				</port>
				<port id="1" precision="FP32">
					<dim>256</dim>
					<dim>256</dim>
					<dim>1</dim>
					<dim>1</dim>
				</port>
			</input>
			<output>
				<port id="2" precision="FP32">
					<dim>-1</dim>
					<dim>256</dim>
					<dim>36</dim>
					<dim>64</dim>
				</port>
			</output>
		</layer>
		<layer id="99" name="Constant_89674_compressed" type="Const" version="opset1">
			<data element_type="f16" shape="1, 256, 1, 1" offset="405808" size="512" />
			<output>
				<port id="0" precision="FP16">
					<dim>1</dim>
					<dim>256</dim>
					<dim>1</dim>
					<dim>1</dim>
				</port>
			</output>
		</layer>
		<layer id="100" name="Constant_89674" type="Convert" version="opset1">
			<data destination_type="f32" />
			<rt_info>
				<attribute name="decompression" version="0" />
			</rt_info>
			<input>
				<port id="0" precision="FP16">
					<dim>1</dim>
					<dim>256</dim>
					<dim>1</dim>
					<dim>1</dim>
				</port>
			</input>
			<output>
				<port id="1" precision="FP32">
					<dim>1</dim>
					<dim>256</dim>
					<dim>1</dim>
					<dim>1</dim>
				</port>
			</output>
		</layer>
		<layer id="101" name="__module.model.ball_grid.features.9.block.1/aten::batch_norm/BatchNormInference" type="Add" version="opset1">
			<data auto_broadcast="numpy" />
			<input>
				<port id="0" precision="FP32">
					<dim>-1</dim>
					<dim>256</dim>
					<dim>36</dim>
					<dim>64</dim>
				</port>
				<port id="1" precision="FP32">
					<dim>1</dim>
					<dim>256</dim>
					<dim>1</dim>
					<dim>1</dim>
				</port>
			</input>
			<output>
				<port id="2" precision="FP32" names="7877_1">
					<dim>-1</dim>
					<dim>256</dim>
					<dim>36</dim>
					<dim>64</dim>
				</port>
			</output>
		</layer>
		<layer id="102" name="__module.model.ball_grid.features.9.block.2/aten::relu_/Relu" type="ReLU" version="opset1">
			<input>
				<port id="0" precision="FP32">
					<dim>-1</dim>
					<dim>256</dim>
					<dim>36</dim>
					<dim>64</dim>
				</port>
			</input>
			<output>
				<port id="1" precision="FP32" names="7877,input.467">
					<dim>-1</dim>
					<dim>256</dim>
					<dim>36</dim>
					<dim>64</dim>
				</port>
			</output>
		</layer>
		<layer id="103" name="__module.model.ball_grid.features.10.block.0.depthwise/aten::_convolution/Reshape_compressed" type="Const" version="opset1">
			<data element_type="f16" shape="256, 1, 1, 3, 3" offset="406320" size="4608" />
			<output>
				<port id="0" precision="FP16">
					<dim>256</dim>
					<dim>1</dim>
					<dim>1</dim>
					<dim>3</dim>
					<dim>3</dim>
				</port>
			</output>
		</layer>
		<layer id="104" name="__module.model.ball_grid.features.10.block.0.depthwise/aten::_convolution/Reshape" type="Convert" version="opset1">
			<data destination_type="f32" />
			<rt_info>
				<attribute name="decompression" version="0" />
			</rt_info>
			<input>
				<port id="0" precision="FP16">
					<dim>256</dim>
					<dim>1</dim>
					<dim>1</dim>
					<dim>3</dim>
					<dim>3</dim>
				</port>
			</input>
			<output>
				<port id="1" precision="FP32">
					<dim>256</dim>
					<dim>1</dim>
					<dim>1</dim>
					<dim>3</dim>
					<dim>3</dim>
				</port>
			</output>
		</layer>
		<layer id="105" name="__module.model.ball_grid.features.10.block.0.depthwise/aten::_convolution/GroupConvolution" type="GroupConvolution" version="opset1">
			<data strides="1, 1" pads_begin="1, 1" pads_end="1, 1" dilations="1, 1" auto_pad="explicit" />
			<input>
				<port id="0" precision="FP32">
					<dim>-1</dim>
					<dim>256</dim>
					<dim>36</dim>
					<dim>64</dim>
				</port>
				<port id="1" precision="FP32">
					<dim>256</dim>
					<dim>1</dim>
					<dim>1</dim>
					<dim>3</dim>
					<dim>3</dim>
				</port>
			</input>
			<output>
				<port id="2" precision="FP32" names="7889,input.471">
					<dim>-1</dim>
					<dim>256</dim>
					<dim>36</dim>
					<dim>64</dim>
				</port>
			</output>
		</layer>
		<layer id="106" name="Multiply_89741_compressed" type="Const" version="opset1">
			<data element_type="f16" shape="256, 256, 1, 1" offset="410928" size="131072" />
			<output>
				<port id="0" precision="FP16">
					<dim>256</dim>
					<dim>256</dim>
					<dim>1</dim>
					<dim>1</dim>
				</port>
			</output>
		</layer>
		<layer id="107" name="Multiply_89741" type="Convert" version="opset1">
			<data destination_type="f32" />
			<rt_info>
				<attribute name="decompression" version="0" />
			</rt_info>
			<input>
				<port id="0" precision="FP16">
					<dim>256</dim>
					<dim>256</dim>
					<dim>1</dim>
					<dim>1</dim>
				</port>
			</input>
			<output>
				<port id="1" precision="FP32">
					<dim>256</dim>
					<dim>256</dim>
					<dim>1</dim>
					<dim>1</dim>
				</port>
			</output>
		</layer>
		<layer id="108" name="Multiply_89676" type="Convolution" version="opset1">
			<data strides="1, 1" dilations="1, 1" pads_begin="0, 0" pads_end="0, 0" auto_pad="explicit" />
			<input>
				<port id="0" precision="FP32">
					<dim>-1</dim>
					<dim>256</dim>
					<dim>36</dim>
					<dim>64</dim>
				</port>
				<port id="1" precision="FP32">
					<dim>256</dim>
					<dim>256</dim>
					<dim>1</dim>
					<dim>1</dim>
				</port>
			</input>
			<output>
				<port id="2" precision="FP32">
					<dim>-1</dim>
					<dim>256</dim>
					<dim>36</dim>
					<dim>64</dim>
				</port>
			</output>
		</layer>
		<layer id="109" name="Constant_89681_compressed" type="Const" version="opset1">
			<data element_type="f16" shape="1, 256, 1, 1" offset="542000" size="512" />
			<output>
				<port id="0" precision="FP16">
					<dim>1</dim>
					<dim>256</dim>
					<dim>1</dim>
					<dim>1</dim>
				</port>
			</output>
		</layer>
		<layer id="110" name="Constant_89681" type="Convert" version="opset1">
			<data destination_type="f32" />
			<rt_info>
				<attribute name="decompression" version="0" />
			</rt_info>
			<input>
				<port id="0" precision="FP16">
					<dim>1</dim>
					<dim>256</dim>
					<dim>1</dim>
					<dim>1</dim>
				</port>
			</input>
			<output>
				<port id="1" precision="FP32">
					<dim>1</dim>
					<dim>256</dim>
					<dim>1</dim>
					<dim>1</dim>
				</port>
			</output>
		</layer>
		<layer id="111" name="__module.model.ball_grid.features.10.block.1/aten::batch_norm/BatchNormInference" type="Add" version="opset1">
			<data auto_broadcast="numpy" />
			<input>
				<port id="0" precision="FP32">
					<dim>-1</dim>
					<dim>256</dim>
					<dim>36</dim>
					<dim>64</dim>
				</port>
				<port id="1" precision="FP32">
					<dim>1</dim>
					<dim>256</dim>
					<dim>1</dim>
					<dim>1</dim>
				</port>
			</input>
			<output>
				<port id="2" precision="FP32" names="7900_1">
					<dim>-1</dim>
					<dim>256</dim>
					<dim>36</dim>
					<dim>64</dim>
				</port>
			</output>
		</layer>
		<layer id="112" name="__module.model.ball_grid.features.10.block.2/aten::relu_/Relu" type="ReLU" version="opset1">
			<input>
				<port id="0" precision="FP32">
					<dim>-1</dim>
					<dim>256</dim>
					<dim>36</dim>
					<dim>64</dim>
				</port>
			</input>
			<output>
				<port id="1" precision="FP32" names="7900,input.475">
					<dim>-1</dim>
					<dim>256</dim>
					<dim>36</dim>
					<dim>64</dim>
				</port>
			</output>
		</layer>
		<layer id="113" name="__module.model.ball_grid.features.11.block.0.depthwise/aten::_convolution/Reshape_compressed" type="Const" version="opset1">
			<data element_type="f16" shape="256, 1, 1, 3, 3" offset="542512" size="4608" />
			<output>
				<port id="0" precision="FP16">
					<dim>256</dim>
					<dim>1</dim>
					<dim>1</dim>
					<dim>3</dim>
					<dim>3</dim>
				</port>
			</output>
		</layer>
		<layer id="114" name="__module.model.ball_grid.features.11.block.0.depthwise/aten::_convolution/Reshape" type="Convert" version="opset1">
			<data destination_type="f32" />
			<rt_info>
				<attribute name="decompression" version="0" />
			</rt_info>
			<input>
				<port id="0" precision="FP16">
					<dim>256</dim>
					<dim>1</dim>
					<dim>1</dim>
					<dim>3</dim>
					<dim>3</dim>
				</port>
			</input>
			<output>
				<port id="1" precision="FP32">
					<dim>256</dim>
					<dim>1</dim>
					<dim>1</dim>
					<dim>3</dim>
					<dim>3</dim>
				</port>
			</output>
		</layer>
		<layer id="115" name="__module.model.ball_grid.features.11.block.0.depthwise/aten::_convolution/GroupConvolution" type="GroupConvolution" version="opset1">
			<data strides="1, 1" pads_begin="1, 1" pads_end="1, 1" dilations="1, 1" auto_pad="explicit" />
			<input>
				<port id="0" precision="FP32">
					<dim>-1</dim>
					<dim>256</dim>
					<dim>36</dim>
					<dim>64</dim>
				</port>
				<port id="1" precision="FP32">
					<dim>256</dim>
					<dim>1</dim>
					<dim>1</dim>
					<dim>3</dim>
					<dim>3</dim>
				</port>
			</input>
			<output>
				<port id="2" precision="FP32" names="7912,input.479">
					<dim>-1</dim>
					<dim>256</dim>
					<dim>36</dim>
					<dim>64</dim>
				</port>
			</output>
		</layer>
		<layer id="116" name="Multiply_89745_compressed" type="Const" version="opset1">
			<data element_type="f16" shape="256, 256, 1, 1" offset="547120" size="131072" />
			<output>
				<port id="0" precision="FP16">
					<dim>256</dim>
					<dim>256</dim>
					<dim>1</dim>
					<dim>1</dim>
				</port>
			</output>
		</layer>
		<layer id="117" name="Multiply_89745" type="Convert" version="opset1">
			<data destination_type="f32" />
			<rt_info>
				<attribute name="decompression" version="0" />
			</rt_info>
			<input>
				<port id="0" precision="FP16">
					<dim>256</dim>
					<dim>256</dim>
					<dim>1</dim>
					<dim>1</dim>
				</port>
			</input>
			<output>
				<port id="1" precision="FP32">
					<dim>256</dim>
					<dim>256</dim>
					<dim>1</dim>
					<dim>1</dim>
				</port>
			</output>
		</layer>
		<layer id="118" name="Multiply_89683" type="Convolution" version="opset1">
			<data strides="1, 1" dilations="1, 1" pads_begin="0, 0" pads_end="0, 0" auto_pad="explicit" />
			<input>
				<port id="0" precision="FP32">
					<dim>-1</dim>
					<dim>256</dim>
					<dim>36</dim>
					<dim>64</dim>
				</port>
				<port id="1" precision="FP32">
					<dim>256</dim>
					<dim>256</dim>
					<dim>1</dim>
					<dim>1</dim>
				</port>
			</input>
			<output>
				<port id="2" precision="FP32">
					<dim>-1</dim>
					<dim>256</dim>
					<dim>36</dim>
					<dim>64</dim>
				</port>
			</output>
		</layer>
		<layer id="119" name="Constant_89688_compressed" type="Const" version="opset1">
			<data element_type="f16" shape="1, 256, 1, 1" offset="678192" size="512" />
			<output>
				<port id="0" precision="FP16">
					<dim>1</dim>
					<dim>256</dim>
					<dim>1</dim>
					<dim>1</dim>
				</port>
			</output>
		</layer>
		<layer id="120" name="Constant_89688" type="Convert" version="opset1">
			<data destination_type="f32" />
			<rt_info>
				<attribute name="decompression" version="0" />
			</rt_info>
			<input>
				<port id="0" precision="FP16">
					<dim>1</dim>
					<dim>256</dim>
					<dim>1</dim>
					<dim>1</dim>
				</port>
			</input>
			<output>
				<port id="1" precision="FP32">
					<dim>1</dim>
					<dim>256</dim>
					<dim>1</dim>
					<dim>1</dim>
				</port>
			</output>
		</layer>
		<layer id="121" name="__module.model.ball_grid.features.11.block.1/aten::batch_norm/BatchNormInference" type="Add" version="opset1">
			<data auto_broadcast="numpy" />
			<input>
				<port id="0" precision="FP32">
					<dim>-1</dim>
					<dim>256</dim>
					<dim>36</dim>
					<dim>64</dim>
				</port>
				<port id="1" precision="FP32">
					<dim>1</dim>
					<dim>256</dim>
					<dim>1</dim>
					<dim>1</dim>
				</port>
			</input>
			<output>
				<port id="2" precision="FP32" names="7923_1">
					<dim>-1</dim>
					<dim>256</dim>
					<dim>36</dim>
					<dim>64</dim>
				</port>
			</output>
		</layer>
		<layer id="122" name="__module.model.ball_grid.features.11.block.2/aten::relu_/Relu" type="ReLU" version="opset1">
			<input>
				<port id="0" precision="FP32">
					<dim>-1</dim>
					<dim>256</dim>
					<dim>36</dim>
					<dim>64</dim>
				</port>
			</input>
			<output>
				<port id="1" precision="FP32" names="7923,input.483">
					<dim>-1</dim>
					<dim>256</dim>
					<dim>36</dim>
					<dim>64</dim>
				</port>
			</output>
		</layer>
		<layer id="123" name="__module.model.ball_grid.features.12.block.0.depthwise/aten::_convolution/Reshape_compressed" type="Const" version="opset1">
			<data element_type="f16" shape="256, 1, 1, 3, 3" offset="678704" size="4608" />
			<output>
				<port id="0" precision="FP16">
					<dim>256</dim>
					<dim>1</dim>
					<dim>1</dim>
					<dim>3</dim>
					<dim>3</dim>
				</port>
			</output>
		</layer>
		<layer id="124" name="__module.model.ball_grid.features.12.block.0.depthwise/aten::_convolution/Reshape" type="Convert" version="opset1">
			<data destination_type="f32" />
			<rt_info>
				<attribute name="decompression" version="0" />
			</rt_info>
			<input>
				<port id="0" precision="FP16">
					<dim>256</dim>
					<dim>1</dim>
					<dim>1</dim>
					<dim>3</dim>
					<dim>3</dim>
				</port>
			</input>
			<output>
				<port id="1" precision="FP32">
					<dim>256</dim>
					<dim>1</dim>
					<dim>1</dim>
					<dim>3</dim>
					<dim>3</dim>
				</port>
			</output>
		</layer>
		<layer id="125" name="__module.model.ball_grid.features.12.block.0.depthwise/aten::_convolution/GroupConvolution" type="GroupConvolution" version="opset1">
			<data strides="1, 1" pads_begin="1, 1" pads_end="1, 1" dilations="1, 1" auto_pad="explicit" />
			<input>
				<port id="0" precision="FP32">
					<dim>-1</dim>
					<dim>256</dim>
					<dim>36</dim>
					<dim>64</dim>
				</port>
				<port id="1" precision="FP32">
					<dim>256</dim>
					<dim>1</dim>
					<dim>1</dim>
					<dim>3</dim>
					<dim>3</dim>
				</port>
			</input>
			<output>
				<port id="2" precision="FP32" names="7935,input.487">
					<dim>-1</dim>
					<dim>256</dim>
					<dim>36</dim>
					<dim>64</dim>
				</port>
			</output>
		</layer>
		<layer id="126" name="Multiply_89749_compressed" type="Const" version="opset1">
			<data element_type="f16" shape="512, 256, 1, 1" offset="683312" size="262144" />
			<output>
				<port id="0" precision="FP16">
					<dim>512</dim>
					<dim>256</dim>
					<dim>1</dim>
					<dim>1</dim>
				</port>
			</output>
		</layer>
		<layer id="127" name="Multiply_89749" type="Convert" version="opset1">
			<data destination_type="f32" />
			<rt_info>
				<attribute name="decompression" version="0" />
			</rt_info>
			<input>
				<port id="0" precision="FP16">
					<dim>512</dim>
					<dim>256</dim>
					<dim>1</dim>
					<dim>1</dim>
				</port>
			</input>
			<output>
				<port id="1" precision="FP32">
					<dim>512</dim>
					<dim>256</dim>
					<dim>1</dim>
					<dim>1</dim>
				</port>
			</output>
		</layer>
		<layer id="128" name="Multiply_89690" type="Convolution" version="opset1">
			<data strides="1, 1" dilations="1, 1" pads_begin="0, 0" pads_end="0, 0" auto_pad="explicit" />
			<input>
				<port id="0" precision="FP32">
					<dim>-1</dim>
					<dim>256</dim>
					<dim>36</dim>
					<dim>64</dim>
				</port>
				<port id="1" precision="FP32">
					<dim>512</dim>
					<dim>256</dim>
					<dim>1</dim>
					<dim>1</dim>
				</port>
			</input>
			<output>
				<port id="2" precision="FP32">
					<dim>-1</dim>
					<dim>512</dim>
					<dim>36</dim>
					<dim>64</dim>
				</port>
			</output>
		</layer>
		<layer id="129" name="Constant_89695_compressed" type="Const" version="opset1">
			<data element_type="f16" shape="1, 512, 1, 1" offset="945456" size="1024" />
			<output>
				<port id="0" precision="FP16">
					<dim>1</dim>
					<dim>512</dim>
					<dim>1</dim>
					<dim>1</dim>
				</port>
			</output>
		</layer>
		<layer id="130" name="Constant_89695" type="Convert" version="opset1">
			<data destination_type="f32" />
			<rt_info>
				<attribute name="decompression" version="0" />
			</rt_info>
			<input>
				<port id="0" precision="FP16">
					<dim>1</dim>
					<dim>512</dim>
					<dim>1</dim>
					<dim>1</dim>
				</port>
			</input>
			<output>
				<port id="1" precision="FP32">
					<dim>1</dim>
					<dim>512</dim>
					<dim>1</dim>
					<dim>1</dim>
				</port>
			</output>
		</layer>
		<layer id="131" name="__module.model.ball_grid.features.12.block.1/aten::batch_norm/BatchNormInference" type="Add" version="opset1">
			<data auto_broadcast="numpy" />
			<input>
				<port id="0" precision="FP32">
					<dim>-1</dim>
					<dim>512</dim>
					<dim>36</dim>
					<dim>64</dim>
				</port>
				<port id="1" precision="FP32">
					<dim>1</dim>
					<dim>512</dim>
					<dim>1</dim>
					<dim>1</dim>
				</port>
			</input>
			<output>
				<port id="2" precision="FP32" names="7946_1">
					<dim>-1</dim>
					<dim>512</dim>
					<dim>36</dim>
					<dim>64</dim>
				</port>
			</output>
		</layer>
		<layer id="132" name="__module.model.ball_grid.features.12.block.2/aten::relu_/Relu" type="ReLU" version="opset1">
			<input>
				<port id="0" precision="FP32">
					<dim>-1</dim>
					<dim>512</dim>
					<dim>36</dim>
					<dim>64</dim>
				</port>
			</input>
			<output>
				<port id="1" precision="FP32" names="7946,input.491">
					<dim>-1</dim>
					<dim>512</dim>
					<dim>36</dim>
					<dim>64</dim>
				</port>
			</output>
		</layer>
		<layer id="133" name="__module.model.ball_grid.features.13.block.0.depthwise/aten::_convolution/Reshape_compressed" type="Const" version="opset1">
			<data element_type="f16" shape="512, 1, 1, 3, 3" offset="946480" size="9216" />
			<output>
				<port id="0" precision="FP16">
					<dim>512</dim>
					<dim>1</dim>
					<dim>1</dim>
					<dim>3</dim>
					<dim>3</dim>
				</port>
			</output>
		</layer>
		<layer id="134" name="__module.model.ball_grid.features.13.block.0.depthwise/aten::_convolution/Reshape" type="Convert" version="opset1">
			<data destination_type="f32" />
			<rt_info>
				<attribute name="decompression" version="0" />
			</rt_info>
			<input>
				<port id="0" precision="FP16">
					<dim>512</dim>
					<dim>1</dim>
					<dim>1</dim>
					<dim>3</dim>
					<dim>3</dim>
				</port>
			</input>
			<output>
				<port id="1" precision="FP32">
					<dim>512</dim>
					<dim>1</dim>
					<dim>1</dim>
					<dim>3</dim>
					<dim>3</dim>
				</port>
			</output>
		</layer>
		<layer id="135" name="__module.model.ball_grid.features.13.block.0.depthwise/aten::_convolution/GroupConvolution" type="GroupConvolution" version="opset1">
			<data strides="1, 1" pads_begin="1, 1" pads_end="1, 1" dilations="1, 1" auto_pad="explicit" />
			<input>
				<port id="0" precision="FP32">
					<dim>-1</dim>
					<dim>512</dim>
					<dim>36</dim>
					<dim>64</dim>
				</port>
				<port id="1" precision="FP32">
					<dim>512</dim>
					<dim>1</dim>
					<dim>1</dim>
					<dim>3</dim>
					<dim>3</dim>
				</port>
			</input>
			<output>
				<port id="2" precision="FP32" names="7958,input.495">
					<dim>-1</dim>
					<dim>512</dim>
					<dim>36</dim>
					<dim>64</dim>
				</port>
			</output>
		</layer>
		<layer id="136" name="Multiply_89753_compressed" type="Const" version="opset1">
			<data element_type="f16" shape="512, 512, 1, 1" offset="955696" size="524288" />
			<output>
				<port id="0" precision="FP16">
					<dim>512</dim>
					<dim>512</dim>
					<dim>1</dim>
					<dim>1</dim>
				</port>
			</output>
		</layer>
		<layer id="137" name="Multiply_89753" type="Convert" version="opset1">
			<data destination_type="f32" />
			<rt_info>
				<attribute name="decompression" version="0" />
			</rt_info>
			<input>
				<port id="0" precision="FP16">
					<dim>512</dim>
					<dim>512</dim>
					<dim>1</dim>
					<dim>1</dim>
				</port>
			</input>
			<output>
				<port id="1" precision="FP32">
					<dim>512</dim>
					<dim>512</dim>
					<dim>1</dim>
					<dim>1</dim>
				</port>
			</output>
		</layer>
		<layer id="138" name="Multiply_89697" type="Convolution" version="opset1">
			<data strides="1, 1" dilations="1, 1" pads_begin="0, 0" pads_end="0, 0" auto_pad="explicit" />
			<input>
				<port id="0" precision="FP32">
					<dim>-1</dim>
					<dim>512</dim>
					<dim>36</dim>
					<dim>64</dim>
				</port>
				<port id="1" precision="FP32">
					<dim>512</dim>
					<dim>512</dim>
					<dim>1</dim>
					<dim>1</dim>
				</port>
			</input>
			<output>
				<port id="2" precision="FP32">
					<dim>-1</dim>
					<dim>512</dim>
					<dim>36</dim>
					<dim>64</dim>
				</port>
			</output>
		</layer>
		<layer id="139" name="Constant_89702_compressed" type="Const" version="opset1">
			<data element_type="f16" shape="1, 512, 1, 1" offset="1479984" size="1024" />
			<output>
				<port id="0" precision="FP16">
					<dim>1</dim>
					<dim>512</dim>
					<dim>1</dim>
					<dim>1</dim>
				</port>
			</output>
		</layer>
		<layer id="140" name="Constant_89702" type="Convert" version="opset1">
			<data destination_type="f32" />
			<rt_info>
				<attribute name="decompression" version="0" />
			</rt_info>
			<input>
				<port id="0" precision="FP16">
					<dim>1</dim>
					<dim>512</dim>
					<dim>1</dim>
					<dim>1</dim>
				</port>
			</input>
			<output>
				<port id="1" precision="FP32">
					<dim>1</dim>
					<dim>512</dim>
					<dim>1</dim>
					<dim>1</dim>
				</port>
			</output>
		</layer>
		<layer id="141" name="__module.model.ball_grid.features.13.block.1/aten::batch_norm/BatchNormInference" type="Add" version="opset1">
			<data auto_broadcast="numpy" />
			<input>
				<port id="0" precision="FP32">
					<dim>-1</dim>
					<dim>512</dim>
					<dim>36</dim>
					<dim>64</dim>
				</port>
				<port id="1" precision="FP32">
					<dim>1</dim>
					<dim>512</dim>
					<dim>1</dim>
					<dim>1</dim>
				</port>
			</input>
			<output>
				<port id="2" precision="FP32" names="7969_1">
					<dim>-1</dim>
					<dim>512</dim>
					<dim>36</dim>
					<dim>64</dim>
				</port>
			</output>
		</layer>
		<layer id="142" name="__module.model.ball_grid.features.13.block.2/aten::relu_/Relu" type="ReLU" version="opset1">
			<input>
				<port id="0" precision="FP32">
					<dim>-1</dim>
					<dim>512</dim>
					<dim>36</dim>
					<dim>64</dim>
				</port>
			</input>
			<output>
				<port id="1" precision="FP32" names="7969,input.499">
					<dim>-1</dim>
					<dim>512</dim>
					<dim>36</dim>
					<dim>64</dim>
				</port>
			</output>
		</layer>
		<layer id="143" name="__module.model.ball_grid.features.14.block.0.depthwise/aten::_convolution/Reshape_compressed" type="Const" version="opset1">
			<data element_type="f16" shape="512, 1, 1, 3, 3" offset="1481008" size="9216" />
			<output>
				<port id="0" precision="FP16">
					<dim>512</dim>
					<dim>1</dim>
					<dim>1</dim>
					<dim>3</dim>
					<dim>3</dim>
				</port>
			</output>
		</layer>
		<layer id="144" name="__module.model.ball_grid.features.14.block.0.depthwise/aten::_convolution/Reshape" type="Convert" version="opset1">
			<data destination_type="f32" />
			<rt_info>
				<attribute name="decompression" version="0" />
			</rt_info>
			<input>
				<port id="0" precision="FP16">
					<dim>512</dim>
					<dim>1</dim>
					<dim>1</dim>
					<dim>3</dim>
					<dim>3</dim>
				</port>
			</input>
			<output>
				<port id="1" precision="FP32">
					<dim>512</dim>
					<dim>1</dim>
					<dim>1</dim>
					<dim>3</dim>
					<dim>3</dim>
				</port>
			</output>
		</layer>
		<layer id="145" name="__module.model.ball_grid.features.14.block.0.depthwise/aten::_convolution/GroupConvolution" type="GroupConvolution" version="opset1">
			<data strides="1, 1" pads_begin="1, 1" pads_end="1, 1" dilations="1, 1" auto_pad="explicit" />
			<input>
				<port id="0" precision="FP32">
					<dim>-1</dim>
					<dim>512</dim>
					<dim>36</dim>
					<dim>64</dim>
				</port>
				<port id="1" precision="FP32">
					<dim>512</dim>
					<dim>1</dim>
					<dim>1</dim>
					<dim>3</dim>
					<dim>3</dim>
				</port>
			</input>
			<output>
				<port id="2" precision="FP32" names="7981,input.503">
					<dim>-1</dim>
					<dim>512</dim>
					<dim>36</dim>
					<dim>64</dim>
				</port>
			</output>
		</layer>
		<layer id="146" name="Multiply_89757_compressed" type="Const" version="opset1">
			<data element_type="f16" shape="512, 512, 1, 1" offset="1490224" size="524288" />
			<output>
				<port id="0" precision="FP16">
					<dim>512</dim>
					<dim>512</dim>
					<dim>1</dim>
					<dim>1</dim>
				</port>
			</output>
		</layer>
		<layer id="147" name="Multiply_89757" type="Convert" version="opset1">
			<data destination_type="f32" />
			<rt_info>
				<attribute name="decompression" version="0" />
			</rt_info>
			<input>
				<port id="0" precision="FP16">
					<dim>512</dim>
					<dim>512</dim>
					<dim>1</dim>
					<dim>1</dim>
				</port>
			</input>
			<output>
				<port id="1" precision="FP32">
					<dim>512</dim>
					<dim>512</dim>
					<dim>1</dim>
					<dim>1</dim>
				</port>
			</output>
		</layer>
		<layer id="148" name="Multiply_89704" type="Convolution" version="opset1">
			<data strides="1, 1" dilations="1, 1" pads_begin="0, 0" pads_end="0, 0" auto_pad="explicit" />
			<input>
				<port id="0" precision="FP32">
					<dim>-1</dim>
					<dim>512</dim>
					<dim>36</dim>
					<dim>64</dim>
				</port>
				<port id="1" precision="FP32">
					<dim>512</dim>
					<dim>512</dim>
					<dim>1</dim>
					<dim>1</dim>
				</port>
			</input>
			<output>
				<port id="2" precision="FP32">
					<dim>-1</dim>
					<dim>512</dim>
					<dim>36</dim>
					<dim>64</dim>
				</port>
			</output>
		</layer>
		<layer id="149" name="Constant_89709_compressed" type="Const" version="opset1">
			<data element_type="f16" shape="1, 512, 1, 1" offset="2014512" size="1024" />
			<output>
				<port id="0" precision="FP16">
					<dim>1</dim>
					<dim>512</dim>
					<dim>1</dim>
					<dim>1</dim>
				</port>
			</output>
		</layer>
		<layer id="150" name="Constant_89709" type="Convert" version="opset1">
			<data destination_type="f32" />
			<rt_info>
				<attribute name="decompression" version="0" />
			</rt_info>
			<input>
				<port id="0" precision="FP16">
					<dim>1</dim>
					<dim>512</dim>
					<dim>1</dim>
					<dim>1</dim>
				</port>
			</input>
			<output>
				<port id="1" precision="FP32">
					<dim>1</dim>
					<dim>512</dim>
					<dim>1</dim>
					<dim>1</dim>
				</port>
			</output>
		</layer>
		<layer id="151" name="__module.model.ball_grid.features.14.block.1/aten::batch_norm/BatchNormInference" type="Add" version="opset1">
			<data auto_broadcast="numpy" />
			<input>
				<port id="0" precision="FP32">
					<dim>-1</dim>
					<dim>512</dim>
					<dim>36</dim>
					<dim>64</dim>
				</port>
				<port id="1" precision="FP32">
					<dim>1</dim>
					<dim>512</dim>
					<dim>1</dim>
					<dim>1</dim>
				</port>
			</input>
			<output>
				<port id="2" precision="FP32" names="7992_1">
					<dim>-1</dim>
					<dim>512</dim>
					<dim>36</dim>
					<dim>64</dim>
				</port>
			</output>
		</layer>
		<layer id="152" name="__module.model.ball_grid.features.14.block.2/aten::relu_/Relu" type="ReLU" version="opset1">
			<input>
				<port id="0" precision="FP32">
					<dim>-1</dim>
					<dim>512</dim>
					<dim>36</dim>
					<dim>64</dim>
				</port>
			</input>
			<output>
				<port id="1" precision="FP32" names="7992,input.507">
					<dim>-1</dim>
					<dim>512</dim>
					<dim>36</dim>
					<dim>64</dim>
				</port>
			</output>
		</layer>
		<layer id="153" name="self.model.ball_grid.output.0.weight_compressed" type="Const" version="opset1">
			<data element_type="f16" shape="54, 512, 3, 3" offset="2015536" size="497664" />
			<output>
				<port id="0" precision="FP16" names="self.model.ball_grid.output.0.weight">
					<dim>54</dim>
					<dim>512</dim>
					<dim>3</dim>
					<dim>3</dim>
				</port>
			</output>
		</layer>
		<layer id="154" name="self.model.ball_grid.output.0.weight" type="Convert" version="opset1">
			<data destination_type="f32" />
			<rt_info>
				<attribute name="decompression" version="0" />
			</rt_info>
			<input>
				<port id="0" precision="FP16">
					<dim>54</dim>
					<dim>512</dim>
					<dim>3</dim>
					<dim>3</dim>
				</port>
			</input>
			<output>
				<port id="1" precision="FP32">
					<dim>54</dim>
					<dim>512</dim>
					<dim>3</dim>
					<dim>3</dim>
				</port>
			</output>
		</layer>
		<layer id="155" name="__module.model.ball_grid.output.0/aten::_convolution/Convolution" type="Convolution" version="opset1">
			<data strides="1, 1" dilations="1, 1" pads_begin="1, 1" pads_end="1, 1" auto_pad="explicit" />
			<input>
				<port id="0" precision="FP32">
					<dim>-1</dim>
					<dim>512</dim>
					<dim>36</dim>
					<dim>64</dim>
				</port>
				<port id="1" precision="FP32">
					<dim>54</dim>
					<dim>512</dim>
					<dim>3</dim>
					<dim>3</dim>
				</port>
			</input>
			<output>
				<port id="2" precision="FP32">
					<dim>-1</dim>
					<dim>54</dim>
					<dim>36</dim>
					<dim>64</dim>
				</port>
			</output>
		</layer>
		<layer id="156" name="__module.model.ball_grid.output.0/aten::_convolution/Reshape_compressed" type="Const" version="opset1">
			<data element_type="f16" shape="1, 54, 1, 1" offset="2513200" size="108" />
			<output>
				<port id="0" precision="FP16">
					<dim>1</dim>
					<dim>54</dim>
					<dim>1</dim>
					<dim>1</dim>
				</port>
			</output>
		</layer>
		<layer id="157" name="__module.model.ball_grid.output.0/aten::_convolution/Reshape" type="Convert" version="opset1">
			<data destination_type="f32" />
			<rt_info>
				<attribute name="decompression" version="0" />
			</rt_info>
			<input>
				<port id="0" precision="FP16">
					<dim>1</dim>
					<dim>54</dim>
					<dim>1</dim>
					<dim>1</dim>
				</port>
			</input>
			<output>
				<port id="1" precision="FP32">
					<dim>1</dim>
					<dim>54</dim>
					<dim>1</dim>
					<dim>1</dim>
				</port>
			</output>
		</layer>
		<layer id="158" name="__module.model.ball_grid.output.0/aten::_convolution/Add" type="Add" version="opset1">
			<data auto_broadcast="numpy" />
			<input>
				<port id="0" precision="FP32">
					<dim>-1</dim>
					<dim>54</dim>
					<dim>36</dim>
					<dim>64</dim>
				</port>
				<port id="1" precision="FP32">
					<dim>1</dim>
					<dim>54</dim>
					<dim>1</dim>
					<dim>1</dim>
				</port>
			</input>
			<output>
				<port id="2" precision="FP32" names="8001,input">
					<dim>-1</dim>
					<dim>54</dim>
					<dim>36</dim>
					<dim>64</dim>
				</port>
			</output>
		</layer>
		<layer id="159" name="__module.model.ball_grid.output.1/aten::sigmoid/Sigmoid" type="Sigmoid" version="opset1">
			<input>
				<port id="0" precision="FP32">
					<dim>-1</dim>
					<dim>54</dim>
					<dim>36</dim>
					<dim>64</dim>
				</port>
			</input>
			<output>
				<port id="1" precision="FP32" names="8002,values">
					<dim>-1</dim>
					<dim>54</dim>
					<dim>36</dim>
					<dim>64</dim>
				</port>
			</output>
		</layer>
		<layer id="160" name="Constant_93919" type="Const" version="opset1">
			<data element_type="i64" shape="5" offset="2513308" size="40" />
			<rt_info>
				<attribute name="precise" version="0" />
			</rt_info>
			<output>
				<port id="0" precision="I64">
					<dim>5</dim>
				</port>
			</output>
		</layer>
		<layer id="161" name="__module.model.ball_grid/aten::view/Reshape" type="Reshape" version="opset1">
			<data special_zero="true" />
			<input>
				<port id="0" precision="FP32">
					<dim>-1</dim>
					<dim>54</dim>
					<dim>36</dim>
					<dim>64</dim>
				</port>
				<port id="1" precision="I64">
					<dim>5</dim>
				</port>
			</input>
			<output>
				<port id="2" precision="FP32" names="ball_grid">
					<dim>-1</dim>
					<dim>18</dim>
					<dim>3</dim>
					<dim>36</dim>
					<dim>64</dim>
				</port>
			</output>
		</layer>
		<layer id="162" name="self.model.backbone.stem.block.0.weight_compressed" type="Const" version="opset1">
			<data element_type="f16" shape="16, 3, 3, 3" offset="2513348" size="864" />
			<output>
				<port id="0" precision="FP16" names="self.model.backbone.stem.block.0.weight">
					<dim>16</dim>
					<dim>3</dim>
					<dim>3</dim>
					<dim>3</dim>
				</port>
			</output>
		</layer>
		<layer id="163" name="self.model.backbone.stem.block.0.weight" type="Convert" version="opset1">
			<data destination_type="f32" />
			<rt_info>
				<attribute name="decompression" version="0" />
			</rt_info>
			<input>
				<port id="0" precision="FP16">
					<dim>16</dim>
					<dim>3</dim>
					<dim>3</dim>
					<dim>3</dim>
				</port>
			</input>
			<output>
				<port id="1" precision="FP32">
					<dim>16</dim>
					<dim>3</dim>
					<dim>3</dim>
					<dim>3</dim>
				</port>
			</output>
		</layer>
		<layer id="164" name="__module.model.backbone.stem.block.0/aten::_convolution/Convolution" type="Convolution" version="opset1">
			<data strides="2, 2" dilations="1, 1" pads_begin="1, 1" pads_end="1, 1" auto_pad="explicit" />
			<input>
				<port id="0" precision="FP32">
					<dim>-1</dim>
					<dim>-1</dim>
					<dim>288</dim>
					<dim>512</dim>
				</port>
				<port id="1" precision="FP32">
					<dim>16</dim>
					<dim>3</dim>
					<dim>3</dim>
					<dim>3</dim>
				</port>
			</input>
			<output>
				<port id="2" precision="FP32" names="117,input.5">
					<dim>-1</dim>
					<dim>16</dim>
					<dim>144</dim>
					<dim>256</dim>
				</port>
			</output>
		</layer>
		<layer id="165" name="self.model.backbone.stem.block.1.weight_compressed" type="Const" version="opset1">
			<data element_type="f16" shape="16" offset="2514212" size="32" />
			<output>
				<port id="0" precision="FP16" names="self.model.backbone.stem.block.1.weight">
					<dim>16</dim>
				</port>
			</output>
		</layer>
		<layer id="166" name="self.model.backbone.stem.block.1.weight" type="Convert" version="opset1">
			<data destination_type="f32" />
			<rt_info>
				<attribute name="decompression" version="0" />
			</rt_info>
			<input>
				<port id="0" precision="FP16">
					<dim>16</dim>
				</port>
			</input>
			<output>
				<port id="1" precision="FP32">
					<dim>16</dim>
				</port>
			</output>
		</layer>
		<layer id="167" name="self.model.backbone.stem.block.1.bias" type="Const" version="opset1">
			<data element_type="f32" shape="16" offset="2514244" size="64" />
			<output>
				<port id="0" precision="FP32" names="self.model.backbone.stem.block.1.bias">
					<dim>16</dim>
				</port>
			</output>
		</layer>
		<layer id="168" name="__module.model.backbone.stem.block.1/aten::group_norm/GroupNormalization" type="GroupNormalization" version="opset12">
			<data num_groups="8" epsilon="9.9999997473787516e-06" />
			<input>
				<port id="0" precision="FP32">
					<dim>-1</dim>
					<dim>16</dim>
					<dim>144</dim>
					<dim>256</dim>
				</port>
				<port id="1" precision="FP32">
					<dim>16</dim>
				</port>
				<port id="2" precision="FP32">
					<dim>16</dim>
				</port>
			</input>
			<output>
				<port id="3" precision="FP32" names="120,input.7">
					<dim>-1</dim>
					<dim>16</dim>
					<dim>144</dim>
					<dim>256</dim>
				</port>
			</output>
		</layer>
		<layer id="169" name="__module.model.backbone.stem.block.2/aten::gelu/Gelu" type="Gelu" version="opset7">
			<data approximation_mode="ERF" />
			<input>
				<port id="0" precision="FP32">
					<dim>-1</dim>
					<dim>16</dim>
					<dim>144</dim>
					<dim>256</dim>
				</port>
			</input>
			<output>
				<port id="1" precision="FP32" names="121,input.9">
					<dim>-1</dim>
					<dim>16</dim>
					<dim>144</dim>
					<dim>256</dim>
				</port>
			</output>
		</layer>
		<layer id="170" name="self.model.backbone.stem.block.3.weight_compressed" type="Const" version="opset1">
			<data element_type="f16" shape="16, 16, 3, 3" offset="2514308" size="4608" />
			<output>
				<port id="0" precision="FP16" names="self.model.backbone.stem.block.3.weight">
					<dim>16</dim>
					<dim>16</dim>
					<dim>3</dim>
					<dim>3</dim>
				</port>
			</output>
		</layer>
		<layer id="171" name="self.model.backbone.stem.block.3.weight" type="Convert" version="opset1">
			<data destination_type="f32" />
			<rt_info>
				<attribute name="decompression" version="0" />
			</rt_info>
			<input>
				<port id="0" precision="FP16">
					<dim>16</dim>
					<dim>16</dim>
					<dim>3</dim>
					<dim>3</dim>
				</port>
			</input>
			<output>
				<port id="1" precision="FP32">
					<dim>16</dim>
					<dim>16</dim>
					<dim>3</dim>
					<dim>3</dim>
				</port>
			</output>
		</layer>
		<layer id="172" name="__module.model.backbone.stem.block.3/aten::_convolution/Convolution" type="Convolution" version="opset1">
			<data strides="1, 1" dilations="1, 1" pads_begin="1, 1" pads_end="1, 1" auto_pad="explicit" />
			<input>
				<port id="0" precision="FP32">
					<dim>-1</dim>
					<dim>16</dim>
					<dim>144</dim>
					<dim>256</dim>
				</port>
				<port id="1" precision="FP32">
					<dim>16</dim>
					<dim>16</dim>
					<dim>3</dim>
					<dim>3</dim>
				</port>
			</input>
			<output>
				<port id="2" precision="FP32" names="127,input.11">
					<dim>-1</dim>
					<dim>16</dim>
					<dim>144</dim>
					<dim>256</dim>
				</port>
			</output>
		</layer>
		<layer id="173" name="self.model.backbone.stem.block.4.weight_compressed" type="Const" version="opset1">
			<data element_type="f16" shape="16" offset="2518916" size="32" />
			<output>
				<port id="0" precision="FP16" names="self.model.backbone.stem.block.4.weight">
					<dim>16</dim>
				</port>
			</output>
		</layer>
		<layer id="174" name="self.model.backbone.stem.block.4.weight" type="Convert" version="opset1">
			<data destination_type="f32" />
			<rt_info>
				<attribute name="decompression" version="0" />
			</rt_info>
			<input>
				<port id="0" precision="FP16">
					<dim>16</dim>
				</port>
			</input>
			<output>
				<port id="1" precision="FP32">
					<dim>16</dim>
				</port>
			</output>
		</layer>
		<layer id="175" name="self.model.backbone.stem.block.4.bias_compressed" type="Const" version="opset1">
			<data element_type="f16" shape="16" offset="2518948" size="32" />
			<output>
				<port id="0" precision="FP16" names="self.model.backbone.stem.block.4.bias">
					<dim>16</dim>
				</port>
			</output>
		</layer>
		<layer id="176" name="self.model.backbone.stem.block.4.bias" type="Convert" version="opset1">
			<data destination_type="f32" />
			<rt_info>
				<attribute name="decompression" version="0" />
			</rt_info>
			<input>
				<port id="0" precision="FP16">
					<dim>16</dim>
				</port>
			</input>
			<output>
				<port id="1" precision="FP32">
					<dim>16</dim>
				</port>
			</output>
		</layer>
		<layer id="177" name="__module.model.backbone.stem.block.4/aten::group_norm/GroupNormalization" type="GroupNormalization" version="opset12">
			<data num_groups="8" epsilon="9.9999997473787516e-06" />
			<input>
				<port id="0" precision="FP32">
					<dim>-1</dim>
					<dim>16</dim>
					<dim>144</dim>
					<dim>256</dim>
				</port>
				<port id="1" precision="FP32">
					<dim>16</dim>
				</port>
				<port id="2" precision="FP32">
					<dim>16</dim>
				</port>
			</input>
			<output>
				<port id="3" precision="FP32" names="130,input.13">
					<dim>-1</dim>
					<dim>16</dim>
					<dim>144</dim>
					<dim>256</dim>
				</port>
			</output>
		</layer>
		<layer id="178" name="__module.model.backbone.stem.block.5/aten::gelu/Gelu" type="Gelu" version="opset7">
			<data approximation_mode="ERF" />
			<input>
				<port id="0" precision="FP32">
					<dim>-1</dim>
					<dim>16</dim>
					<dim>144</dim>
					<dim>256</dim>
				</port>
			</input>
			<output>
				<port id="1" precision="FP32" names="131,input.15">
					<dim>-1</dim>
					<dim>16</dim>
					<dim>144</dim>
					<dim>256</dim>
				</port>
			</output>
		</layer>
		<layer id="179" name="self.model.backbone.stage4.block.0.weight_compressed" type="Const" version="opset1">
			<data element_type="f16" shape="32, 16, 3, 3" offset="2518980" size="9216" />
			<output>
				<port id="0" precision="FP16" names="self.model.backbone.stage4.block.0.weight">
					<dim>32</dim>
					<dim>16</dim>
					<dim>3</dim>
					<dim>3</dim>
				</port>
			</output>
		</layer>
		<layer id="180" name="self.model.backbone.stage4.block.0.weight" type="Convert" version="opset1">
			<data destination_type="f32" />
			<rt_info>
				<attribute name="decompression" version="0" />
			</rt_info>
			<input>
				<port id="0" precision="FP16">
					<dim>32</dim>
					<dim>16</dim>
					<dim>3</dim>
					<dim>3</dim>
				</port>
			</input>
			<output>
				<port id="1" precision="FP32">
					<dim>32</dim>
					<dim>16</dim>
					<dim>3</dim>
					<dim>3</dim>
				</port>
			</output>
		</layer>
		<layer id="181" name="__module.model.backbone.stage4.block.0/aten::_convolution/Convolution" type="Convolution" version="opset1">
			<data strides="2, 2" dilations="1, 1" pads_begin="1, 1" pads_end="1, 1" auto_pad="explicit" />
			<input>
				<port id="0" precision="FP32">
					<dim>-1</dim>
					<dim>16</dim>
					<dim>144</dim>
					<dim>256</dim>
				</port>
				<port id="1" precision="FP32">
					<dim>32</dim>
					<dim>16</dim>
					<dim>3</dim>
					<dim>3</dim>
				</port>
			</input>
			<output>
				<port id="2" precision="FP32" names="142,input.17">
					<dim>-1</dim>
					<dim>32</dim>
					<dim>72</dim>
					<dim>128</dim>
				</port>
			</output>
		</layer>
		<layer id="182" name="self.model.backbone.stage4.block.1.weight" type="Const" version="opset1">
			<data element_type="f32" shape="32" offset="2528196" size="128" />
			<output>
				<port id="0" precision="FP32" names="self.model.backbone.stage4.block.1.weight">
					<dim>32</dim>
				</port>
			</output>
		</layer>
		<layer id="183" name="self.model.backbone.stage4.block.1.bias_compressed" type="Const" version="opset1">
			<data element_type="f16" shape="32" offset="2528324" size="64" />
			<output>
				<port id="0" precision="FP16" names="self.model.backbone.stage4.block.1.bias">
					<dim>32</dim>
				</port>
			</output>
		</layer>
		<layer id="184" name="self.model.backbone.stage4.block.1.bias" type="Convert" version="opset1">
			<data destination_type="f32" />
			<rt_info>
				<attribute name="decompression" version="0" />
			</rt_info>
			<input>
				<port id="0" precision="FP16">
					<dim>32</dim>
				</port>
			</input>
			<output>
				<port id="1" precision="FP32">
					<dim>32</dim>
				</port>
			</output>
		</layer>
		<layer id="185" name="__module.model.backbone.stage4.block.1/aten::group_norm/GroupNormalization" type="GroupNormalization" version="opset12">
			<data num_groups="8" epsilon="9.9999997473787516e-06" />
			<input>
				<port id="0" precision="FP32">
					<dim>-1</dim>
					<dim>32</dim>
					<dim>72</dim>
					<dim>128</dim>
				</port>
				<port id="1" precision="FP32">
					<dim>32</dim>
				</port>
				<port id="2" precision="FP32">
					<dim>32</dim>
				</port>
			</input>
			<output>
				<port id="3" precision="FP32" names="145,input.19">
					<dim>-1</dim>
					<dim>32</dim>
					<dim>72</dim>
					<dim>128</dim>
				</port>
			</output>
		</layer>
		<layer id="186" name="__module.model.backbone.stage4.block.2/aten::gelu/Gelu" type="Gelu" version="opset7">
			<data approximation_mode="ERF" />
			<input>
				<port id="0" precision="FP32">
					<dim>-1</dim>
					<dim>32</dim>
					<dim>72</dim>
					<dim>128</dim>
				</port>
			</input>
			<output>
				<port id="1" precision="FP32" names="146,input.21">
					<dim>-1</dim>
					<dim>32</dim>
					<dim>72</dim>
					<dim>128</dim>
				</port>
			</output>
		</layer>
		<layer id="187" name="self.model.backbone.stage4.block.3.weight_compressed" type="Const" version="opset1">
			<data element_type="f16" shape="32, 32, 3, 3" offset="2528388" size="18432" />
			<output>
				<port id="0" precision="FP16" names="self.model.backbone.stage4.block.3.weight">
					<dim>32</dim>
					<dim>32</dim>
					<dim>3</dim>
					<dim>3</dim>
				</port>
			</output>
		</layer>
		<layer id="188" name="self.model.backbone.stage4.block.3.weight" type="Convert" version="opset1">
			<data destination_type="f32" />
			<rt_info>
				<attribute name="decompression" version="0" />
			</rt_info>
			<input>
				<port id="0" precision="FP16">
					<dim>32</dim>
					<dim>32</dim>
					<dim>3</dim>
					<dim>3</dim>
				</port>
			</input>
			<output>
				<port id="1" precision="FP32">
					<dim>32</dim>
					<dim>32</dim>
					<dim>3</dim>
					<dim>3</dim>
				</port>
			</output>
		</layer>
		<layer id="189" name="__module.model.backbone.stage4.block.3/aten::_convolution/Convolution" type="Convolution" version="opset1">
			<data strides="1, 1" dilations="1, 1" pads_begin="1, 1" pads_end="1, 1" auto_pad="explicit" />
			<input>
				<port id="0" precision="FP32">
					<dim>-1</dim>
					<dim>32</dim>
					<dim>72</dim>
					<dim>128</dim>
				</port>
				<port id="1" precision="FP32">
					<dim>32</dim>
					<dim>32</dim>
					<dim>3</dim>
					<dim>3</dim>
				</port>
			</input>
			<output>
				<port id="2" precision="FP32" names="152,input.23">
					<dim>-1</dim>
					<dim>32</dim>
					<dim>72</dim>
					<dim>128</dim>
				</port>
			</output>
		</layer>
		<layer id="190" name="self.model.backbone.stage4.block.4.weight_compressed" type="Const" version="opset1">
			<data element_type="f16" shape="32" offset="2546820" size="64" />
			<output>
				<port id="0" precision="FP16" names="self.model.backbone.stage4.block.4.weight">
					<dim>32</dim>
				</port>
			</output>
		</layer>
		<layer id="191" name="self.model.backbone.stage4.block.4.weight" type="Convert" version="opset1">
			<data destination_type="f32" />
			<rt_info>
				<attribute name="decompression" version="0" />
			</rt_info>
			<input>
				<port id="0" precision="FP16">
					<dim>32</dim>
				</port>
			</input>
			<output>
				<port id="1" precision="FP32">
					<dim>32</dim>
				</port>
			</output>
		</layer>
		<layer id="192" name="self.model.backbone.stage4.block.4.bias_compressed" type="Const" version="opset1">
			<data element_type="f16" shape="32" offset="2546884" size="64" />
			<output>
				<port id="0" precision="FP16" names="self.model.backbone.stage4.block.4.bias">
					<dim>32</dim>
				</port>
			</output>
		</layer>
		<layer id="193" name="self.model.backbone.stage4.block.4.bias" type="Convert" version="opset1">
			<data destination_type="f32" />
			<rt_info>
				<attribute name="decompression" version="0" />
			</rt_info>
			<input>
				<port id="0" precision="FP16">
					<dim>32</dim>
				</port>
			</input>
			<output>
				<port id="1" precision="FP32">
					<dim>32</dim>
				</port>
			</output>
		</layer>
		<layer id="194" name="__module.model.backbone.stage4.block.4/aten::group_norm/GroupNormalization" type="GroupNormalization" version="opset12">
			<data num_groups="8" epsilon="9.9999997473787516e-06" />
			<input>
				<port id="0" precision="FP32">
					<dim>-1</dim>
					<dim>32</dim>
					<dim>72</dim>
					<dim>128</dim>
				</port>
				<port id="1" precision="FP32">
					<dim>32</dim>
				</port>
				<port id="2" precision="FP32">
					<dim>32</dim>
				</port>
			</input>
			<output>
				<port id="3" precision="FP32" names="155,input.25">
					<dim>-1</dim>
					<dim>32</dim>
					<dim>72</dim>
					<dim>128</dim>
				</port>
			</output>
		</layer>
		<layer id="195" name="__module.model.backbone.stage4.block.5/aten::gelu/Gelu" type="Gelu" version="opset7">
			<data approximation_mode="ERF" />
			<input>
				<port id="0" precision="FP32">
					<dim>-1</dim>
					<dim>32</dim>
					<dim>72</dim>
					<dim>128</dim>
				</port>
			</input>
			<output>
				<port id="1" precision="FP32" names="156,input.27">
					<dim>-1</dim>
					<dim>32</dim>
					<dim>72</dim>
					<dim>128</dim>
				</port>
			</output>
		</layer>
		<layer id="196" name="self.model.backbone.lateral4.weight_compressed" type="Const" version="opset1">
			<data element_type="f16" shape="128, 32, 1, 1" offset="2546948" size="8192" />
			<output>
				<port id="0" precision="FP16" names="self.model.backbone.lateral4.weight">
					<dim>128</dim>
					<dim>32</dim>
					<dim>1</dim>
					<dim>1</dim>
				</port>
			</output>
		</layer>
		<layer id="197" name="self.model.backbone.lateral4.weight" type="Convert" version="opset1">
			<data destination_type="f32" />
			<rt_info>
				<attribute name="decompression" version="0" />
			</rt_info>
			<input>
				<port id="0" precision="FP16">
					<dim>128</dim>
					<dim>32</dim>
					<dim>1</dim>
					<dim>1</dim>
				</port>
			</input>
			<output>
				<port id="1" precision="FP32">
					<dim>128</dim>
					<dim>32</dim>
					<dim>1</dim>
					<dim>1</dim>
				</port>
			</output>
		</layer>
		<layer id="198" name="__module.model.backbone.lateral4/aten::_convolution/Convolution" type="Convolution" version="opset1">
			<data strides="1, 1" dilations="1, 1" pads_begin="0, 0" pads_end="0, 0" auto_pad="explicit" />
			<input>
				<port id="0" precision="FP32">
					<dim>-1</dim>
					<dim>32</dim>
					<dim>72</dim>
					<dim>128</dim>
				</port>
				<port id="1" precision="FP32">
					<dim>128</dim>
					<dim>32</dim>
					<dim>1</dim>
					<dim>1</dim>
				</port>
			</input>
			<output>
				<port id="2" precision="FP32">
					<dim>-1</dim>
					<dim>128</dim>
					<dim>72</dim>
					<dim>128</dim>
				</port>
			</output>
		</layer>
		<layer id="199" name="__module.model.backbone.lateral4/aten::_convolution/Reshape_compressed" type="Const" version="opset1">
			<data element_type="f16" shape="1, 128, 1, 1" offset="2555140" size="256" />
			<output>
				<port id="0" precision="FP16">
					<dim>1</dim>
					<dim>128</dim>
					<dim>1</dim>
					<dim>1</dim>
				</port>
			</output>
		</layer>
		<layer id="200" name="__module.model.backbone.lateral4/aten::_convolution/Reshape" type="Convert" version="opset1">
			<data destination_type="f32" />
			<rt_info>
				<attribute name="decompression" version="0" />
			</rt_info>
			<input>
				<port id="0" precision="FP16">
					<dim>1</dim>
					<dim>128</dim>
					<dim>1</dim>
					<dim>1</dim>
				</port>
			</input>
			<output>
				<port id="1" precision="FP32">
					<dim>1</dim>
					<dim>128</dim>
					<dim>1</dim>
					<dim>1</dim>
				</port>
			</output>
		</layer>
		<layer id="201" name="__module.model.backbone.lateral4/aten::_convolution/Add" type="Add" version="opset1">
			<data auto_broadcast="numpy" />
			<input>
				<port id="0" precision="FP32">
					<dim>-1</dim>
					<dim>128</dim>
					<dim>72</dim>
					<dim>128</dim>
				</port>
				<port id="1" precision="FP32">
					<dim>1</dim>
					<dim>128</dim>
					<dim>1</dim>
					<dim>1</dim>
				</port>
			</input>
			<output>
				<port id="2" precision="FP32" names="232">
					<dim>-1</dim>
					<dim>128</dim>
					<dim>72</dim>
					<dim>128</dim>
				</port>
			</output>
		</layer>
		<layer id="202" name="self.model.backbone.stage8.block.0.weight_compressed" type="Const" version="opset1">
			<data element_type="f16" shape="64, 32, 3, 3" offset="2555396" size="36864" />
			<output>
				<port id="0" precision="FP16" names="self.model.backbone.stage8.block.0.weight">
					<dim>64</dim>
					<dim>32</dim>
					<dim>3</dim>
					<dim>3</dim>
				</port>
			</output>
		</layer>
		<layer id="203" name="self.model.backbone.stage8.block.0.weight" type="Convert" version="opset1">
			<data destination_type="f32" />
			<rt_info>
				<attribute name="decompression" version="0" />
			</rt_info>
			<input>
				<port id="0" precision="FP16">
					<dim>64</dim>
					<dim>32</dim>
					<dim>3</dim>
					<dim>3</dim>
				</port>
			</input>
			<output>
				<port id="1" precision="FP32">
					<dim>64</dim>
					<dim>32</dim>
					<dim>3</dim>
					<dim>3</dim>
				</port>
			</output>
		</layer>
		<layer id="204" name="__module.model.backbone.stage8.block.0/aten::_convolution/Convolution" type="Convolution" version="opset1">
			<data strides="2, 2" dilations="1, 1" pads_begin="1, 1" pads_end="1, 1" auto_pad="explicit" />
			<input>
				<port id="0" precision="FP32">
					<dim>-1</dim>
					<dim>32</dim>
					<dim>72</dim>
					<dim>128</dim>
				</port>
				<port id="1" precision="FP32">
					<dim>64</dim>
					<dim>32</dim>
					<dim>3</dim>
					<dim>3</dim>
				</port>
			</input>
			<output>
				<port id="2" precision="FP32" names="167,input.29">
					<dim>-1</dim>
					<dim>64</dim>
					<dim>36</dim>
					<dim>64</dim>
				</port>
			</output>
		</layer>
		<layer id="205" name="self.model.backbone.stage8.block.1.weight" type="Const" version="opset1">
			<data element_type="f32" shape="64" offset="2592260" size="256" />
			<output>
				<port id="0" precision="FP32" names="self.model.backbone.stage8.block.1.weight">
					<dim>64</dim>
				</port>
			</output>
		</layer>
		<layer id="206" name="self.model.backbone.stage8.block.1.bias_compressed" type="Const" version="opset1">
			<data element_type="f16" shape="64" offset="2592516" size="128" />
			<output>
				<port id="0" precision="FP16" names="self.model.backbone.stage8.block.1.bias">
					<dim>64</dim>
				</port>
			</output>
		</layer>
		<layer id="207" name="self.model.backbone.stage8.block.1.bias" type="Convert" version="opset1">
			<data destination_type="f32" />
			<rt_info>
				<attribute name="decompression" version="0" />
			</rt_info>
			<input>
				<port id="0" precision="FP16">
					<dim>64</dim>
				</port>
			</input>
			<output>
				<port id="1" precision="FP32">
					<dim>64</dim>
				</port>
			</output>
		</layer>
		<layer id="208" name="__module.model.backbone.stage8.block.1/aten::group_norm/GroupNormalization" type="GroupNormalization" version="opset12">
			<data num_groups="8" epsilon="9.9999997473787516e-06" />
			<input>
				<port id="0" precision="FP32">
					<dim>-1</dim>
					<dim>64</dim>
					<dim>36</dim>
					<dim>64</dim>
				</port>
				<port id="1" precision="FP32">
					<dim>64</dim>
				</port>
				<port id="2" precision="FP32">
					<dim>64</dim>
				</port>
			</input>
			<output>
				<port id="3" precision="FP32" names="170,input.31">
					<dim>-1</dim>
					<dim>64</dim>
					<dim>36</dim>
					<dim>64</dim>
				</port>
			</output>
		</layer>
		<layer id="209" name="__module.model.backbone.stage8.block.2/aten::gelu/Gelu" type="Gelu" version="opset7">
			<data approximation_mode="ERF" />
			<input>
				<port id="0" precision="FP32">
					<dim>-1</dim>
					<dim>64</dim>
					<dim>36</dim>
					<dim>64</dim>
				</port>
			</input>
			<output>
				<port id="1" precision="FP32" names="171,input.33">
					<dim>-1</dim>
					<dim>64</dim>
					<dim>36</dim>
					<dim>64</dim>
				</port>
			</output>
		</layer>
		<layer id="210" name="self.model.backbone.stage8.block.3.weight_compressed" type="Const" version="opset1">
			<data element_type="f16" shape="64, 64, 3, 3" offset="2592644" size="73728" />
			<output>
				<port id="0" precision="FP16" names="self.model.backbone.stage8.block.3.weight">
					<dim>64</dim>
					<dim>64</dim>
					<dim>3</dim>
					<dim>3</dim>
				</port>
			</output>
		</layer>
		<layer id="211" name="self.model.backbone.stage8.block.3.weight" type="Convert" version="opset1">
			<data destination_type="f32" />
			<rt_info>
				<attribute name="decompression" version="0" />
			</rt_info>
			<input>
				<port id="0" precision="FP16">
					<dim>64</dim>
					<dim>64</dim>
					<dim>3</dim>
					<dim>3</dim>
				</port>
			</input>
			<output>
				<port id="1" precision="FP32">
					<dim>64</dim>
					<dim>64</dim>
					<dim>3</dim>
					<dim>3</dim>
				</port>
			</output>
		</layer>
		<layer id="212" name="__module.model.backbone.stage8.block.3/aten::_convolution/Convolution" type="Convolution" version="opset1">
			<data strides="1, 1" dilations="1, 1" pads_begin="1, 1" pads_end="1, 1" auto_pad="explicit" />
			<input>
				<port id="0" precision="FP32">
					<dim>-1</dim>
					<dim>64</dim>
					<dim>36</dim>
					<dim>64</dim>
				</port>
				<port id="1" precision="FP32">
					<dim>64</dim>
					<dim>64</dim>
					<dim>3</dim>
					<dim>3</dim>
				</port>
			</input>
			<output>
				<port id="2" precision="FP32" names="177,input.35">
					<dim>-1</dim>
					<dim>64</dim>
					<dim>36</dim>
					<dim>64</dim>
				</port>
			</output>
		</layer>
		<layer id="213" name="self.model.backbone.stage8.block.4.weight" type="Const" version="opset1">
			<data element_type="f32" shape="64" offset="2666372" size="256" />
			<output>
				<port id="0" precision="FP32" names="self.model.backbone.stage8.block.4.weight">
					<dim>64</dim>
				</port>
			</output>
		</layer>
		<layer id="214" name="self.model.backbone.stage8.block.4.bias_compressed" type="Const" version="opset1">
			<data element_type="f16" shape="64" offset="2666628" size="128" />
			<output>
				<port id="0" precision="FP16" names="self.model.backbone.stage8.block.4.bias">
					<dim>64</dim>
				</port>
			</output>
		</layer>
		<layer id="215" name="self.model.backbone.stage8.block.4.bias" type="Convert" version="opset1">
			<data destination_type="f32" />
			<rt_info>
				<attribute name="decompression" version="0" />
			</rt_info>
			<input>
				<port id="0" precision="FP16">
					<dim>64</dim>
				</port>
			</input>
			<output>
				<port id="1" precision="FP32">
					<dim>64</dim>
				</port>
			</output>
		</layer>
		<layer id="216" name="__module.model.backbone.stage8.block.4/aten::group_norm/GroupNormalization" type="GroupNormalization" version="opset12">
			<data num_groups="8" epsilon="9.9999997473787516e-06" />
			<input>
				<port id="0" precision="FP32">
					<dim>-1</dim>
					<dim>64</dim>
					<dim>36</dim>
					<dim>64</dim>
				</port>
				<port id="1" precision="FP32">
					<dim>64</dim>
				</port>
				<port id="2" precision="FP32">
					<dim>64</dim>
				</port>
			</input>
			<output>
				<port id="3" precision="FP32" names="180,input.37">
					<dim>-1</dim>
					<dim>64</dim>
					<dim>36</dim>
					<dim>64</dim>
				</port>
			</output>
		</layer>
		<layer id="217" name="__module.model.backbone.stage8.block.5/aten::gelu/Gelu" type="Gelu" version="opset7">
			<data approximation_mode="ERF" />
			<input>
				<port id="0" precision="FP32">
					<dim>-1</dim>
					<dim>64</dim>
					<dim>36</dim>
					<dim>64</dim>
				</port>
			</input>
			<output>
				<port id="1" precision="FP32" names="181,input.39">
					<dim>-1</dim>
					<dim>64</dim>
					<dim>36</dim>
					<dim>64</dim>
				</port>
			</output>
		</layer>
		<layer id="218" name="self.model.backbone.lateral8.weight_compressed" type="Const" version="opset1">
			<data element_type="f16" shape="128, 64, 1, 1" offset="2666756" size="16384" />
			<output>
				<port id="0" precision="FP16" names="self.model.backbone.lateral8.weight">
					<dim>128</dim>
					<dim>64</dim>
					<dim>1</dim>
					<dim>1</dim>
				</port>
			</output>
		</layer>
		<layer id="219" name="self.model.backbone.lateral8.weight" type="Convert" version="opset1">
			<data destination_type="f32" />
			<rt_info>
				<attribute name="decompression" version="0" />
			</rt_info>
			<input>
				<port id="0" precision="FP16">
					<dim>128</dim>
					<dim>64</dim>
					<dim>1</dim>
					<dim>1</dim>
				</port>
			</input>
			<output>
				<port id="1" precision="FP32">
					<dim>128</dim>
					<dim>64</dim>
					<dim>1</dim>
					<dim>1</dim>
				</port>
			</output>
		</layer>
		<layer id="220" name="__module.model.backbone.lateral8/aten::_convolution/Convolution" type="Convolution" version="opset1">
			<data strides="1, 1" dilations="1, 1" pads_begin="0, 0" pads_end="0, 0" auto_pad="explicit" />
			<input>
				<port id="0" precision="FP32">
					<dim>-1</dim>
					<dim>64</dim>
					<dim>36</dim>
					<dim>64</dim>
				</port>
				<port id="1" precision="FP32">
					<dim>128</dim>
					<dim>64</dim>
					<dim>1</dim>
					<dim>1</dim>
				</port>
			</input>
			<output>
				<port id="2" precision="FP32">
					<dim>-1</dim>
					<dim>128</dim>
					<dim>36</dim>
					<dim>64</dim>
				</port>
			</output>
		</layer>
		<layer id="221" name="__module.model.backbone.lateral8/aten::_convolution/Reshape_compressed" type="Const" version="opset1">
			<data element_type="f16" shape="1, 128, 1, 1" offset="2683140" size="256" />
			<output>
				<port id="0" precision="FP16">
					<dim>1</dim>
					<dim>128</dim>
					<dim>1</dim>
					<dim>1</dim>
				</port>
			</output>
		</layer>
		<layer id="222" name="__module.model.backbone.lateral8/aten::_convolution/Reshape" type="Convert" version="opset1">
			<data destination_type="f32" />
			<rt_info>
				<attribute name="decompression" version="0" />
			</rt_info>
			<input>
				<port id="0" precision="FP16">
					<dim>1</dim>
					<dim>128</dim>
					<dim>1</dim>
					<dim>1</dim>
				</port>
			</input>
			<output>
				<port id="1" precision="FP32">
					<dim>1</dim>
					<dim>128</dim>
					<dim>1</dim>
					<dim>1</dim>
				</port>
			</output>
		</layer>
		<layer id="223" name="__module.model.backbone.lateral8/aten::_convolution/Add" type="Add" version="opset1">
			<data auto_broadcast="numpy" />
			<input>
				<port id="0" precision="FP32">
					<dim>-1</dim>
					<dim>128</dim>
					<dim>36</dim>
					<dim>64</dim>
				</port>
				<port id="1" precision="FP32">
					<dim>1</dim>
					<dim>128</dim>
					<dim>1</dim>
					<dim>1</dim>
				</port>
			</input>
			<output>
				<port id="2" precision="FP32" names="220">
					<dim>-1</dim>
					<dim>128</dim>
					<dim>36</dim>
					<dim>64</dim>
				</port>
			</output>
		</layer>
		<layer id="224" name="self.model.backbone.stage16.block.0.weight_compressed" type="Const" version="opset1">
			<data element_type="f16" shape="128, 64, 3, 3" offset="2683396" size="147456" />
			<output>
				<port id="0" precision="FP16" names="self.model.backbone.stage16.block.0.weight">
					<dim>128</dim>
					<dim>64</dim>
					<dim>3</dim>
					<dim>3</dim>
				</port>
			</output>
		</layer>
		<layer id="225" name="self.model.backbone.stage16.block.0.weight" type="Convert" version="opset1">
			<data destination_type="f32" />
			<rt_info>
				<attribute name="decompression" version="0" />
			</rt_info>
			<input>
				<port id="0" precision="FP16">
					<dim>128</dim>
					<dim>64</dim>
					<dim>3</dim>
					<dim>3</dim>
				</port>
			</input>
			<output>
				<port id="1" precision="FP32">
					<dim>128</dim>
					<dim>64</dim>
					<dim>3</dim>
					<dim>3</dim>
				</port>
			</output>
		</layer>
		<layer id="226" name="__module.model.backbone.stage16.block.0/aten::_convolution/Convolution" type="Convolution" version="opset1">
			<data strides="2, 2" dilations="1, 1" pads_begin="1, 1" pads_end="1, 1" auto_pad="explicit" />
			<input>
				<port id="0" precision="FP32">
					<dim>-1</dim>
					<dim>64</dim>
					<dim>36</dim>
					<dim>64</dim>
				</port>
				<port id="1" precision="FP32">
					<dim>128</dim>
					<dim>64</dim>
					<dim>3</dim>
					<dim>3</dim>
				</port>
			</input>
			<output>
				<port id="2" precision="FP32" names="192,input.41">
					<dim>-1</dim>
					<dim>128</dim>
					<dim>18</dim>
					<dim>32</dim>
				</port>
			</output>
		</layer>
		<layer id="227" name="self.model.backbone.stage16.block.1.weight_compressed" type="Const" version="opset1">
			<data element_type="f16" shape="128" offset="2830852" size="256" />
			<output>
				<port id="0" precision="FP16" names="self.model.backbone.stage16.block.1.weight">
					<dim>128</dim>
				</port>
			</output>
		</layer>
		<layer id="228" name="self.model.backbone.stage16.block.1.weight" type="Convert" version="opset1">
			<data destination_type="f32" />
			<rt_info>
				<attribute name="decompression" version="0" />
			</rt_info>
			<input>
				<port id="0" precision="FP16">
					<dim>128</dim>
				</port>
			</input>
			<output>
				<port id="1" precision="FP32">
					<dim>128</dim>
				</port>
			</output>
		</layer>
		<layer id="229" name="self.model.backbone.stage16.block.1.bias_compressed" type="Const" version="opset1">
			<data element_type="f16" shape="128" offset="2831108" size="256" />
			<output>
				<port id="0" precision="FP16" names="self.model.backbone.stage16.block.1.bias">
					<dim>128</dim>
				</port>
			</output>
		</layer>
		<layer id="230" name="self.model.backbone.stage16.block.1.bias" type="Convert" version="opset1">
			<data destination_type="f32" />
			<rt_info>
				<attribute name="decompression" version="0" />
			</rt_info>
			<input>
				<port id="0" precision="FP16">
					<dim>128</dim>
				</port>
			</input>
			<output>
				<port id="1" precision="FP32">
					<dim>128</dim>
				</port>
			</output>
		</layer>
		<layer id="231" name="__module.model.backbone.stage16.block.1/aten::group_norm/GroupNormalization" type="GroupNormalization" version="opset12">
			<data num_groups="8" epsilon="9.9999997473787516e-06" />
			<input>
				<port id="0" precision="FP32">
					<dim>-1</dim>
					<dim>128</dim>
					<dim>18</dim>
					<dim>32</dim>
				</port>
				<port id="1" precision="FP32">
					<dim>128</dim>
				</port>
				<port id="2" precision="FP32">
					<dim>128</dim>
				</port>
			</input>
			<output>
				<port id="3" precision="FP32" names="195,input.43">
					<dim>-1</dim>
					<dim>128</dim>
					<dim>18</dim>
					<dim>32</dim>
				</port>
			</output>
		</layer>
		<layer id="232" name="__module.model.backbone.stage16.block.2/aten::gelu/Gelu" type="Gelu" version="opset7">
			<data approximation_mode="ERF" />
			<input>
				<port id="0" precision="FP32">
					<dim>-1</dim>
					<dim>128</dim>
					<dim>18</dim>
					<dim>32</dim>
				</port>
			</input>
			<output>
				<port id="1" precision="FP32" names="196,input.45">
					<dim>-1</dim>
					<dim>128</dim>
					<dim>18</dim>
					<dim>32</dim>
				</port>
			</output>
		</layer>
		<layer id="233" name="self.model.backbone.stage16.block.3.weight_compressed" type="Const" version="opset1">
			<data element_type="f16" shape="128, 128, 3, 3" offset="2831364" size="294912" />
			<output>
				<port id="0" precision="FP16" names="self.model.backbone.stage16.block.3.weight">
					<dim>128</dim>
					<dim>128</dim>
					<dim>3</dim>
					<dim>3</dim>
				</port>
			</output>
		</layer>
		<layer id="234" name="self.model.backbone.stage16.block.3.weight" type="Convert" version="opset1">
			<data destination_type="f32" />
			<rt_info>
				<attribute name="decompression" version="0" />
			</rt_info>
			<input>
				<port id="0" precision="FP16">
					<dim>128</dim>
					<dim>128</dim>
					<dim>3</dim>
					<dim>3</dim>
				</port>
			</input>
			<output>
				<port id="1" precision="FP32">
					<dim>128</dim>
					<dim>128</dim>
					<dim>3</dim>
					<dim>3</dim>
				</port>
			</output>
		</layer>
		<layer id="235" name="__module.model.backbone.stage16.block.3/aten::_convolution/Convolution" type="Convolution" version="opset1">
			<data strides="1, 1" dilations="1, 1" pads_begin="1, 1" pads_end="1, 1" auto_pad="explicit" />
			<input>
				<port id="0" precision="FP32">
					<dim>-1</dim>
					<dim>128</dim>
					<dim>18</dim>
					<dim>32</dim>
				</port>
				<port id="1" precision="FP32">
					<dim>128</dim>
					<dim>128</dim>
					<dim>3</dim>
					<dim>3</dim>
				</port>
			</input>
			<output>
				<port id="2" precision="FP32" names="202,input.47">
					<dim>-1</dim>
					<dim>128</dim>
					<dim>18</dim>
					<dim>32</dim>
				</port>
			</output>
		</layer>
		<layer id="236" name="self.model.backbone.stage16.block.4.weight_compressed" type="Const" version="opset1">
			<data element_type="f16" shape="128" offset="3126276" size="256" />
			<output>
				<port id="0" precision="FP16" names="self.model.backbone.stage16.block.4.weight">
					<dim>128</dim>
				</port>
			</output>
		</layer>
		<layer id="237" name="self.model.backbone.stage16.block.4.weight" type="Convert" version="opset1">
			<data destination_type="f32" />
			<rt_info>
				<attribute name="decompression" version="0" />
			</rt_info>
			<input>
				<port id="0" precision="FP16">
					<dim>128</dim>
				</port>
			</input>
			<output>
				<port id="1" precision="FP32">
					<dim>128</dim>
				</port>
			</output>
		</layer>
		<layer id="238" name="self.model.backbone.stage16.block.4.bias" type="Const" version="opset1">
			<data element_type="f32" shape="128" offset="3126532" size="512" />
			<output>
				<port id="0" precision="FP32" names="self.model.backbone.stage16.block.4.bias">
					<dim>128</dim>
				</port>
			</output>
		</layer>
		<layer id="239" name="__module.model.backbone.stage16.block.4/aten::group_norm/GroupNormalization" type="GroupNormalization" version="opset12">
			<data num_groups="8" epsilon="9.9999997473787516e-06" />
			<input>
				<port id="0" precision="FP32">
					<dim>-1</dim>
					<dim>128</dim>
					<dim>18</dim>
					<dim>32</dim>
				</port>
				<port id="1" precision="FP32">
					<dim>128</dim>
				</port>
				<port id="2" precision="FP32">
					<dim>128</dim>
				</port>
			</input>
			<output>
				<port id="3" precision="FP32" names="205,input.49">
					<dim>-1</dim>
					<dim>128</dim>
					<dim>18</dim>
					<dim>32</dim>
				</port>
			</output>
		</layer>
		<layer id="240" name="__module.model.backbone.stage16.block.5/aten::gelu/Gelu" type="Gelu" version="opset7">
			<data approximation_mode="ERF" />
			<input>
				<port id="0" precision="FP32">
					<dim>-1</dim>
					<dim>128</dim>
					<dim>18</dim>
					<dim>32</dim>
				</port>
			</input>
			<output>
				<port id="1" precision="FP32" names="206,input.51">
					<dim>-1</dim>
					<dim>128</dim>
					<dim>18</dim>
					<dim>32</dim>
				</port>
			</output>
		</layer>
		<layer id="241" name="self.model.backbone.lateral16.weight_compressed" type="Const" version="opset1">
			<data element_type="f16" shape="128, 128, 1, 1" offset="3127044" size="32768" />
			<output>
				<port id="0" precision="FP16" names="self.model.backbone.lateral16.weight">
					<dim>128</dim>
					<dim>128</dim>
					<dim>1</dim>
					<dim>1</dim>
				</port>
			</output>
		</layer>
		<layer id="242" name="self.model.backbone.lateral16.weight" type="Convert" version="opset1">
			<data destination_type="f32" />
			<rt_info>
				<attribute name="decompression" version="0" />
			</rt_info>
			<input>
				<port id="0" precision="FP16">
					<dim>128</dim>
					<dim>128</dim>
					<dim>1</dim>
					<dim>1</dim>
				</port>
			</input>
			<output>
				<port id="1" precision="FP32">
					<dim>128</dim>
					<dim>128</dim>
					<dim>1</dim>
					<dim>1</dim>
				</port>
			</output>
		</layer>
		<layer id="243" name="__module.model.backbone.lateral16/aten::_convolution/Convolution" type="Convolution" version="opset1">
			<data strides="1, 1" dilations="1, 1" pads_begin="0, 0" pads_end="0, 0" auto_pad="explicit" />
			<input>
				<port id="0" precision="FP32">
					<dim>-1</dim>
					<dim>128</dim>
					<dim>18</dim>
					<dim>32</dim>
				</port>
				<port id="1" precision="FP32">
					<dim>128</dim>
					<dim>128</dim>
					<dim>1</dim>
					<dim>1</dim>
				</port>
			</input>
			<output>
				<port id="2" precision="FP32">
					<dim>-1</dim>
					<dim>128</dim>
					<dim>18</dim>
					<dim>32</dim>
				</port>
			</output>
		</layer>
		<layer id="244" name="__module.model.backbone.lateral16/aten::_convolution/Reshape_compressed" type="Const" version="opset1">
			<data element_type="f16" shape="1, 128, 1, 1" offset="3159812" size="256" />
			<output>
				<port id="0" precision="FP16">
					<dim>1</dim>
					<dim>128</dim>
					<dim>1</dim>
					<dim>1</dim>
				</port>
			</output>
		</layer>
		<layer id="245" name="__module.model.backbone.lateral16/aten::_convolution/Reshape" type="Convert" version="opset1">
			<data destination_type="f32" />
			<rt_info>
				<attribute name="decompression" version="0" />
			</rt_info>
			<input>
				<port id="0" precision="FP16">
					<dim>1</dim>
					<dim>128</dim>
					<dim>1</dim>
					<dim>1</dim>
				</port>
			</input>
			<output>
				<port id="1" precision="FP32">
					<dim>1</dim>
					<dim>128</dim>
					<dim>1</dim>
					<dim>1</dim>
				</port>
			</output>
		</layer>
		<layer id="246" name="__module.model.backbone.lateral16/aten::_convolution/Add" type="Add" version="opset1">
			<data auto_broadcast="numpy" />
			<input>
				<port id="0" precision="FP32">
					<dim>-1</dim>
					<dim>128</dim>
					<dim>18</dim>
					<dim>32</dim>
				</port>
				<port id="1" precision="FP32">
					<dim>1</dim>
					<dim>128</dim>
					<dim>1</dim>
					<dim>1</dim>
				</port>
			</input>
			<output>
				<port id="2" precision="FP32" names="213,input.53">
					<dim>-1</dim>
					<dim>128</dim>
					<dim>18</dim>
					<dim>32</dim>
				</port>
			</output>
		</layer>
		<layer id="247" name="__module.model.backbone/aten::size/ShapeOf" type="ShapeOf" version="opset3">
			<data output_type="i64" />
			<input>
				<port id="0" precision="FP32">
					<dim>-1</dim>
					<dim>64</dim>
					<dim>36</dim>
					<dim>64</dim>
				</port>
			</input>
			<output>
				<port id="1" precision="I64">
					<dim>4</dim>
				</port>
			</output>
		</layer>
		<layer id="248" name="Constant_78214" type="Const" version="opset1">
			<data element_type="i64" shape="2" offset="3160068" size="16" />
			<rt_info>
				<attribute name="precise" version="0" />
			</rt_info>
			<output>
				<port id="0" precision="I64">
					<dim>2</dim>
				</port>
			</output>
		</layer>
		<layer id="249" name="Constant_78215" type="Const" version="opset1">
			<data element_type="i64" shape="" offset="16" size="8" />
			<rt_info>
				<attribute name="precise" version="0" />
			</rt_info>
			<output>
				<port id="0" precision="I64" />
			</output>
		</layer>
		<layer id="250" name="Gather_78216" type="Gather" version="opset8">
			<data batch_dims="0" />
			<input>
				<port id="0" precision="I64">
					<dim>4</dim>
				</port>
				<port id="1" precision="I64">
					<dim>2</dim>
				</port>
				<port id="2" precision="I64" />
			</input>
			<output>
				<port id="3" precision="I64">
					<dim>2</dim>
				</port>
			</output>
		</layer>
		<layer id="251" name="Convert_93289" type="Convert" version="opset1">
			<data destination_type="i32" />
			<input>
				<port id="0" precision="I64">
					<dim>2</dim>
				</port>
			</input>
			<output>
				<port id="1" precision="I32">
					<dim>2</dim>
				</port>
			</output>
		</layer>
		<layer id="252" name="Constant_577" type="Const" version="opset1">
			<data element_type="i32" shape="2" offset="32" size="8" />
			<output>
				<port id="0" precision="I32">
					<dim>2</dim>
				</port>
			</output>
		</layer>
		<layer id="253" name="__module.model.backbone/aten::upsample_bilinear2d/Interpolate" type="Interpolate" version="opset11">
			<data mode="linear_onnx" shape_calculation_mode="sizes" coordinate_transformation_mode="pytorch_half_pixel" nearest_mode="floor" antialias="false" pads_begin="0, 0, 0, 0" pads_end="0, 0, 0, 0" cube_coeff="-0.75" />
			<input>
				<port id="0" precision="FP32">
					<dim>-1</dim>
					<dim>128</dim>
					<dim>18</dim>
					<dim>32</dim>
				</port>
				<port id="1" precision="I32">
					<dim>2</dim>
				</port>
				<port id="2" precision="I32">
					<dim>2</dim>
				</port>
			</input>
			<output>
				<port id="3" precision="FP32" names="224">
					<dim>-1</dim>
					<dim>128</dim>
					<dim>36</dim>
					<dim>64</dim>
				</port>
			</output>
		</layer>
		<layer id="254" name="__module.model.backbone/aten::add/Add" type="Add" version="opset1">
			<data auto_broadcast="numpy" />
			<input>
				<port id="0" precision="FP32">
					<dim>-1</dim>
					<dim>128</dim>
					<dim>36</dim>
					<dim>64</dim>
				</port>
				<port id="1" precision="FP32">
					<dim>-1</dim>
					<dim>128</dim>
					<dim>36</dim>
					<dim>64</dim>
				</port>
			</input>
			<output>
				<port id="2" precision="FP32" names="225,input.55">
					<dim>-1</dim>
					<dim>128</dim>
					<dim>36</dim>
					<dim>64</dim>
				</port>
			</output>
		</layer>
		<layer id="255" name="__module.model.backbone/aten::size/ShapeOf_2" type="ShapeOf" version="opset3">
			<data output_type="i64" />
			<input>
				<port id="0" precision="FP32">
					<dim>-1</dim>
					<dim>32</dim>
					<dim>72</dim>
					<dim>128</dim>
				</port>
			</input>
			<output>
				<port id="1" precision="I64">
					<dim>4</dim>
				</port>
			</output>
		</layer>
		<layer id="256" name="Constant_78218" type="Const" version="opset1">
			<data element_type="i64" shape="2" offset="3160068" size="16" />
			<rt_info>
				<attribute name="precise" version="0" />
			</rt_info>
			<output>
				<port id="0" precision="I64">
					<dim>2</dim>
				</port>
			</output>
		</layer>
		<layer id="257" name="Constant_78219" type="Const" version="opset1">
			<data element_type="i64" shape="" offset="16" size="8" />
			<rt_info>
				<attribute name="precise" version="0" />
			</rt_info>
			<output>
				<port id="0" precision="I64" />
			</output>
		</layer>
		<layer id="258" name="Gather_78220" type="Gather" version="opset8">
			<data batch_dims="0" />
			<input>
				<port id="0" precision="I64">
					<dim>4</dim>
				</port>
				<port id="1" precision="I64">
					<dim>2</dim>
				</port>
				<port id="2" precision="I64" />
			</input>
			<output>
				<port id="3" precision="I64">
					<dim>2</dim>
				</port>
			</output>
		</layer>
		<layer id="259" name="Convert_93296" type="Convert" version="opset1">
			<data destination_type="i32" />
			<input>
				<port id="0" precision="I64">
					<dim>2</dim>
				</port>
			</input>
			<output>
				<port id="1" precision="I32">
					<dim>2</dim>
				</port>
			</output>
		</layer>
		<layer id="260" name="Constant_653" type="Const" version="opset1">
			<data element_type="i32" shape="2" offset="32" size="8" />
			<output>
				<port id="0" precision="I32">
					<dim>2</dim>
				</port>
			</output>
		</layer>
		<layer id="261" name="__module.model.backbone/aten::upsample_bilinear2d/Interpolate_1" type="Interpolate" version="opset11">
			<data mode="linear_onnx" shape_calculation_mode="sizes" coordinate_transformation_mode="pytorch_half_pixel" nearest_mode="floor" antialias="false" pads_begin="0, 0, 0, 0" pads_end="0, 0, 0, 0" cube_coeff="-0.75" />
			<input>
				<port id="0" precision="FP32">
					<dim>-1</dim>
					<dim>128</dim>
					<dim>36</dim>
					<dim>64</dim>
				</port>
				<port id="1" precision="I32">
					<dim>2</dim>
				</port>
				<port id="2" precision="I32">
					<dim>2</dim>
				</port>
			</input>
			<output>
				<port id="3" precision="FP32" names="236">
					<dim>-1</dim>
					<dim>128</dim>
					<dim>72</dim>
					<dim>128</dim>
				</port>
			</output>
		</layer>
		<layer id="262" name="__module.model.backbone/aten::add/Add_1" type="Add" version="opset1">
			<data auto_broadcast="numpy" />
			<input>
				<port id="0" precision="FP32">
					<dim>-1</dim>
					<dim>128</dim>
					<dim>72</dim>
					<dim>128</dim>
				</port>
				<port id="1" precision="FP32">
					<dim>-1</dim>
					<dim>128</dim>
					<dim>72</dim>
					<dim>128</dim>
				</port>
			</input>
			<output>
				<port id="2" precision="FP32" names="237,input.57">
					<dim>-1</dim>
					<dim>128</dim>
					<dim>72</dim>
					<dim>128</dim>
				</port>
			</output>
		</layer>
		<layer id="263" name="self.model.backbone.refine4.block.0.weight_compressed" type="Const" version="opset1">
			<data element_type="f16" shape="128, 128, 3, 3" offset="3160084" size="294912" />
			<output>
				<port id="0" precision="FP16" names="self.model.backbone.refine4.block.0.weight">
					<dim>128</dim>
					<dim>128</dim>
					<dim>3</dim>
					<dim>3</dim>
				</port>
			</output>
		</layer>
		<layer id="264" name="self.model.backbone.refine4.block.0.weight" type="Convert" version="opset1">
			<data destination_type="f32" />
			<rt_info>
				<attribute name="decompression" version="0" />
			</rt_info>
			<input>
				<port id="0" precision="FP16">
					<dim>128</dim>
					<dim>128</dim>
					<dim>3</dim>
					<dim>3</dim>
				</port>
			</input>
			<output>
				<port id="1" precision="FP32">
					<dim>128</dim>
					<dim>128</dim>
					<dim>3</dim>
					<dim>3</dim>
				</port>
			</output>
		</layer>
		<layer id="265" name="__module.model.backbone.refine4.block.0/aten::_convolution/Convolution" type="Convolution" version="opset1">
			<data strides="1, 1" dilations="1, 1" pads_begin="1, 1" pads_end="1, 1" auto_pad="explicit" />
			<input>
				<port id="0" precision="FP32">
					<dim>-1</dim>
					<dim>128</dim>
					<dim>72</dim>
					<dim>128</dim>
				</port>
				<port id="1" precision="FP32">
					<dim>128</dim>
					<dim>128</dim>
					<dim>3</dim>
					<dim>3</dim>
				</port>
			</input>
			<output>
				<port id="2" precision="FP32" names="248,input.59">
					<dim>-1</dim>
					<dim>128</dim>
					<dim>72</dim>
					<dim>128</dim>
				</port>
			</output>
		</layer>
		<layer id="266" name="self.model.backbone.refine4.block.1.weight_compressed" type="Const" version="opset1">
			<data element_type="f16" shape="128" offset="3454996" size="256" />
			<output>
				<port id="0" precision="FP16" names="self.model.backbone.refine4.block.1.weight">
					<dim>128</dim>
				</port>
			</output>
		</layer>
		<layer id="267" name="self.model.backbone.refine4.block.1.weight" type="Convert" version="opset1">
			<data destination_type="f32" />
			<rt_info>
				<attribute name="decompression" version="0" />
			</rt_info>
			<input>
				<port id="0" precision="FP16">
					<dim>128</dim>
				</port>
			</input>
			<output>
				<port id="1" precision="FP32">
					<dim>128</dim>
				</port>
			</output>
		</layer>
		<layer id="268" name="self.model.backbone.refine4.block.1.bias" type="Const" version="opset1">
			<data element_type="f32" shape="128" offset="3455252" size="512" />
			<output>
				<port id="0" precision="FP32" names="self.model.backbone.refine4.block.1.bias">
					<dim>128</dim>
				</port>
			</output>
		</layer>
		<layer id="269" name="__module.model.backbone.refine4.block.1/aten::group_norm/GroupNormalization" type="GroupNormalization" version="opset12">
			<data num_groups="8" epsilon="9.9999997473787516e-06" />
			<input>
				<port id="0" precision="FP32">
					<dim>-1</dim>
					<dim>128</dim>
					<dim>72</dim>
					<dim>128</dim>
				</port>
				<port id="1" precision="FP32">
					<dim>128</dim>
				</port>
				<port id="2" precision="FP32">
					<dim>128</dim>
				</port>
			</input>
			<output>
				<port id="3" precision="FP32" names="251,input.61">
					<dim>-1</dim>
					<dim>128</dim>
					<dim>72</dim>
					<dim>128</dim>
				</port>
			</output>
		</layer>
		<layer id="270" name="__module.model.backbone.refine4.block.2/aten::gelu/Gelu" type="Gelu" version="opset7">
			<data approximation_mode="ERF" />
			<input>
				<port id="0" precision="FP32">
					<dim>-1</dim>
					<dim>128</dim>
					<dim>72</dim>
					<dim>128</dim>
				</port>
			</input>
			<output>
				<port id="1" precision="FP32" names="252,input.63">
					<dim>-1</dim>
					<dim>128</dim>
					<dim>72</dim>
					<dim>128</dim>
				</port>
			</output>
		</layer>
		<layer id="271" name="self.model.backbone.refine4.block.3.weight_compressed" type="Const" version="opset1">
			<data element_type="f16" shape="128, 128, 3, 3" offset="3455764" size="294912" />
			<output>
				<port id="0" precision="FP16" names="self.model.backbone.refine4.block.3.weight">
					<dim>128</dim>
					<dim>128</dim>
					<dim>3</dim>
					<dim>3</dim>
				</port>
			</output>
		</layer>
		<layer id="272" name="self.model.backbone.refine4.block.3.weight" type="Convert" version="opset1">
			<data destination_type="f32" />
			<rt_info>
				<attribute name="decompression" version="0" />
			</rt_info>
			<input>
				<port id="0" precision="FP16">
					<dim>128</dim>
					<dim>128</dim>
					<dim>3</dim>
					<dim>3</dim>
				</port>
			</input>
			<output>
				<port id="1" precision="FP32">
					<dim>128</dim>
					<dim>128</dim>
					<dim>3</dim>
					<dim>3</dim>
				</port>
			</output>
		</layer>
		<layer id="273" name="__module.model.backbone.refine4.block.3/aten::_convolution/Convolution" type="Convolution" version="opset1">
			<data strides="1, 1" dilations="1, 1" pads_begin="1, 1" pads_end="1, 1" auto_pad="explicit" />
			<input>
				<port id="0" precision="FP32">
					<dim>-1</dim>
					<dim>128</dim>
					<dim>72</dim>
					<dim>128</dim>
				</port>
				<port id="1" precision="FP32">
					<dim>128</dim>
					<dim>128</dim>
					<dim>3</dim>
					<dim>3</dim>
				</port>
			</input>
			<output>
				<port id="2" precision="FP32" names="258,input.65">
					<dim>-1</dim>
					<dim>128</dim>
					<dim>72</dim>
					<dim>128</dim>
				</port>
			</output>
		</layer>
		<layer id="274" name="self.model.backbone.refine4.block.4.weight_compressed" type="Const" version="opset1">
			<data element_type="f16" shape="128" offset="3750676" size="256" />
			<output>
				<port id="0" precision="FP16" names="self.model.backbone.refine4.block.4.weight">
					<dim>128</dim>
				</port>
			</output>
		</layer>
		<layer id="275" name="self.model.backbone.refine4.block.4.weight" type="Convert" version="opset1">
			<data destination_type="f32" />
			<rt_info>
				<attribute name="decompression" version="0" />
			</rt_info>
			<input>
				<port id="0" precision="FP16">
					<dim>128</dim>
				</port>
			</input>
			<output>
				<port id="1" precision="FP32">
					<dim>128</dim>
				</port>
			</output>
		</layer>
		<layer id="276" name="self.model.backbone.refine4.block.4.bias" type="Const" version="opset1">
			<data element_type="f32" shape="128" offset="3750932" size="512" />
			<output>
				<port id="0" precision="FP32" names="self.model.backbone.refine4.block.4.bias">
					<dim>128</dim>
				</port>
			</output>
		</layer>
		<layer id="277" name="__module.model.backbone.refine4.block.4/aten::group_norm/GroupNormalization" type="GroupNormalization" version="opset12">
			<data num_groups="8" epsilon="9.9999997473787516e-06" />
			<input>
				<port id="0" precision="FP32">
					<dim>-1</dim>
					<dim>128</dim>
					<dim>72</dim>
					<dim>128</dim>
				</port>
				<port id="1" precision="FP32">
					<dim>128</dim>
				</port>
				<port id="2" precision="FP32">
					<dim>128</dim>
				</port>
			</input>
			<output>
				<port id="3" precision="FP32" names="261,input.67">
					<dim>-1</dim>
					<dim>128</dim>
					<dim>72</dim>
					<dim>128</dim>
				</port>
			</output>
		</layer>
		<layer id="278" name="__module.model.backbone.refine4.block.5/aten::gelu/Gelu" type="Gelu" version="opset7">
			<data approximation_mode="ERF" />
			<input>
				<port id="0" precision="FP32">
					<dim>-1</dim>
					<dim>128</dim>
					<dim>72</dim>
					<dim>128</dim>
				</port>
			</input>
			<output>
				<port id="1" precision="FP32" names="262,value.1">
					<dim>-1</dim>
					<dim>128</dim>
					<dim>72</dim>
					<dim>128</dim>
				</port>
			</output>
		</layer>
		<layer id="279" name="Constant_935" type="Const" version="opset1">
			<data element_type="i64" shape="1" offset="3751444" size="8" />
			<rt_info>
				<attribute name="precise" version="0" />
			</rt_info>
			<output>
				<port id="0" precision="I64">
					<dim>1</dim>
				</port>
			</output>
		</layer>
		<layer id="280" name="Constant_936" type="Const" version="opset1">
			<data element_type="i64" shape="1" offset="3751452" size="8" />
			<rt_info>
				<attribute name="precise" version="0" />
			</rt_info>
			<output>
				<port id="0" precision="I64">
					<dim>1</dim>
				</port>
			</output>
		</layer>
		<layer id="281" name="Constant_937" type="Const" version="opset1">
			<data element_type="i64" shape="1" offset="3751444" size="8" />
			<rt_info>
				<attribute name="precise" version="0" />
			</rt_info>
			<output>
				<port id="0" precision="I64">
					<dim>1</dim>
				</port>
			</output>
		</layer>
		<layer id="282" name="__module.model/prim::ListConstruct/SequenceMark_1" type="Concat" version="opset1">
			<data axis="0" />
			<input>
				<port id="0" precision="I64">
					<dim>2</dim>
				</port>
				<port id="1" precision="I64">
					<dim>1</dim>
				</port>
				<port id="2" precision="I64">
					<dim>1</dim>
				</port>
				<port id="3" precision="I64">
					<dim>1</dim>
				</port>
			</input>
			<output>
				<port id="4" precision="I64">
					<dim>5</dim>
				</port>
			</output>
		</layer>
		<layer id="283" name="__module.model/aten::view/Reshape_1" type="Reshape" version="opset1">
			<data special_zero="false" />
			<input>
				<port id="0" precision="FP32">
					<dim>-1</dim>
					<dim>128</dim>
					<dim>72</dim>
					<dim>128</dim>
				</port>
				<port id="1" precision="I64">
					<dim>5</dim>
				</port>
			</input>
			<output>
				<port id="2" precision="FP32" names="1370,1784,2198,2612,3026,321,332,3440,3854,4268,4682,5096,542,5510,5924,6338,6752,7166,956,value.7">
					<dim>-1</dim>
					<dim>-1</dim>
					<dim>128</dim>
					<dim>72</dim>
					<dim>128</dim>
				</port>
			</output>
		</layer>
		<layer id="284" name="60" type="Const" version="opset1">
			<data element_type="i64" shape="" offset="16" size="8" />
			<output>
				<port id="0" precision="I64" names="60" />
			</output>
		</layer>
		<layer id="285" name="59" type="Const" version="opset1">
			<data element_type="i64" shape="" offset="80" size="8" />
			<output>
				<port id="0" precision="I64" names="59" />
			</output>
		</layer>
		<layer id="286" name="__module.model/aten::select/Gather" type="Gather" version="opset8">
			<data batch_dims="0" />
			<input>
				<port id="0" precision="FP32">
					<dim>-1</dim>
					<dim>-1</dim>
					<dim>128</dim>
					<dim>72</dim>
					<dim>128</dim>
				</port>
				<port id="1" precision="I64" />
				<port id="2" precision="I64" />
			</input>
			<output>
				<port id="3" precision="FP32" names="333,input.89">
					<dim>-1</dim>
					<dim>128</dim>
					<dim>72</dim>
					<dim>128</dim>
				</port>
			</output>
		</layer>
		<layer id="287" name="__module.model.proposals/aten::arange/Constant" type="Const" version="opset1">
			<data element_type="i32" shape="" offset="3751460" size="4" />
			<output>
				<port id="0" precision="I32" />
			</output>
		</layer>
		<layer id="288" name="self.model.proposals.features.0.weight_compressed" type="Const" version="opset1">
			<data element_type="f16" shape="128, 128, 3, 3" offset="3751464" size="294912" />
			<output>
				<port id="0" precision="FP16" names="self.model.proposals.features.0.weight">
					<dim>128</dim>
					<dim>128</dim>
					<dim>3</dim>
					<dim>3</dim>
				</port>
			</output>
		</layer>
		<layer id="289" name="self.model.proposals.features.0.weight" type="Convert" version="opset1">
			<data destination_type="f32" />
			<rt_info>
				<attribute name="decompression" version="0" />
			</rt_info>
			<input>
				<port id="0" precision="FP16">
					<dim>128</dim>
					<dim>128</dim>
					<dim>3</dim>
					<dim>3</dim>
				</port>
			</input>
			<output>
				<port id="1" precision="FP32">
					<dim>128</dim>
					<dim>128</dim>
					<dim>3</dim>
					<dim>3</dim>
				</port>
			</output>
		</layer>
		<layer id="290" name="__module.model.proposals.features.0/aten::_convolution/Convolution" type="Convolution" version="opset1">
			<data strides="1, 1" dilations="1, 1" pads_begin="1, 1" pads_end="1, 1" auto_pad="explicit" />
			<input>
				<port id="0" precision="FP32">
					<dim>-1</dim>
					<dim>128</dim>
					<dim>72</dim>
					<dim>128</dim>
				</port>
				<port id="1" precision="FP32">
					<dim>128</dim>
					<dim>128</dim>
					<dim>3</dim>
					<dim>3</dim>
				</port>
			</input>
			<output>
				<port id="2" precision="FP32">
					<dim>-1</dim>
					<dim>128</dim>
					<dim>72</dim>
					<dim>128</dim>
				</port>
			</output>
		</layer>
		<layer id="291" name="__module.model.proposals.features.0/aten::_convolution/Reshape_compressed" type="Const" version="opset1">
			<data element_type="f16" shape="1, 128, 1, 1" offset="4046376" size="256" />
			<output>
				<port id="0" precision="FP16">
					<dim>1</dim>
					<dim>128</dim>
					<dim>1</dim>
					<dim>1</dim>
				</port>
			</output>
		</layer>
		<layer id="292" name="__module.model.proposals.features.0/aten::_convolution/Reshape" type="Convert" version="opset1">
			<data destination_type="f32" />
			<rt_info>
				<attribute name="decompression" version="0" />
			</rt_info>
			<input>
				<port id="0" precision="FP16">
					<dim>1</dim>
					<dim>128</dim>
					<dim>1</dim>
					<dim>1</dim>
				</port>
			</input>
			<output>
				<port id="1" precision="FP32">
					<dim>1</dim>
					<dim>128</dim>
					<dim>1</dim>
					<dim>1</dim>
				</port>
			</output>
		</layer>
		<layer id="293" name="__module.model.proposals.features.0/aten::_convolution/Add" type="Add" version="opset1">
			<data auto_broadcast="numpy" />
			<input>
				<port id="0" precision="FP32">
					<dim>-1</dim>
					<dim>128</dim>
					<dim>72</dim>
					<dim>128</dim>
				</port>
				<port id="1" precision="FP32">
					<dim>1</dim>
					<dim>128</dim>
					<dim>1</dim>
					<dim>1</dim>
				</port>
			</input>
			<output>
				<port id="2" precision="FP32" names="349,input.91">
					<dim>-1</dim>
					<dim>128</dim>
					<dim>72</dim>
					<dim>128</dim>
				</port>
			</output>
		</layer>
		<layer id="294" name="__module.model.proposals.features.1/aten::gelu/Gelu" type="Gelu" version="opset7">
			<data approximation_mode="ERF" />
			<input>
				<port id="0" precision="FP32">
					<dim>-1</dim>
					<dim>128</dim>
					<dim>72</dim>
					<dim>128</dim>
				</port>
			</input>
			<output>
				<port id="1" precision="FP32" names="350,input.93">
					<dim>-1</dim>
					<dim>128</dim>
					<dim>72</dim>
					<dim>128</dim>
				</port>
			</output>
		</layer>
		<layer id="295" name="self.model.proposals.box.weight_compressed" type="Const" version="opset1">
			<data element_type="f16" shape="4, 128, 1, 1" offset="4046632" size="1024" />
			<output>
				<port id="0" precision="FP16" names="self.model.proposals.box.weight">
					<dim>4</dim>
					<dim>128</dim>
					<dim>1</dim>
					<dim>1</dim>
				</port>
			</output>
		</layer>
		<layer id="296" name="self.model.proposals.box.weight" type="Convert" version="opset1">
			<data destination_type="f32" />
			<rt_info>
				<attribute name="decompression" version="0" />
			</rt_info>
			<input>
				<port id="0" precision="FP16">
					<dim>4</dim>
					<dim>128</dim>
					<dim>1</dim>
					<dim>1</dim>
				</port>
			</input>
			<output>
				<port id="1" precision="FP32">
					<dim>4</dim>
					<dim>128</dim>
					<dim>1</dim>
					<dim>1</dim>
				</port>
			</output>
		</layer>
		<layer id="297" name="__module.model.proposals.box/aten::_convolution/Convolution" type="Convolution" version="opset1">
			<data strides="1, 1" dilations="1, 1" pads_begin="0, 0" pads_end="0, 0" auto_pad="explicit" />
			<input>
				<port id="0" precision="FP32">
					<dim>-1</dim>
					<dim>128</dim>
					<dim>72</dim>
					<dim>128</dim>
				</port>
				<port id="1" precision="FP32">
					<dim>4</dim>
					<dim>128</dim>
					<dim>1</dim>
					<dim>1</dim>
				</port>
			</input>
			<output>
				<port id="2" precision="FP32">
					<dim>-1</dim>
					<dim>4</dim>
					<dim>72</dim>
					<dim>128</dim>
				</port>
			</output>
		</layer>
		<layer id="298" name="__module.model.proposals.box/aten::_convolution/Reshape" type="Const" version="opset1">
			<data element_type="f32" shape="1, 4, 1, 1" offset="4047656" size="16" />
			<output>
				<port id="0" precision="FP32">
					<dim>1</dim>
					<dim>4</dim>
					<dim>1</dim>
					<dim>1</dim>
				</port>
			</output>
		</layer>
		<layer id="299" name="__module.model.proposals.box/aten::_convolution/Add" type="Add" version="opset1">
			<data auto_broadcast="numpy" />
			<input>
				<port id="0" precision="FP32">
					<dim>-1</dim>
					<dim>4</dim>
					<dim>72</dim>
					<dim>128</dim>
				</port>
				<port id="1" precision="FP32">
					<dim>1</dim>
					<dim>4</dim>
					<dim>1</dim>
					<dim>1</dim>
				</port>
			</input>
			<output>
				<port id="2" precision="FP32" names="357,368,373,380,raw_boxes.1">
					<dim>-1</dim>
					<dim>4</dim>
					<dim>72</dim>
					<dim>128</dim>
				</port>
			</output>
		</layer>
		<layer id="300" name="__module.model.proposals/aten::size/ShapeOf" type="ShapeOf" version="opset3">
			<data output_type="i64" />
			<input>
				<port id="0" precision="FP32">
					<dim>-1</dim>
					<dim>4</dim>
					<dim>72</dim>
					<dim>128</dim>
				</port>
			</input>
			<output>
				<port id="1" precision="I64">
					<dim>4</dim>
				</port>
			</output>
		</layer>
		<layer id="301" name="54" type="Const" version="opset1">
			<data element_type="i64" shape="" offset="56" size="8" />
			<output>
				<port id="0" precision="I64" names="54" />
			</output>
		</layer>
		<layer id="302" name="__module.model.proposals/aten::size/Constant" type="Const" version="opset1">
			<data element_type="i32" shape="" offset="3751460" size="4" />
			<output>
				<port id="0" precision="I32" />
			</output>
		</layer>
		<layer id="303" name="__module.model.proposals/aten::size/Gather" type="Gather" version="opset8">
			<data batch_dims="0" />
			<input>
				<port id="0" precision="I64">
					<dim>4</dim>
				</port>
				<port id="1" precision="I64" />
				<port id="2" precision="I32" />
			</input>
			<output>
				<port id="3" precision="I64" names="1398,1812,2226,2640,3054,3468,360,3882,4296,4710,5124,5538,570,5952,6366,6780,7194,984" />
			</output>
		</layer>
		<layer id="304" name="__module.model.proposals/aten::arange/Constant_1" type="Const" version="opset1">
			<data element_type="i32" shape="" offset="12" size="4" />
			<output>
				<port id="0" precision="I32" />
			</output>
		</layer>
		<layer id="305" name="__module.model.proposals/aten::arange/Range" type="Range" version="opset4">
			<data output_type="i64" />
			<input>
				<port id="0" precision="I32" />
				<port id="1" precision="I64" />
				<port id="2" precision="I32" />
			</input>
			<output>
				<port id="3" precision="I64">
					<dim>128</dim>
				</port>
			</output>
		</layer>
		<layer id="306" name="__module.model.proposals/aten::arange/Convert" type="Convert" version="opset1">
			<data destination_type="f32" />
			<input>
				<port id="0" precision="I64">
					<dim>128</dim>
				</port>
			</input>
			<output>
				<port id="1" precision="FP32" names="1401,1815,2229,2643,3057,3471,363,3885,4299,4713,5127,5541,573,5955,6369,6783,7197,987">
					<dim>128</dim>
				</port>
			</output>
		</layer>
		<layer id="307" name="__module.model.proposals/prim::ListUnpack/Concat_3" type="Const" version="opset1">
			<data element_type="i32" shape="2" offset="4047672" size="8" />
			<rt_info>
				<attribute name="precise" version="0" />
			</rt_info>
			<output>
				<port id="0" precision="I32">
					<dim>2</dim>
				</port>
			</output>
		</layer>
		<layer id="308" name="__module.model.proposals/prim::ListUnpack/Reshape_4" type="Reshape" version="opset1">
			<data special_zero="false" />
			<input>
				<port id="0" precision="FP32">
					<dim>128</dim>
				</port>
				<port id="1" precision="I32">
					<dim>2</dim>
				</port>
			</input>
			<output>
				<port id="2" precision="FP32" names="1405,1819,2233,2647,3061,3475,367,3889,4303,4717,5131,5545,577,5959,6373,6787,7201,991,columns,columns.1,columns.11,columns.13,columns.15,columns.17,columns.19,columns.21,columns.23,columns.25,columns.27,columns.29,columns.3,columns.31,columns.33,columns.5,columns.7,columns.9">
					<dim>1</dim>
					<dim>128</dim>
				</port>
			</output>
		</layer>
		<layer id="309" name="__module.model.proposals/aten::select/Gather" type="Gather" version="opset8">
			<data batch_dims="0" />
			<input>
				<port id="0" precision="FP32">
					<dim>-1</dim>
					<dim>4</dim>
					<dim>72</dim>
					<dim>128</dim>
				</port>
				<port id="1" precision="I64" />
				<port id="2" precision="I64" />
			</input>
			<output>
				<port id="3" precision="FP32" names="369">
					<dim>-1</dim>
					<dim>72</dim>
					<dim>128</dim>
				</port>
			</output>
		</layer>
		<layer id="310" name="__module.model.proposals/aten::sigmoid/Sigmoid" type="Sigmoid" version="opset1">
			<input>
				<port id="0" precision="FP32">
					<dim>-1</dim>
					<dim>72</dim>
					<dim>128</dim>
				</port>
			</input>
			<output>
				<port id="1" precision="FP32" names="370">
					<dim>-1</dim>
					<dim>72</dim>
					<dim>128</dim>
				</port>
			</output>
		</layer>
		<layer id="311" name="__module.model.proposals/aten::add/Add" type="Add" version="opset1">
			<data auto_broadcast="numpy" />
			<input>
				<port id="0" precision="FP32">
					<dim>1</dim>
					<dim>128</dim>
				</port>
				<port id="1" precision="FP32">
					<dim>-1</dim>
					<dim>72</dim>
					<dim>128</dim>
				</port>
			</input>
			<output>
				<port id="2" precision="FP32" names="371">
					<dim>-1</dim>
					<dim>72</dim>
					<dim>128</dim>
				</port>
			</output>
		</layer>
		<layer id="312" name="__module.model.proposals/aten::div/Convert" type="Convert" version="opset1">
			<data destination_type="f32" />
			<input>
				<port id="0" precision="I64" />
			</input>
			<output>
				<port id="1" precision="FP32" />
			</output>
		</layer>
		<layer id="313" name="__module.model.proposals/aten::div/Divide" type="Divide" version="opset1">
			<data auto_broadcast="numpy" m_pythondiv="true" />
			<input>
				<port id="0" precision="FP32">
					<dim>-1</dim>
					<dim>72</dim>
					<dim>128</dim>
				</port>
				<port id="1" precision="FP32" />
			</input>
			<output>
				<port id="2" precision="FP32" names="372">
					<dim>-1</dim>
					<dim>72</dim>
					<dim>128</dim>
				</port>
			</output>
		</layer>
		<layer id="314" name="__module.model.proposals/aten::stack/Constant" type="Const" version="opset1">
			<data element_type="i32" shape="" offset="12" size="4" />
			<output>
				<port id="0" precision="I32" />
			</output>
		</layer>
		<layer id="315" name="__module.model.proposals/aten::stack/Unsqueeze" type="Unsqueeze" version="opset1">
			<input>
				<port id="0" precision="FP32">
					<dim>-1</dim>
					<dim>72</dim>
					<dim>128</dim>
				</port>
				<port id="1" precision="I32" />
			</input>
			<output>
				<port id="2" precision="FP32">
					<dim>-1</dim>
					<dim>1</dim>
					<dim>72</dim>
					<dim>128</dim>
				</port>
			</output>
		</layer>
		<layer id="316" name="__module.model.proposals/aten::arange/Constant_2" type="Const" version="opset1">
			<data element_type="i32" shape="" offset="3751460" size="4" />
			<output>
				<port id="0" precision="I32" />
			</output>
		</layer>
		<layer id="317" name="50" type="Const" version="opset1">
			<data element_type="i64" shape="" offset="88" size="8" />
			<output>
				<port id="0" precision="I64" names="50" />
			</output>
		</layer>
		<layer id="318" name="__module.model.proposals/aten::size/Constant_1" type="Const" version="opset1">
			<data element_type="i32" shape="" offset="3751460" size="4" />
			<output>
				<port id="0" precision="I32" />
			</output>
		</layer>
		<layer id="319" name="__module.model.proposals/aten::size/Gather_1" type="Gather" version="opset8">
			<data batch_dims="0" />
			<input>
				<port id="0" precision="I64">
					<dim>4</dim>
				</port>
				<port id="1" precision="I64" />
				<port id="2" precision="I32" />
			</input>
			<output>
				<port id="3" precision="I64" names="1396,1810,2224,2638,3052,3466,358,3880,4294,4708,5122,5536,568,5950,6364,6778,7192,982" />
			</output>
		</layer>
		<layer id="320" name="__module.model.proposals/aten::arange/Constant_3" type="Const" version="opset1">
			<data element_type="i32" shape="" offset="12" size="4" />
			<output>
				<port id="0" precision="I32" />
			</output>
		</layer>
		<layer id="321" name="__module.model.proposals/aten::arange/Range_1" type="Range" version="opset4">
			<data output_type="i64" />
			<input>
				<port id="0" precision="I32" />
				<port id="1" precision="I64" />
				<port id="2" precision="I32" />
			</input>
			<output>
				<port id="3" precision="I64">
					<dim>72</dim>
				</port>
			</output>
		</layer>
		<layer id="322" name="__module.model.proposals/aten::arange/Convert_1" type="Convert" version="opset1">
			<data destination_type="f32" />
			<input>
				<port id="0" precision="I64">
					<dim>72</dim>
				</port>
			</input>
			<output>
…
		<edge from-layer="6586" from-port="0" to-layer="6588" to-port="3" />
		<edge from-layer="6587" from-port="0" to-layer="6588" to-port="4" />
		<edge from-layer="6588" from-port="5" to-layer="6600" to-port="0" />
		<edge from-layer="6589" from-port="0" to-layer="6590" to-port="1" />
		<edge from-layer="6590" from-port="2" to-layer="6591" to-port="0" />
		<edge from-layer="6590" from-port="2" to-layer="6622" to-port="0" />
		<edge from-layer="6591" from-port="2" to-layer="6594" to-port="0" />
		<edge from-layer="6592" from-port="0" to-layer="6593" to-port="0" />
		<edge from-layer="6593" from-port="1" to-layer="6594" to-port="1" />
		<edge from-layer="6594" from-port="2" to-layer="6599" to-port="0" />
		<edge from-layer="6594" from-port="2" to-layer="6606" to-port="0" />
		<edge from-layer="6594" from-port="2" to-layer="6619" to-port="0" />
		<edge from-layer="6595" from-port="0" to-layer="6599" to-port="1" />
		<edge from-layer="6596" from-port="0" to-layer="6599" to-port="2" />
		<edge from-layer="6597" from-port="0" to-layer="6599" to-port="3" />
		<edge from-layer="6598" from-port="0" to-layer="6599" to-port="4" />
		<edge from-layer="6599" from-port="5" to-layer="6600" to-port="1" />
		<edge from-layer="6600" from-port="2" to-layer="6601" to-port="0" />
		<edge from-layer="6601" from-port="1" to-layer="6607" to-port="0" />
		<edge from-layer="6602" from-port="0" to-layer="6606" to-port="1" />
		<edge from-layer="6603" from-port="0" to-layer="6606" to-port="2" />
		<edge from-layer="6604" from-port="0" to-layer="6606" to-port="3" />
		<edge from-layer="6605" from-port="0" to-layer="6606" to-port="4" />
		<edge from-layer="6606" from-port="5" to-layer="6607" to-port="1" />
		<edge from-layer="6607" from-port="2" to-layer="6608" to-port="1" />
		<edge from-layer="6608" from-port="2" to-layer="6609" to-port="0" />
		<edge from-layer="6609" from-port="1" to-layer="6622" to-port="1" />
		<edge from-layer="6609" from-port="1" to-layer="6624" to-port="0" />
		<edge from-layer="6610" from-port="0" to-layer="6614" to-port="1" />
		<edge from-layer="6611" from-port="0" to-layer="6614" to-port="2" />
		<edge from-layer="6612" from-port="0" to-layer="6614" to-port="3" />
		<edge from-layer="6613" from-port="0" to-layer="6614" to-port="4" />
		<edge from-layer="6614" from-port="5" to-layer="6620" to-port="0" />
		<edge from-layer="6615" from-port="0" to-layer="6619" to-port="1" />
		<edge from-layer="6616" from-port="0" to-layer="6619" to-port="2" />
		<edge from-layer="6617" from-port="0" to-layer="6619" to-port="3" />
		<edge from-layer="6618" from-port="0" to-layer="6619" to-port="4" />
		<edge from-layer="6619" from-port="5" to-layer="6620" to-port="1" />
		<edge from-layer="6620" from-port="2" to-layer="6621" to-port="0" />
		<edge from-layer="6621" from-port="1" to-layer="6623" to-port="0" />
		<edge from-layer="6622" from-port="2" to-layer="6623" to-port="1" />
		<edge from-layer="6623" from-port="2" to-layer="6624" to-port="1" />
		<edge from-layer="6624" from-port="2" to-layer="6626" to-port="0" />
		<edge from-layer="6625" from-port="0" to-layer="6626" to-port="1" />
		<edge from-layer="6626" from-port="2" to-layer="6631" to-port="0" />
		<edge from-layer="6627" from-port="2" to-layer="6630" to-port="0" />
		<edge from-layer="6628" from-port="0" to-layer="6629" to-port="0" />
		<edge from-layer="6629" from-port="1" to-layer="6630" to-port="1" />
		<edge from-layer="6630" from-port="2" to-layer="6631" to-port="1" />
		<edge from-layer="6631" from-port="2" to-layer="6633" to-port="0" />
		<edge from-layer="6632" from-port="0" to-layer="6633" to-port="1" />
		<edge from-layer="6633" from-port="2" to-layer="6636" to-port="0" />
		<edge from-layer="6634" from-port="0" to-layer="6635" to-port="0" />
		<edge from-layer="6635" from-port="1" to-layer="6636" to-port="1" />
		<edge from-layer="6636" from-port="2" to-layer="6638" to-port="0" />
		<edge from-layer="6637" from-port="0" to-layer="6638" to-port="1" />
		<edge from-layer="6638" from-port="2" to-layer="6639" to-port="0" />
		<edge from-layer="6638" from-port="2" to-layer="6883" to-port="1" />
		<edge from-layer="6638" from-port="2" to-layer="6918" to-port="0" />
		<edge from-layer="6638" from-port="2" to-layer="6921" to-port="0" />
		<edge from-layer="6638" from-port="2" to-layer="6954" to-port="1" />
		<edge from-layer="6639" from-port="2" to-layer="7023" to-port="16" />
		<edge from-layer="6640" from-port="0" to-layer="6641" to-port="1" />
		<edge from-layer="6640" from-port="0" to-layer="6721" to-port="1" />
		<edge from-layer="6640" from-port="0" to-layer="6746" to-port="1" />
		<edge from-layer="6641" from-port="3" to-layer="6642" to-port="0" />
		<edge from-layer="6641" from-port="3" to-layer="6710" to-port="0" />
		<edge from-layer="6641" from-port="3" to-layer="6819" to-port="0" />
		<edge from-layer="6642" from-port="2" to-layer="6645" to-port="0" />
		<edge from-layer="6643" from-port="0" to-layer="6644" to-port="0" />
		<edge from-layer="6644" from-port="1" to-layer="6645" to-port="1" />
		<edge from-layer="6645" from-port="2" to-layer="6646" to-port="0" />
		<edge from-layer="6646" from-port="1" to-layer="6647" to-port="0" />
		<edge from-layer="6646" from-port="1" to-layer="6672" to-port="0" />
		<edge from-layer="6646" from-port="1" to-layer="6776" to-port="0" />
		<edge from-layer="6647" from-port="2" to-layer="6649" to-port="0" />
		<edge from-layer="6648" from-port="0" to-layer="6649" to-port="1" />
		<edge from-layer="6649" from-port="2" to-layer="6650" to-port="0" />
		<edge from-layer="6649" from-port="2" to-layer="6656" to-port="0" />
		<edge from-layer="6649" from-port="2" to-layer="6665" to-port="0" />
		<edge from-layer="6650" from-port="3" to-layer="6651" to-port="0" />
		<edge from-layer="6651" from-port="1" to-layer="6652" to-port="1" />
		<edge from-layer="6652" from-port="2" to-layer="6653" to-port="0" />
		<edge from-layer="6653" from-port="2" to-layer="6655" to-port="0" />
		<edge from-layer="6654" from-port="0" to-layer="6655" to-port="1" />
		<edge from-layer="6654" from-port="0" to-layer="6660" to-port="1" />
		<edge from-layer="6655" from-port="2" to-layer="6667" to-port="0" />
		<edge from-layer="6656" from-port="3" to-layer="6657" to-port="0" />
		<edge from-layer="6657" from-port="1" to-layer="6658" to-port="1" />
		<edge from-layer="6658" from-port="2" to-layer="6659" to-port="0" />
		<edge from-layer="6659" from-port="2" to-layer="6660" to-port="0" />
		<edge from-layer="6660" from-port="2" to-layer="6667" to-port="1" />
		<edge from-layer="6661" from-port="0" to-layer="6665" to-port="1" />
		<edge from-layer="6662" from-port="0" to-layer="6665" to-port="2" />
		<edge from-layer="6663" from-port="0" to-layer="6665" to-port="3" />
		<edge from-layer="6664" from-port="0" to-layer="6665" to-port="4" />
		<edge from-layer="6665" from-port="5" to-layer="6666" to-port="0" />
		<edge from-layer="6666" from-port="1" to-layer="6667" to-port="2" />
		<edge from-layer="6667" from-port="3" to-layer="6669" to-port="0" />
		<edge from-layer="6668" from-port="0" to-layer="6669" to-port="1" />
		<edge from-layer="6669" from-port="2" to-layer="6671" to-port="0" />
		<edge from-layer="6670" from-port="0" to-layer="6671" to-port="1" />
		<edge from-layer="6671" from-port="2" to-layer="6685" to-port="0" />
		<edge from-layer="6672" from-port="2" to-layer="6674" to-port="0" />
		<edge from-layer="6673" from-port="0" to-layer="6674" to-port="1" />
		<edge from-layer="6674" from-port="2" to-layer="6675" to-port="0" />
		<edge from-layer="6674" from-port="2" to-layer="6676" to-port="0" />
		<edge from-layer="6674" from-port="2" to-layer="6677" to-port="1" />
		<edge from-layer="6674" from-port="2" to-layer="6895" to-port="0" />
		<edge from-layer="6675" from-port="1" to-layer="6676" to-port="1" />
		<edge from-layer="6676" from-port="2" to-layer="6677" to-port="0" />
		<edge from-layer="6677" from-port="3" to-layer="6679" to-port="0" />
		<edge from-layer="6678" from-port="0" to-layer="6679" to-port="1" />
		<edge from-layer="6679" from-port="2" to-layer="6680" to-port="0" />
		<edge from-layer="6680" from-port="3" to-layer="6681" to-port="0" />
		<edge from-layer="6680" from-port="2" to-layer="6794" to-port="0" />
		<edge from-layer="6681" from-port="2" to-layer="6683" to-port="0" />
		<edge from-layer="6681" from-port="2" to-layer="6785" to-port="0" />
		<edge from-layer="6682" from-port="0" to-layer="6683" to-port="1" />
		<edge from-layer="6683" from-port="2" to-layer="6684" to-port="0" />
		<edge from-layer="6684" from-port="1" to-layer="6685" to-port="1" />
		<edge from-layer="6685" from-port="2" to-layer="6690" to-port="0" />
		<edge from-layer="6685" from-port="2" to-layer="6697" to-port="0" />
		<edge from-layer="6685" from-port="2" to-layer="6789" to-port="0" />
		<edge from-layer="6685" from-port="2" to-layer="6926" to-port="0" />
		<edge from-layer="6686" from-port="0" to-layer="6690" to-port="1" />
		<edge from-layer="6687" from-port="0" to-layer="6690" to-port="2" />
		<edge from-layer="6688" from-port="0" to-layer="6690" to-port="3" />
		<edge from-layer="6689" from-port="0" to-layer="6690" to-port="4" />
		<edge from-layer="6690" from-port="5" to-layer="6691" to-port="0" />
		<edge from-layer="6691" from-port="2" to-layer="6701" to-port="0" />
		<edge from-layer="6691" from-port="2" to-layer="6726" to-port="0" />
		<edge from-layer="6691" from-port="2" to-layer="6751" to-port="0" />
		<edge from-layer="6692" from-port="0" to-layer="6700" to-port="0" />
		<edge from-layer="6693" from-port="0" to-layer="6697" to-port="1" />
		<edge from-layer="6694" from-port="0" to-layer="6697" to-port="2" />
		<edge from-layer="6695" from-port="0" to-layer="6697" to-port="3" />
		<edge from-layer="6696" from-port="0" to-layer="6697" to-port="4" />
		<edge from-layer="6697" from-port="5" to-layer="6698" to-port="0" />
		<edge from-layer="6697" from-port="5" to-layer="6723" to-port="0" />
		<edge from-layer="6697" from-port="5" to-layer="6748" to-port="0" />
		<edge from-layer="6698" from-port="2" to-layer="6699" to-port="0" />
		<edge from-layer="6699" from-port="2" to-layer="6700" to-port="1" />
		<edge from-layer="6700" from-port="2" to-layer="6701" to-port="1" />
		<edge from-layer="6701" from-port="2" to-layer="6704" to-port="0" />
		<edge from-layer="6702" from-port="0" to-layer="6703" to-port="0" />
		<edge from-layer="6703" from-port="1" to-layer="6704" to-port="1" />
		<edge from-layer="6704" from-port="2" to-layer="6707" to-port="0" />
		<edge from-layer="6705" from-port="0" to-layer="6706" to-port="0" />
		<edge from-layer="6706" from-port="1" to-layer="6707" to-port="1" />
		<edge from-layer="6707" from-port="2" to-layer="6709" to-port="0" />
		<edge from-layer="6708" from-port="0" to-layer="6709" to-port="1" />
		<edge from-layer="6709" from-port="2" to-layer="6710" to-port="1" />
		<edge from-layer="6710" from-port="2" to-layer="6711" to-port="0" />
		<edge from-layer="6711" from-port="2" to-layer="6713" to-port="0" />
		<edge from-layer="6712" from-port="0" to-layer="6713" to-port="1" />
		<edge from-layer="6713" from-port="2" to-layer="6715" to-port="0" />
		<edge from-layer="6714" from-port="0" to-layer="6715" to-port="1" />
		<edge from-layer="6715" from-port="2" to-layer="6717" to-port="0" />
		<edge from-layer="6716" from-port="0" to-layer="6717" to-port="1" />
		<edge from-layer="6717" from-port="2" to-layer="6720" to-port="0" />
		<edge from-layer="6718" from-port="0" to-layer="6719" to-port="0" />
		<edge from-layer="6719" from-port="1" to-layer="6720" to-port="1" />
		<edge from-layer="6720" from-port="2" to-layer="6771" to-port="0" />
		<edge from-layer="6721" from-port="3" to-layer="6735" to-port="0" />
		<edge from-layer="6721" from-port="3" to-layer="6843" to-port="0" />
		<edge from-layer="6722" from-port="0" to-layer="6725" to-port="0" />
		<edge from-layer="6723" from-port="2" to-layer="6724" to-port="0" />
		<edge from-layer="6724" from-port="2" to-layer="6725" to-port="1" />
		<edge from-layer="6725" from-port="2" to-layer="6726" to-port="1" />
		<edge from-layer="6726" from-port="2" to-layer="6729" to-port="0" />
		<edge from-layer="6727" from-port="0" to-layer="6728" to-port="0" />
		<edge from-layer="6728" from-port="1" to-layer="6729" to-port="1" />
		<edge from-layer="6729" from-port="2" to-layer="6732" to-port="0" />
		<edge from-layer="6730" from-port="0" to-layer="6731" to-port="0" />
		<edge from-layer="6731" from-port="1" to-layer="6732" to-port="1" />
		<edge from-layer="6732" from-port="2" to-layer="6734" to-port="0" />
		<edge from-layer="6733" from-port="0" to-layer="6734" to-port="1" />
		<edge from-layer="6734" from-port="2" to-layer="6735" to-port="1" />
		<edge from-layer="6735" from-port="2" to-layer="6736" to-port="0" />
		<edge from-layer="6736" from-port="2" to-layer="6738" to-port="0" />
		<edge from-layer="6737" from-port="0" to-layer="6738" to-port="1" />
		<edge from-layer="6738" from-port="2" to-layer="6740" to-port="0" />
		<edge from-layer="6739" from-port="0" to-layer="6740" to-port="1" />
		<edge from-layer="6740" from-port="2" to-layer="6742" to-port="0" />
		<edge from-layer="6741" from-port="0" to-layer="6742" to-port="1" />
		<edge from-layer="6742" from-port="2" to-layer="6745" to-port="0" />
		<edge from-layer="6743" from-port="0" to-layer="6744" to-port="0" />
		<edge from-layer="6744" from-port="1" to-layer="6745" to-port="1" />
		<edge from-layer="6745" from-port="2" to-layer="6771" to-port="1" />
		<edge from-layer="6746" from-port="3" to-layer="6760" to-port="0" />
		<edge from-layer="6746" from-port="3" to-layer="6867" to-port="0" />
		<edge from-layer="6747" from-port="0" to-layer="6750" to-port="0" />
		<edge from-layer="6748" from-port="2" to-layer="6749" to-port="0" />
		<edge from-layer="6749" from-port="2" to-layer="6750" to-port="1" />
		<edge from-layer="6750" from-port="2" to-layer="6751" to-port="1" />
		<edge from-layer="6751" from-port="2" to-layer="6754" to-port="0" />
		<edge from-layer="6752" from-port="0" to-layer="6753" to-port="0" />
		<edge from-layer="6753" from-port="1" to-layer="6754" to-port="1" />
		<edge from-layer="6754" from-port="2" to-layer="6757" to-port="0" />
		<edge from-layer="6755" from-port="0" to-layer="6756" to-port="0" />
		<edge from-layer="6756" from-port="1" to-layer="6757" to-port="1" />
		<edge from-layer="6757" from-port="2" to-layer="6759" to-port="0" />
		<edge from-layer="6758" from-port="0" to-layer="6759" to-port="1" />
		<edge from-layer="6759" from-port="2" to-layer="6760" to-port="1" />
		<edge from-layer="6760" from-port="2" to-layer="6761" to-port="0" />
		<edge from-layer="6761" from-port="2" to-layer="6763" to-port="0" />
		<edge from-layer="6762" from-port="0" to-layer="6763" to-port="1" />
		<edge from-layer="6763" from-port="2" to-layer="6765" to-port="0" />
		<edge from-layer="6764" from-port="0" to-layer="6765" to-port="1" />
		<edge from-layer="6765" from-port="2" to-layer="6767" to-port="0" />
		<edge from-layer="6766" from-port="0" to-layer="6767" to-port="1" />
		<edge from-layer="6767" from-port="2" to-layer="6770" to-port="0" />
		<edge from-layer="6768" from-port="0" to-layer="6769" to-port="0" />
		<edge from-layer="6769" from-port="1" to-layer="6770" to-port="1" />
		<edge from-layer="6770" from-port="2" to-layer="6771" to-port="2" />
		<edge from-layer="6771" from-port="3" to-layer="6772" to-port="0" />
		<edge from-layer="6772" from-port="2" to-layer="6775" to-port="0" />
		<edge from-layer="6773" from-port="0" to-layer="6774" to-port="0" />
		<edge from-layer="6774" from-port="1" to-layer="6775" to-port="1" />
		<edge from-layer="6775" from-port="2" to-layer="6788" to-port="0" />
		<edge from-layer="6776" from-port="2" to-layer="6779" to-port="0" />
		<edge from-layer="6777" from-port="0" to-layer="6778" to-port="0" />
		<edge from-layer="6778" from-port="1" to-layer="6779" to-port="1" />
		<edge from-layer="6779" from-port="2" to-layer="6781" to-port="0" />
		<edge from-layer="6780" from-port="0" to-layer="6781" to-port="1" />
		<edge from-layer="6781" from-port="2" to-layer="6783" to-port="0" />
		<edge from-layer="6782" from-port="0" to-layer="6783" to-port="1" />
		<edge from-layer="6783" from-port="2" to-layer="6787" to-port="0" />
		<edge from-layer="6784" from-port="0" to-layer="6785" to-port="1" />
		<edge from-layer="6785" from-port="2" to-layer="6786" to-port="0" />
		<edge from-layer="6786" from-port="1" to-layer="6787" to-port="1" />
		<edge from-layer="6787" from-port="2" to-layer="6788" to-port="1" />
		<edge from-layer="6788" from-port="2" to-layer="6793" to-port="0" />
		<edge from-layer="6789" from-port="2" to-layer="6792" to-port="0" />
		<edge from-layer="6790" from-port="0" to-layer="6791" to-port="0" />
		<edge from-layer="6791" from-port="1" to-layer="6792" to-port="1" />
		<edge from-layer="6792" from-port="2" to-layer="6793" to-port="1" />
		<edge from-layer="6793" from-port="2" to-layer="6799" to-port="0" />
		<edge from-layer="6794" from-port="3" to-layer="6795" to-port="0" />
		<edge from-layer="6795" from-port="2" to-layer="6797" to-port="0" />
		<edge from-layer="6795" from-port="2" to-layer="6924" to-port="0" />
		<edge from-layer="6796" from-port="0" to-layer="6797" to-port="1" />
		<edge from-layer="6797" from-port="2" to-layer="6798" to-port="0" />
		<edge from-layer="6798" from-port="1" to-layer="6799" to-port="1" />
		<edge from-layer="6799" from-port="2" to-layer="6913" to-port="0" />
		<edge from-layer="6800" from-port="2" to-layer="6810" to-port="0" />
		<edge from-layer="6800" from-port="2" to-layer="6834" to-port="0" />
		<edge from-layer="6800" from-port="2" to-layer="6858" to-port="0" />
		<edge from-layer="6800" from-port="2" to-layer="6891" to-port="0" />
		<edge from-layer="6801" from-port="0" to-layer="6809" to-port="0" />
		<edge from-layer="6802" from-port="0" to-layer="6806" to-port="1" />
		<edge from-layer="6803" from-port="0" to-layer="6806" to-port="2" />
		<edge from-layer="6804" from-port="0" to-layer="6806" to-port="3" />
		<edge from-layer="6805" from-port="0" to-layer="6806" to-port="4" />
		<edge from-layer="6806" from-port="5" to-layer="6807" to-port="0" />
		<edge from-layer="6806" from-port="5" to-layer="6831" to-port="0" />
		<edge from-layer="6806" from-port="5" to-layer="6855" to-port="0" />
		<edge from-layer="6807" from-port="2" to-layer="6808" to-port="0" />
		<edge from-layer="6808" from-port="2" to-layer="6809" to-port="1" />
		<edge from-layer="6809" from-port="2" to-layer="6810" to-port="1" />
		<edge from-layer="6810" from-port="2" to-layer="6813" to-port="0" />
		<edge from-layer="6811" from-port="0" to-layer="6812" to-port="0" />
		<edge from-layer="6812" from-port="1" to-layer="6813" to-port="1" />
		<edge from-layer="6813" from-port="2" to-layer="6816" to-port="0" />
		<edge from-layer="6814" from-port="0" to-layer="6815" to-port="0" />
		<edge from-layer="6815" from-port="1" to-layer="6816" to-port="1" />
		<edge from-layer="6816" from-port="2" to-layer="6818" to-port="0" />
		<edge from-layer="6817" from-port="0" to-layer="6818" to-port="1" />
		<edge from-layer="6818" from-port="2" to-layer="6819" to-port="1" />
		<edge from-layer="6819" from-port="2" to-layer="6820" to-port="0" />
		<edge from-layer="6820" from-port="2" to-layer="6822" to-port="0" />
		<edge from-layer="6821" from-port="0" to-layer="6822" to-port="1" />
		<edge from-layer="6822" from-port="2" to-layer="6824" to-port="0" />
		<edge from-layer="6823" from-port="0" to-layer="6824" to-port="1" />
		<edge from-layer="6824" from-port="2" to-layer="6826" to-port="0" />
		<edge from-layer="6825" from-port="0" to-layer="6826" to-port="1" />
		<edge from-layer="6826" from-port="2" to-layer="6829" to-port="0" />
		<edge from-layer="6827" from-port="0" to-layer="6828" to-port="0" />
		<edge from-layer="6828" from-port="1" to-layer="6829" to-port="1" />
		<edge from-layer="6829" from-port="2" to-layer="6878" to-port="0" />
		<edge from-layer="6830" from-port="0" to-layer="6833" to-port="0" />
		<edge from-layer="6831" from-port="2" to-layer="6832" to-port="0" />
		<edge from-layer="6832" from-port="2" to-layer="6833" to-port="1" />
		<edge from-layer="6833" from-port="2" to-layer="6834" to-port="1" />
		<edge from-layer="6834" from-port="2" to-layer="6837" to-port="0" />
		<edge from-layer="6835" from-port="0" to-layer="6836" to-port="0" />
		<edge from-layer="6836" from-port="1" to-layer="6837" to-port="1" />
		<edge from-layer="6837" from-port="2" to-layer="6840" to-port="0" />
		<edge from-layer="6838" from-port="0" to-layer="6839" to-port="0" />
		<edge from-layer="6839" from-port="1" to-layer="6840" to-port="1" />
		<edge from-layer="6840" from-port="2" to-layer="6842" to-port="0" />
		<edge from-layer="6841" from-port="0" to-layer="6842" to-port="1" />
		<edge from-layer="6842" from-port="2" to-layer="6843" to-port="1" />
		<edge from-layer="6843" from-port="2" to-layer="6844" to-port="0" />
		<edge from-layer="6844" from-port="2" to-layer="6846" to-port="0" />
		<edge from-layer="6845" from-port="0" to-layer="6846" to-port="1" />
		<edge from-layer="6846" from-port="2" to-layer="6848" to-port="0" />
		<edge from-layer="6847" from-port="0" to-layer="6848" to-port="1" />
		<edge from-layer="6848" from-port="2" to-layer="6850" to-port="0" />
		<edge from-layer="6849" from-port="0" to-layer="6850" to-port="1" />
		<edge from-layer="6850" from-port="2" to-layer="6853" to-port="0" />
		<edge from-layer="6851" from-port="0" to-layer="6852" to-port="0" />
		<edge from-layer="6852" from-port="1" to-layer="6853" to-port="1" />
		<edge from-layer="6853" from-port="2" to-layer="6878" to-port="1" />
		<edge from-layer="6854" from-port="0" to-layer="6857" to-port="0" />
		<edge from-layer="6855" from-port="2" to-layer="6856" to-port="0" />
		<edge from-layer="6856" from-port="2" to-layer="6857" to-port="1" />
		<edge from-layer="6857" from-port="2" to-layer="6858" to-port="1" />
		<edge from-layer="6858" from-port="2" to-layer="6861" to-port="0" />
		<edge from-layer="6859" from-port="0" to-layer="6860" to-port="0" />
		<edge from-layer="6860" from-port="1" to-layer="6861" to-port="1" />
		<edge from-layer="6861" from-port="2" to-layer="6864" to-port="0" />
		<edge from-layer="6862" from-port="0" to-layer="6863" to-port="0" />
		<edge from-layer="6863" from-port="1" to-layer="6864" to-port="1" />
		<edge from-layer="6864" from-port="2" to-layer="6866" to-port="0" />
		<edge from-layer="6865" from-port="0" to-layer="6866" to-port="1" />
		<edge from-layer="6866" from-port="2" to-layer="6867" to-port="1" />
		<edge from-layer="6867" from-port="2" to-layer="6868" to-port="0" />
		<edge from-layer="6868" from-port="2" to-layer="6870" to-port="0" />
		<edge from-layer="6869" from-port="0" to-layer="6870" to-port="1" />
		<edge from-layer="6870" from-port="2" to-layer="6872" to-port="0" />
		<edge from-layer="6871" from-port="0" to-layer="6872" to-port="1" />
		<edge from-layer="6872" from-port="2" to-layer="6874" to-port="0" />
		<edge from-layer="6873" from-port="0" to-layer="6874" to-port="1" />
		<edge from-layer="6874" from-port="2" to-layer="6877" to-port="0" />
		<edge from-layer="6875" from-port="0" to-layer="6876" to-port="0" />
		<edge from-layer="6876" from-port="1" to-layer="6877" to-port="1" />
		<edge from-layer="6877" from-port="2" to-layer="6878" to-port="2" />
		<edge from-layer="6878" from-port="3" to-layer="6879" to-port="0" />
		<edge from-layer="6879" from-port="2" to-layer="6882" to-port="0" />
		<edge from-layer="6880" from-port="0" to-layer="6881" to-port="0" />
		<edge from-layer="6881" from-port="1" to-layer="6882" to-port="1" />
		<edge from-layer="6882" from-port="2" to-layer="6883" to-port="0" />
		<edge from-layer="6883" from-port="2" to-layer="6888" to-port="0" />
		<edge from-layer="6884" from-port="2" to-layer="6887" to-port="0" />
		<edge from-layer="6885" from-port="0" to-layer="6886" to-port="0" />
		<edge from-layer="6886" from-port="1" to-layer="6887" to-port="1" />
		<edge from-layer="6887" from-port="2" to-layer="6888" to-port="1" />
		<edge from-layer="6888" from-port="2" to-layer="6912" to-port="0" />
		<edge from-layer="6889" from-port="0" to-layer="6890" to-port="0" />
		<edge from-layer="6890" from-port="1" to-layer="6891" to-port="1" />
		<edge from-layer="6891" from-port="2" to-layer="6894" to-port="0" />
		<edge from-layer="6892" from-port="0" to-layer="6893" to-port="0" />
		<edge from-layer="6893" from-port="1" to-layer="6894" to-port="1" />
		<edge from-layer="6894" from-port="2" to-layer="6895" to-port="1" />
		<edge from-layer="6895" from-port="2" to-layer="6896" to-port="0" />
		<edge from-layer="6896" from-port="3" to-layer="6897" to-port="0" />
		<edge from-layer="6897" from-port="3" to-layer="6906" to-port="0" />
		<edge from-layer="6898" from-port="1" to-layer="6899" to-port="1" />
		<edge from-layer="6899" from-port="2" to-layer="6902" to-port="0" />
		<edge from-layer="6900" from-port="1" to-layer="6901" to-port="1" />
		<edge from-layer="6901" from-port="2" to-layer="6902" to-port="1" />
		<edge from-layer="6902" from-port="2" to-layer="6905" to-port="0" />
		<edge from-layer="6903" from-port="0" to-layer="6904" to-port="0" />
		<edge from-layer="6904" from-port="1" to-layer="6905" to-port="1" />
		<edge from-layer="6905" from-port="2" to-layer="6906" to-port="1" />
		<edge from-layer="6906" from-port="2" to-layer="6907" to-port="0" />
		<edge from-layer="6907" from-port="3" to-layer="6908" to-port="0" />
		<edge from-layer="6908" from-port="2" to-layer="6910" to-port="0" />
		<edge from-layer="6908" from-port="2" to-layer="6928" to-port="0" />
		<edge from-layer="6909" from-port="0" to-layer="6910" to-port="1" />
		<edge from-layer="6910" from-port="2" to-layer="6911" to-port="0" />
		<edge from-layer="6911" from-port="1" to-layer="6912" to-port="1" />
		<edge from-layer="6912" from-port="2" to-layer="6913" to-port="1" />
		<edge from-layer="6913" from-port="2" to-layer="6914" to-port="0" />
		<edge from-layer="6913" from-port="2" to-layer="6917" to-port="0" />
		<edge from-layer="6913" from-port="2" to-layer="6955" to-port="0" />
		<edge from-layer="6914" from-port="2" to-layer="6916" to-port="0" />
		<edge from-layer="6915" from-port="0" to-layer="6916" to-port="1" />
		<edge from-layer="6916" from-port="2" to-layer="6917" to-port="1" />
		<edge from-layer="6917" from-port="2" to-layer="6922" to-port="0" />
		<edge from-layer="6918" from-port="2" to-layer="6920" to-port="0" />
		<edge from-layer="6919" from-port="0" to-layer="6920" to-port="1" />
		<edge from-layer="6920" from-port="2" to-layer="6921" to-port="1" />
		<edge from-layer="6921" from-port="2" to-layer="6922" to-port="1" />
		<edge from-layer="6922" from-port="2" to-layer="6952" to-port="0" />
		<edge from-layer="6923" from-port="0" to-layer="6924" to-port="1" />
		<edge from-layer="6924" from-port="2" to-layer="6925" to-port="0" />
		<edge from-layer="6925" from-port="1" to-layer="6926" to-port="1" />
		<edge from-layer="6926" from-port="2" to-layer="6931" to-port="0" />
		<edge from-layer="6927" from-port="0" to-layer="6928" to-port="1" />
		<edge from-layer="6928" from-port="2" to-layer="6929" to-port="0" />
		<edge from-layer="6929" from-port="1" to-layer="6930" to-port="1" />
		<edge from-layer="6930" from-port="2" to-layer="6931" to-port="1" />
		<edge from-layer="6931" from-port="2" to-layer="6936" to-port="0" />
		<edge from-layer="6931" from-port="2" to-layer="7010" to-port="0" />
		<edge from-layer="6931" from-port="2" to-layer="7135" to-port="0" />
		<edge from-layer="6932" from-port="0" to-layer="6936" to-port="1" />
		<edge from-layer="6933" from-port="0" to-layer="6936" to-port="2" />
		<edge from-layer="6934" from-port="0" to-layer="6936" to-port="3" />
		<edge from-layer="6935" from-port="0" to-layer="6936" to-port="4" />
		<edge from-layer="6936" from-port="5" to-layer="6938" to-port="0" />
		<edge from-layer="6937" from-port="0" to-layer="6938" to-port="1" />
		<edge from-layer="6938" from-port="2" to-layer="6941" to-port="0" />
		<edge from-layer="6939" from-port="0" to-layer="6940" to-port="1" />
		<edge from-layer="6940" from-port="2" to-layer="6941" to-port="1" />
		<edge from-layer="6941" from-port="2" to-layer="6944" to-port="0" />
		<edge from-layer="6942" from-port="0" to-layer="6943" to-port="0" />
		<edge from-layer="6943" from-port="1" to-layer="6944" to-port="1" />
		<edge from-layer="6944" from-port="2" to-layer="6946" to-port="0" />
		<edge from-layer="6945" from-port="0" to-layer="6946" to-port="1" />
		<edge from-layer="6946" from-port="2" to-layer="6949" to-port="0" />
		<edge from-layer="6947" from-port="0" to-layer="6948" to-port="0" />
		<edge from-layer="6948" from-port="1" to-layer="6949" to-port="1" />
		<edge from-layer="6949" from-port="2" to-layer="6951" to-port="0" />
		<edge from-layer="6950" from-port="0" to-layer="6951" to-port="1" />
		<edge from-layer="6951" from-port="2" to-layer="6952" to-port="1" />
		<edge from-layer="6952" from-port="2" to-layer="6953" to-port="0" />
		<edge from-layer="6953" from-port="1" to-layer="6954" to-port="0" />
		<edge from-layer="6953" from-port="1" to-layer="7115" to-port="0" />
		<edge from-layer="6954" from-port="2" to-layer="6955" to-port="1" />
		<edge from-layer="6954" from-port="2" to-layer="6973" to-port="0" />
		<edge from-layer="6955" from-port="2" to-layer="6957" to-port="0" />
		<edge from-layer="6956" from-port="0" to-layer="6957" to-port="1" />
		<edge from-layer="6957" from-port="2" to-layer="6958" to-port="0" />
		<edge from-layer="6958" from-port="2" to-layer="6961" to-port="0" />
		<edge from-layer="6959" from-port="0" to-layer="6960" to-port="0" />
		<edge from-layer="6960" from-port="1" to-layer="6961" to-port="1" />
		<edge from-layer="6961" from-port="2" to-layer="6966" to-port="0" />
		<edge from-layer="6961" from-port="2" to-layer="6971" to-port="0" />
		<edge from-layer="6961" from-port="2" to-layer="6997" to-port="0" />
		<edge from-layer="6962" from-port="0" to-layer="6966" to-port="1" />
		<edge from-layer="6963" from-port="0" to-layer="6966" to-port="2" />
		<edge from-layer="6964" from-port="0" to-layer="6966" to-port="3" />
		<edge from-layer="6965" from-port="0" to-layer="6966" to-port="4" />
		<edge from-layer="6966" from-port="5" to-layer="6991" to-port="0" />
		<edge from-layer="6967" from-port="0" to-layer="6971" to-port="1" />
		<edge from-layer="6968" from-port="0" to-layer="6971" to-port="2" />
		<edge from-layer="6969" from-port="0" to-layer="6971" to-port="3" />
		<edge from-layer="6970" from-port="0" to-layer="6971" to-port="4" />
		<edge from-layer="6971" from-port="5" to-layer="6983" to-port="0" />
		<edge from-layer="6972" from-port="0" to-layer="6973" to-port="1" />
		<edge from-layer="6973" from-port="2" to-layer="6974" to-port="0" />
		<edge from-layer="6973" from-port="2" to-layer="7005" to-port="0" />
		<edge from-layer="6974" from-port="2" to-layer="6977" to-port="0" />
		<edge from-layer="6975" from-port="0" to-layer="6976" to-port="0" />
		<edge from-layer="6976" from-port="1" to-layer="6977" to-port="1" />
		<edge from-layer="6977" from-port="2" to-layer="6982" to-port="0" />
		<edge from-layer="6977" from-port="2" to-layer="6989" to-port="0" />
		<edge from-layer="6977" from-port="2" to-layer="7002" to-port="0" />
		<edge from-layer="6978" from-port="0" to-layer="6982" to-port="1" />
		<edge from-layer="6979" from-port="0" to-layer="6982" to-port="2" />
		<edge from-layer="6980" from-port="0" to-layer="6982" to-port="3" />
		<edge from-layer="6981" from-port="0" to-layer="6982" to-port="4" />
		<edge from-layer="6982" from-port="5" to-layer="6983" to-port="1" />
		<edge from-layer="6983" from-port="2" to-layer="6984" to-port="0" />
		<edge from-layer="6984" from-port="1" to-layer="6990" to-port="0" />
		<edge from-layer="6985" from-port="0" to-layer="6989" to-port="1" />
		<edge from-layer="6986" from-port="0" to-layer="6989" to-port="2" />
		<edge from-layer="6987" from-port="0" to-layer="6989" to-port="3" />
		<edge from-layer="6988" from-port="0" to-layer="6989" to-port="4" />
		<edge from-layer="6989" from-port="5" to-layer="6990" to-port="1" />
		<edge from-layer="6990" from-port="2" to-layer="6991" to-port="1" />
		<edge from-layer="6991" from-port="2" to-layer="6992" to-port="0" />
		<edge from-layer="6992" from-port="1" to-layer="7005" to-port="1" />
		<edge from-layer="6992" from-port="1" to-layer="7007" to-port="0" />
		<edge from-layer="6993" from-port="0" to-layer="6997" to-port="1" />
		<edge from-layer="6994" from-port="0" to-layer="6997" to-port="2" />
		<edge from-layer="6995" from-port="0" to-layer="6997" to-port="3" />
		<edge from-layer="6996" from-port="0" to-layer="6997" to-port="4" />
		<edge from-layer="6997" from-port="5" to-layer="7003" to-port="0" />
		<edge from-layer="6998" from-port="0" to-layer="7002" to-port="1" />
		<edge from-layer="6999" from-port="0" to-layer="7002" to-port="2" />
		<edge from-layer="7000" from-port="0" to-layer="7002" to-port="3" />
		<edge from-layer="7001" from-port="0" to-layer="7002" to-port="4" />
		<edge from-layer="7002" from-port="5" to-layer="7003" to-port="1" />
		<edge from-layer="7003" from-port="2" to-layer="7004" to-port="0" />
		<edge from-layer="7004" from-port="1" to-layer="7006" to-port="0" />
		<edge from-layer="7005" from-port="2" to-layer="7006" to-port="1" />
		<edge from-layer="7006" from-port="2" to-layer="7007" to-port="1" />
		<edge from-layer="7007" from-port="2" to-layer="7009" to-port="0" />
		<edge from-layer="7008" from-port="0" to-layer="7009" to-port="1" />
		<edge from-layer="7009" from-port="2" to-layer="7014" to-port="0" />
		<edge from-layer="7010" from-port="2" to-layer="7013" to-port="0" />
		<edge from-layer="7011" from-port="0" to-layer="7012" to-port="0" />
		<edge from-layer="7012" from-port="1" to-layer="7013" to-port="1" />
		<edge from-layer="7013" from-port="2" to-layer="7014" to-port="1" />
		<edge from-layer="7014" from-port="2" to-layer="7016" to-port="0" />
		<edge from-layer="7015" from-port="0" to-layer="7016" to-port="1" />
		<edge from-layer="7016" from-port="2" to-layer="7019" to-port="0" />
		<edge from-layer="7017" from-port="0" to-layer="7018" to-port="0" />
		<edge from-layer="7018" from-port="1" to-layer="7019" to-port="1" />
		<edge from-layer="7019" from-port="2" to-layer="7021" to-port="0" />
		<edge from-layer="7020" from-port="0" to-layer="7021" to-port="1" />
		<edge from-layer="7021" from-port="2" to-layer="7022" to-port="0" />
		<edge from-layer="7022" from-port="2" to-layer="7023" to-port="17" />
		<edge from-layer="7023" from-port="18" to-layer="7026" to-port="0" />
		<edge from-layer="7023" from-port="18" to-layer="7037" to-port="0" />
		<edge from-layer="7024" from-port="0" to-layer="7025" to-port="0" />
		<edge from-layer="7025" from-port="1" to-layer="7026" to-port="1" />
		<edge from-layer="7026" from-port="2" to-layer="7029" to-port="0" />
		<edge from-layer="7027" from-port="0" to-layer="7028" to-port="0" />
		<edge from-layer="7028" from-port="1" to-layer="7029" to-port="1" />
		<edge from-layer="7029" from-port="2" to-layer="7030" to-port="0" />
		<edge from-layer="7030" from-port="1" to-layer="7033" to-port="0" />
		<edge from-layer="7031" from-port="0" to-layer="7032" to-port="0" />
		<edge from-layer="7032" from-port="1" to-layer="7033" to-port="1" />
		<edge from-layer="7033" from-port="2" to-layer="7036" to-port="0" />
		<edge from-layer="7034" from-port="0" to-layer="7035" to-port="0" />
		<edge from-layer="7035" from-port="1" to-layer="7036" to-port="1" />
		<edge from-layer="7036" from-port="2" to-layer="7037" to-port="1" />
		<edge from-layer="7037" from-port="2" to-layer="7039" to-port="0" />
		<edge from-layer="7038" from-port="0" to-layer="7039" to-port="1" />
		<edge from-layer="7039" from-port="2" to-layer="7041" to-port="0" />
		<edge from-layer="7040" from-port="0" to-layer="7041" to-port="1" />
		<edge from-layer="7041" from-port="2" to-layer="7044" to-port="0" />
		<edge from-layer="7042" from-port="0" to-layer="7043" to-port="0" />
		<edge from-layer="7043" from-port="1" to-layer="7044" to-port="1" />
		<edge from-layer="7044" from-port="2" to-layer="7047" to-port="0" />
		<edge from-layer="7044" from-port="2" to-layer="7058" to-port="0" />
		<edge from-layer="7044" from-port="2" to-layer="7149" to-port="0" />
		<edge from-layer="7045" from-port="0" to-layer="7046" to-port="0" />
		<edge from-layer="7046" from-port="1" to-layer="7047" to-port="1" />
		<edge from-layer="7047" from-port="2" to-layer="7050" to-port="0" />
		<edge from-layer="7048" from-port="0" to-layer="7049" to-port="0" />
		<edge from-layer="7049" from-port="1" to-layer="7050" to-port="1" />
		<edge from-layer="7050" from-port="2" to-layer="7051" to-port="0" />
		<edge from-layer="7051" from-port="1" to-layer="7054" to-port="0" />
		<edge from-layer="7052" from-port="0" to-layer="7053" to-port="0" />
		<edge from-layer="7053" from-port="1" to-layer="7054" to-port="1" />
		<edge from-layer="7054" from-port="2" to-layer="7057" to-port="0" />
		<edge from-layer="7055" from-port="0" to-layer="7056" to-port="0" />
		<edge from-layer="7056" from-port="1" to-layer="7057" to-port="1" />
		<edge from-layer="7057" from-port="2" to-layer="7058" to-port="1" />
		<edge from-layer="7058" from-port="2" to-layer="7060" to-port="0" />
		<edge from-layer="7059" from-port="0" to-layer="7060" to-port="1" />
		<edge from-layer="7060" from-port="2" to-layer="7062" to-port="0" />
		<edge from-layer="7061" from-port="0" to-layer="7062" to-port="1" />
		<edge from-layer="7062" from-port="2" to-layer="7064" to-port="0" />
		<edge from-layer="7063" from-port="0" to-layer="7064" to-port="1" />
		<edge from-layer="7064" from-port="2" to-layer="7067" to-port="0" />
		<edge from-layer="7064" from-port="2" to-layer="7077" to-port="0" />
		<edge from-layer="7064" from-port="2" to-layer="7088" to-port="0" />
		<edge from-layer="7064" from-port="2" to-layer="7173" to-port="0" />
		<edge from-layer="7064" from-port="2" to-layer="7187" to-port="0" />
		<edge from-layer="7065" from-port="0" to-layer="7066" to-port="0" />
		<edge from-layer="7066" from-port="1" to-layer="7067" to-port="1" />
		<edge from-layer="7067" from-port="2" to-layer="7070" to-port="0" />
		<edge from-layer="7068" from-port="0" to-layer="7069" to-port="0" />
		<edge from-layer="7069" from-port="1" to-layer="7070" to-port="1" />
		<edge from-layer="7070" from-port="2" to-layer="7071" to-port="0" />
		<edge from-layer="7070" from-port="2" to-layer="7074" to-port="0" />
		<edge from-layer="7071" from-port="2" to-layer="7073" to-port="0" />
		<edge from-layer="7072" from-port="0" to-layer="7073" to-port="1" />
		<edge from-layer="7073" from-port="2" to-layer="7074" to-port="1" />
		<edge from-layer="7074" from-port="2" to-layer="7198" to-port="0" />
		<edge from-layer="7075" from-port="0" to-layer="7076" to-port="0" />
		<edge from-layer="7076" from-port="1" to-layer="7077" to-port="1" />
		<edge from-layer="7077" from-port="2" to-layer="7079" to-port="0" />
		<edge from-layer="7078" from-port="0" to-layer="7079" to-port="1" />
		<edge from-layer="7079" from-port="2" to-layer="7080" to-port="0" />
		<edge from-layer="7080" from-port="1" to-layer="7081" to-port="0" />
		<edge from-layer="7080" from-port="1" to-layer="7086" to-port="0" />
		<edge from-layer="7081" from-port="3" to-layer="7197" to-port="0" />
		<edge from-layer="7082" from-port="0" to-layer="7086" to-port="1" />
		<edge from-layer="7083" from-port="0" to-layer="7086" to-port="2" />
		<edge from-layer="7084" from-port="0" to-layer="7086" to-port="3" />
		<edge from-layer="7085" from-port="0" to-layer="7086" to-port="4" />
		<edge from-layer="7086" from-port="5" to-layer="7196" to-port="0" />
		<edge from-layer="7087" from-port="0" to-layer="7088" to-port="1" />
		<edge from-layer="7088" from-port="2" to-layer="7090" to-port="0" />
		<edge from-layer="7089" from-port="0" to-layer="7090" to-port="1" />
		<edge from-layer="7090" from-port="2" to-layer="7091" to-port="0" />
		<edge from-layer="7091" from-port="1" to-layer="7092" to-port="0" />
		<edge from-layer="7091" from-port="1" to-layer="7097" to-port="0" />
		<edge from-layer="7092" from-port="3" to-layer="7195" to-port="0" />
		<edge from-layer="7093" from-port="0" to-layer="7097" to-port="1" />
		<edge from-layer="7094" from-port="0" to-layer="7097" to-port="2" />
		<edge from-layer="7095" from-port="0" to-layer="7097" to-port="3" />
		<edge from-layer="7096" from-port="0" to-layer="7097" to-port="4" />
		<edge from-layer="7097" from-port="5" to-layer="7194" to-port="0" />
		<edge from-layer="7098" from-port="0" to-layer="7099" to-port="1" />
		<edge from-layer="7098" from-port="0" to-layer="7100" to-port="1" />
		<edge from-layer="7098" from-port="0" to-layer="7101" to-port="1" />
		<edge from-layer="7098" from-port="0" to-layer="7102" to-port="1" />
		<edge from-layer="7098" from-port="0" to-layer="7103" to-port="1" />
		<edge from-layer="7098" from-port="0" to-layer="7104" to-port="1" />
		<edge from-layer="7098" from-port="0" to-layer="7105" to-port="1" />
		<edge from-layer="7098" from-port="0" to-layer="7106" to-port="1" />
		<edge from-layer="7098" from-port="0" to-layer="7107" to-port="1" />
		<edge from-layer="7098" from-port="0" to-layer="7108" to-port="1" />
		<edge from-layer="7098" from-port="0" to-layer="7109" to-port="1" />
		<edge from-layer="7098" from-port="0" to-layer="7110" to-port="1" />
		<edge from-layer="7098" from-port="0" to-layer="7111" to-port="1" />
		<edge from-layer="7098" from-port="0" to-layer="7112" to-port="1" />
		<edge from-layer="7098" from-port="0" to-layer="7113" to-port="1" />
		<edge from-layer="7098" from-port="0" to-layer="7114" to-port="1" />
		<edge from-layer="7098" from-port="0" to-layer="7115" to-port="1" />
		<edge from-layer="7099" from-port="2" to-layer="7116" to-port="0" />
		<edge from-layer="7100" from-port="2" to-layer="7116" to-port="1" />
		<edge from-layer="7101" from-port="2" to-layer="7116" to-port="2" />
		<edge from-layer="7102" from-port="2" to-layer="7116" to-port="3" />
		<edge from-layer="7103" from-port="2" to-layer="7116" to-port="4" />
		<edge from-layer="7104" from-port="2" to-layer="7116" to-port="5" />
		<edge from-layer="7105" from-port="2" to-layer="7116" to-port="6" />
		<edge from-layer="7106" from-port="2" to-layer="7116" to-port="7" />
		<edge from-layer="7107" from-port="2" to-layer="7116" to-port="8" />
		<edge from-layer="7108" from-port="2" to-layer="7116" to-port="9" />
		<edge from-layer="7109" from-port="2" to-layer="7116" to-port="10" />
		<edge from-layer="7110" from-port="2" to-layer="7116" to-port="11" />
		<edge from-layer="7111" from-port="2" to-layer="7116" to-port="12" />
		<edge from-layer="7112" from-port="2" to-layer="7116" to-port="13" />
		<edge from-layer="7113" from-port="2" to-layer="7116" to-port="14" />
		<edge from-layer="7114" from-port="2" to-layer="7116" to-port="15" />
		<edge from-layer="7115" from-port="2" to-layer="7116" to-port="16" />
		<edge from-layer="7116" from-port="17" to-layer="7193" to-port="0" />
		<edge from-layer="7117" from-port="0" to-layer="7118" to-port="1" />
		<edge from-layer="7117" from-port="0" to-layer="7119" to-port="1" />
		<edge from-layer="7117" from-port="0" to-layer="7120" to-port="1" />
		<edge from-layer="7117" from-port="0" to-layer="7121" to-port="1" />
		<edge from-layer="7117" from-port="0" to-layer="7122" to-port="1" />
		<edge from-layer="7117" from-port="0" to-layer="7123" to-port="1" />
		<edge from-layer="7117" from-port="0" to-layer="7124" to-port="1" />
		<edge from-layer="7117" from-port="0" to-layer="7125" to-port="1" />
		<edge from-layer="7117" from-port="0" to-layer="7126" to-port="1" />
		<edge from-layer="7117" from-port="0" to-layer="7127" to-port="1" />
		<edge from-layer="7117" from-port="0" to-layer="7128" to-port="1" />
		<edge from-layer="7117" from-port="0" to-layer="7129" to-port="1" />
		<edge from-layer="7117" from-port="0" to-layer="7130" to-port="1" />
		<edge from-layer="7117" from-port="0" to-layer="7131" to-port="1" />
		<edge from-layer="7117" from-port="0" to-layer="7132" to-port="1" />
		<edge from-layer="7117" from-port="0" to-layer="7133" to-port="1" />
		<edge from-layer="7117" from-port="0" to-layer="7134" to-port="1" />
		<edge from-layer="7117" from-port="0" to-layer="7135" to-port="1" />
		<edge from-layer="7118" from-port="2" to-layer="7136" to-port="0" />
		<edge from-layer="7119" from-port="2" to-layer="7136" to-port="1" />
		<edge from-layer="7120" from-port="2" to-layer="7136" to-port="2" />
		<edge from-layer="7121" from-port="2" to-layer="7136" to-port="3" />
		<edge from-layer="7122" from-port="2" to-layer="7136" to-port="4" />
		<edge from-layer="7123" from-port="2" to-layer="7136" to-port="5" />
		<edge from-layer="7124" from-port="2" to-layer="7136" to-port="6" />
		<edge from-layer="7125" from-port="2" to-layer="7136" to-port="7" />
		<edge from-layer="7126" from-port="2" to-layer="7136" to-port="8" />
		<edge from-layer="7127" from-port="2" to-layer="7136" to-port="9" />
		<edge from-layer="7128" from-port="2" to-layer="7136" to-port="10" />
		<edge from-layer="7129" from-port="2" to-layer="7136" to-port="11" />
		<edge from-layer="7130" from-port="2" to-layer="7136" to-port="12" />
		<edge from-layer="7131" from-port="2" to-layer="7136" to-port="13" />
		<edge from-layer="7132" from-port="2" to-layer="7136" to-port="14" />
		<edge from-layer="7133" from-port="2" to-layer="7136" to-port="15" />
		<edge from-layer="7134" from-port="2" to-layer="7136" to-port="16" />
		<edge from-layer="7135" from-port="2" to-layer="7136" to-port="17" />
		<edge from-layer="7136" from-port="18" to-layer="7137" to-port="0" />
		<edge from-layer="7137" from-port="1" to-layer="7138" to-port="0" />
		<edge from-layer="7137" from-port="1" to-layer="7141" to-port="0" />
		<edge from-layer="7138" from-port="1" to-layer="7146" to-port="0" />
		<edge from-layer="7139" from-port="0" to-layer="7140" to-port="0" />
		<edge from-layer="7140" from-port="1" to-layer="7141" to-port="1" />
		<edge from-layer="7141" from-port="2" to-layer="7144" to-port="0" />
		<edge from-layer="7142" from-port="0" to-layer="7143" to-port="0" />
		<edge from-layer="7143" from-port="1" to-layer="7144" to-port="1" />
		<edge from-layer="7144" from-port="2" to-layer="7145" to-port="0" />
		<edge from-layer="7145" from-port="1" to-layer="7146" to-port="1" />
		<edge from-layer="7146" from-port="2" to-layer="7159" to-port="0" />
		<edge from-layer="7147" from-port="0" to-layer="7148" to-port="0" />
		<edge from-layer="7148" from-port="1" to-layer="7149" to-port="1" />
		<edge from-layer="7149" from-port="2" to-layer="7152" to-port="0" />
		<edge from-layer="7150" from-port="0" to-layer="7151" to-port="0" />
		<edge from-layer="7151" from-port="1" to-layer="7152" to-port="1" />
		<edge from-layer="7152" from-port="2" to-layer="7153" to-port="0" />
		<edge from-layer="7153" from-port="1" to-layer="7156" to-port="0" />
		<edge from-layer="7154" from-port="0" to-layer="7155" to-port="0" />
		<edge from-layer="7155" from-port="1" to-layer="7156" to-port="1" />
		<edge from-layer="7156" from-port="2" to-layer="7158" to-port="0" />
		<edge from-layer="7157" from-port="0" to-layer="7158" to-port="1" />
		<edge from-layer="7158" from-port="2" to-layer="7159" to-port="1" />
		<edge from-layer="7159" from-port="2" to-layer="7160" to-port="0" />
		<edge from-layer="7160" from-port="1" to-layer="7161" to-port="0" />
		<edge from-layer="7161" from-port="1" to-layer="7162" to-port="0" />
		<edge from-layer="7161" from-port="1" to-layer="7165" to-port="0" />
		<edge from-layer="7162" from-port="1" to-layer="7170" to-port="0" />
		<edge from-layer="7163" from-port="0" to-layer="7164" to-port="0" />
		<edge from-layer="7164" from-port="1" to-layer="7165" to-port="1" />
		<edge from-layer="7165" from-port="2" to-layer="7168" to-port="0" />
		<edge from-layer="7166" from-port="0" to-layer="7167" to-port="0" />
		<edge from-layer="7167" from-port="1" to-layer="7168" to-port="1" />
		<edge from-layer="7168" from-port="2" to-layer="7169" to-port="0" />
		<edge from-layer="7169" from-port="1" to-layer="7170" to-port="1" />
		<edge from-layer="7170" from-port="2" to-layer="7183" to-port="0" />
		<edge from-layer="7171" from-port="0" to-layer="7172" to-port="0" />
		<edge from-layer="7172" from-port="1" to-layer="7173" to-port="1" />
		<edge from-layer="7173" from-port="2" to-layer="7175" to-port="0" />
		<edge from-layer="7174" from-port="0" to-layer="7175" to-port="1" />
		<edge from-layer="7175" from-port="2" to-layer="7176" to-port="0" />
		<edge from-layer="7176" from-port="1" to-layer="7179" to-port="0" />
		<edge from-layer="7177" from-port="0" to-layer="7178" to-port="0" />
		<edge from-layer="7178" from-port="1" to-layer="7179" to-port="1" />
		<edge from-layer="7179" from-port="2" to-layer="7182" to-port="0" />
		<edge from-layer="7180" from-port="0" to-layer="7181" to-port="0" />
		<edge from-layer="7181" from-port="1" to-layer="7182" to-port="1" />
		<edge from-layer="7182" from-port="2" to-layer="7183" to-port="1" />
		<edge from-layer="7183" from-port="2" to-layer="7184" to-port="0" />
		<edge from-layer="7184" from-port="1" to-layer="7192" to-port="0" />
		<edge from-layer="7185" from-port="0" to-layer="7186" to-port="0" />
		<edge from-layer="7186" from-port="1" to-layer="7187" to-port="1" />
		<edge from-layer="7187" from-port="2" to-layer="7190" to-port="0" />
		<edge from-layer="7188" from-port="0" to-layer="7189" to-port="0" />
		<edge from-layer="7189" from-port="1" to-layer="7190" to-port="1" />
		<edge from-layer="7190" from-port="2" to-layer="7191" to-port="0" />
	</edges>
	<rt_info>
		<info name="OpenVINO Runtime" value="2026.2.0-21903-52ddc073857-releases/2026/2" />
		<Runtime_version value="2026.2.0-21903-52ddc073857-releases/2026/2" />
		<conversion_parameters>
			<framework value="pytorch" />
			<is_python_object value="True" />
		</conversion_parameters>
	</rt_info>
</net>
