<?xml version="1.0"?>
<net name="Model0" version="11">
	<layers>
		<layer id="0" name="frames" type="Parameter" version="opset1">
			<data shape="?,?,?,?,?" element_type="f32" />
			<output>
				<port id="0" precision="FP32" names="frames">
					<dim>-1</dim>
					<dim>-1</dim>
					<dim>-1</dim>
					<dim>-1</dim>
					<dim>-1</dim>
				</port>
			</output>
		</layer>
		<layer id="1" name="__module.model/aten::flatten/Constant_2" type="Const" version="opset1">
			<data element_type="i32" shape="1" offset="0" size="4" />
			<rt_info>
				<attribute name="precise" version="0" />
			</rt_info>
			<output>
				<port id="0" precision="I32">
					<dim>1</dim>
				</port>
			</output>
		</layer>
		<layer id="2" name="__module.model/aten::flatten/ShapeOf" type="ShapeOf" version="opset3">
			<data output_type="i32" />
			<input>
				<port id="0" precision="FP32">
					<dim>-1</dim>
					<dim>-1</dim>
					<dim>-1</dim>
					<dim>-1</dim>
					<dim>-1</dim>
				</port>
			</input>
			<output>
				<port id="1" precision="I32">
					<dim>5</dim>
				</port>
			</output>
		</layer>
		<layer id="3" name="Add_110" type="Const" version="opset1">
			<data element_type="i32" shape="1" offset="4" size="4" />
			<rt_info>
				<attribute name="precise" version="0" />
			</rt_info>
			<output>
				<port id="0" precision="I32">
					<dim>1</dim>
				</port>
			</output>
		</layer>
		<layer id="4" name="__module.model/aten::flatten/Constant_3" type="Const" version="opset1">
			<data element_type="i32" shape="1" offset="8" size="4" />
			<rt_info>
				<attribute name="precise" version="0" />
			</rt_info>
			<output>
				<port id="0" precision="I32">
					<dim>1</dim>
				</port>
			</output>
		</layer>
		<layer id="5" name="__module.model/aten::flatten/Constant_1" type="Const" version="opset1">
			<data element_type="i32" shape="1" offset="12" size="4" />
			<rt_info>
				<attribute name="precise" version="0" />
			</rt_info>
			<output>
				<port id="0" precision="I32">
					<dim>1</dim>
				</port>
			</output>
		</layer>
		<layer id="6" name="Constant_112" type="Const" version="opset1">
			<data element_type="i64" shape="1" offset="16" size="8" />
			<rt_info>
				<attribute name="precise" version="0" />
			</rt_info>
			<output>
				<port id="0" precision="I64">
					<dim>1</dim>
				</port>
			</output>
		</layer>
		<layer id="7" name="__module.model/aten::flatten/Slice_1" type="Slice" version="opset8">
			<input>
				<port id="0" precision="I32">
					<dim>5</dim>
				</port>
				<port id="1" precision="I32">
					<dim>1</dim>
				</port>
				<port id="2" precision="I32">
					<dim>1</dim>
				</port>
				<port id="3" precision="I32">
					<dim>1</dim>
				</port>
				<port id="4" precision="I64">
					<dim>1</dim>
				</port>
			</input>
			<output>
				<port id="5" precision="I32">
					<dim>3</dim>
				</port>
			</output>
		</layer>
		<layer id="8" name="__module.model/aten::flatten/Concat" type="Concat" version="opset1">
			<data axis="0" />
			<input>
				<port id="0" precision="I32">
					<dim>1</dim>
				</port>
				<port id="1" precision="I32">
					<dim>3</dim>
				</port>
			</input>
			<output>
				<port id="2" precision="I32">
					<dim>4</dim>
				</port>
			</output>
		</layer>
		<layer id="9" name="__module.model/aten::flatten/Reshape" type="Reshape" version="opset1">
			<data special_zero="true" />
			<input>
				<port id="0" precision="FP32">
					<dim>-1</dim>
					<dim>-1</dim>
					<dim>-1</dim>
					<dim>-1</dim>
					<dim>-1</dim>
				</port>
				<port id="1" precision="I32">
					<dim>4</dim>
				</port>
			</input>
			<output>
				<port id="2" precision="FP32" names="86,input.1">
					<dim>-1</dim>
					<dim>-1</dim>
					<dim>-1</dim>
					<dim>-1</dim>
				</port>
			</output>
		</layer>
		<layer id="10" name="__module.model/aten::upsample_bilinear2d/Multiply" type="Const" version="opset1">
			<data element_type="i32" shape="2" offset="24" size="8" />
			<rt_info>
				<attribute name="precise" version="0" />
			</rt_info>
			<output>
				<port id="0" precision="I32">
					<dim>2</dim>
				</port>
			</output>
		</layer>
		<layer id="11" name="Constant_118" type="Const" version="opset1">
			<data element_type="i32" shape="2" offset="32" size="8" />
			<output>
				<port id="0" precision="I32">
					<dim>2</dim>
				</port>
			</output>
		</layer>
		<layer id="12" name="__module.model/aten::upsample_bilinear2d/Interpolate" type="Interpolate" version="opset11">
			<data mode="linear_onnx" shape_calculation_mode="sizes" coordinate_transformation_mode="pytorch_half_pixel" nearest_mode="floor" antialias="false" pads_begin="0, 0, 0, 0" pads_end="0, 0, 0, 0" cube_coeff="-0.75" />
			<input>
				<port id="0" precision="FP32">
					<dim>-1</dim>
					<dim>-1</dim>
					<dim>-1</dim>
					<dim>-1</dim>
				</port>
				<port id="1" precision="I32">
					<dim>2</dim>
				</port>
				<port id="2" precision="I32">
					<dim>2</dim>
				</port>
			</input>
			<output>
				<port id="3" precision="FP32" names="88,input.3">
					<dim>-1</dim>
					<dim>-1</dim>
					<dim>288</dim>
					<dim>512</dim>
				</port>
			</output>
		</layer>
		<layer id="13" name="Convert_50370" type="Convert" version="opset1">
			<data destination_type="i64" />
			<input>
				<port id="0" precision="I32">
					<dim>5</dim>
				</port>
			</input>
			<output>
				<port id="1" precision="I64">
					<dim>5</dim>
				</port>
			</output>
		</layer>
		<layer id="14" name="Constant_42111" type="Const" version="opset1">
			<data element_type="i64" shape="2" offset="40" size="16" />
			<rt_info>
				<attribute name="precise" version="0" />
			</rt_info>
			<output>
				<port id="0" precision="I64">
					<dim>2</dim>
				</port>
			</output>
		</layer>
		<layer id="15" name="Constant_42112" type="Const" version="opset1">
			<data element_type="i64" shape="" offset="16" size="8" />
			<rt_info>
				<attribute name="precise" version="0" />
			</rt_info>
			<output>
				<port id="0" precision="I64" />
			</output>
		</layer>
		<layer id="16" name="Gather_42113" type="Gather" version="opset8">
			<data batch_dims="0" />
			<input>
				<port id="0" precision="I64">
					<dim>5</dim>
				</port>
				<port id="1" precision="I64">
					<dim>2</dim>
				</port>
				<port id="2" precision="I64" />
			</input>
			<output>
				<port id="3" precision="I64">
					<dim>2</dim>
				</port>
			</output>
		</layer>
		<layer id="17" name="Constant_20241" type="Const" version="opset1">
			<data element_type="i64" shape="1" offset="56" size="8" />
			<rt_info>
				<attribute name="precise" version="0" />
			</rt_info>
			<output>
				<port id="0" precision="I64">
					<dim>1</dim>
				</port>
			</output>
		</layer>
		<layer id="18" name="Constant_20242" type="Const" version="opset1">
			<data element_type="i64" shape="1" offset="64" size="8" />
			<rt_info>
				<attribute name="precise" version="0" />
			</rt_info>
			<output>
				<port id="0" precision="I64">
					<dim>1</dim>
				</port>
			</output>
		</layer>
		<layer id="19" name="Constant_20243" type="Const" version="opset1">
			<data element_type="i64" shape="1" offset="72" size="8" />
			<rt_info>
				<attribute name="precise" version="0" />
			</rt_info>
			<output>
				<port id="0" precision="I64">
					<dim>1</dim>
				</port>
			</output>
		</layer>
		<layer id="20" name="__module.model/prim::ListConstruct/SequenceMark" type="Concat" version="opset1">
			<data axis="0" />
			<input>
				<port id="0" precision="I64">
					<dim>2</dim>
				</port>
				<port id="1" precision="I64">
					<dim>1</dim>
				</port>
				<port id="2" precision="I64">
					<dim>1</dim>
				</port>
				<port id="3" precision="I64">
					<dim>1</dim>
				</port>
			</input>
			<output>
				<port id="4" precision="I64">
					<dim>5</dim>
				</port>
			</output>
		</layer>
		<layer id="21" name="__module.model/aten::view/Reshape" type="Reshape" version="opset1">
			<data special_zero="false" />
			<input>
				<port id="0" precision="FP32">
					<dim>-1</dim>
					<dim>-1</dim>
					<dim>288</dim>
					<dim>512</dim>
				</port>
				<port id="1" precision="I64">
					<dim>5</dim>
				</port>
			</input>
			<output>
				<port id="2" precision="FP32" names="3945,3948,3949,frames_1">
					<dim>-1</dim>
					<dim>-1</dim>
					<dim>3</dim>
					<dim>288</dim>
					<dim>512</dim>
				</port>
			</output>
		</layer>
		<layer id="22" name="Constant_20272" type="Const" version="opset1">
			<data element_type="i64" shape="1" offset="16" size="8" />
			<output>
				<port id="0" precision="I64">
					<dim>1</dim>
				</port>
			</output>
		</layer>
		<layer id="23" name="Constant_20274" type="Const" version="opset1">
			<data element_type="i64" shape="1" offset="56" size="8" />
			<output>
				<port id="0" precision="I64">
					<dim>1</dim>
				</port>
			</output>
		</layer>
		<layer id="24" name="Constant_20276" type="Const" version="opset1">
			<data element_type="i64" shape="1" offset="80" size="8" />
			<output>
				<port id="0" precision="I64">
					<dim>1</dim>
				</port>
			</output>
		</layer>
		<layer id="25" name="Constant_20270" type="Const" version="opset1">
			<data element_type="i64" shape="1" offset="88" size="8" />
			<output>
				<port id="0" precision="I64">
					<dim>1</dim>
				</port>
			</output>
		</layer>
		<layer id="26" name="__module.model.ball_grid/aten::slice/Slice_2" type="Slice" version="opset8">
			<input>
				<port id="0" precision="FP32">
					<dim>-1</dim>
					<dim>-1</dim>
					<dim>3</dim>
					<dim>288</dim>
					<dim>512</dim>
				</port>
				<port id="1" precision="I64">
					<dim>1</dim>
				</port>
				<port id="2" precision="I64">
					<dim>1</dim>
				</port>
				<port id="3" precision="I64">
					<dim>1</dim>
				</port>
				<port id="4" precision="I64">
					<dim>1</dim>
				</port>
			</input>
			<output>
				<port id="5" precision="FP32" names="3950,rgb">
					<dim>-1</dim>
					<dim>-1</dim>
					<dim>3</dim>
					<dim>288</dim>
					<dim>512</dim>
				</port>
			</output>
		</layer>
		<layer id="27" name="__module.model.ball_grid/aten::unsqueeze/Unsqueeze_3" type="Const" version="opset1">
			<data element_type="f32" shape="1, 1, 3, 1, 1" offset="96" size="12" />
			<output>
				<port id="0" precision="FP32" names="3957,weights">
					<dim>1</dim>
					<dim>1</dim>
					<dim>3</dim>
					<dim>1</dim>
					<dim>1</dim>
				</port>
			</output>
		</layer>
		<layer id="28" name="__module.model.ball_grid/aten::mul/Multiply" type="Multiply" version="opset1">
			<data auto_broadcast="numpy" />
			<input>
				<port id="0" precision="FP32">
					<dim>-1</dim>
					<dim>-1</dim>
					<dim>3</dim>
					<dim>288</dim>
					<dim>512</dim>
				</port>
				<port id="1" precision="FP32">
					<dim>1</dim>
					<dim>1</dim>
					<dim>3</dim>
					<dim>1</dim>
					<dim>1</dim>
				</port>
			</input>
			<output>
				<port id="2" precision="FP32" names="3958">
					<dim>-1</dim>
					<dim>-1</dim>
					<dim>3</dim>
					<dim>288</dim>
					<dim>512</dim>
				</port>
			</output>
		</layer>
		<layer id="29" name="Constant_20302" type="Const" version="opset1">
			<data element_type="i64" shape="1" offset="88" size="8" />
			<output>
				<port id="0" precision="I64">
					<dim>1</dim>
				</port>
			</output>
		</layer>
		<layer id="30" name="__module.model.ball_grid/aten::sum/ReduceSum" type="ReduceSum" version="opset1">
			<data keep_dims="false" />
			<input>
				<port id="0" precision="FP32">
					<dim>-1</dim>
					<dim>-1</dim>
					<dim>3</dim>
					<dim>288</dim>
					<dim>512</dim>
				</port>
				<port id="1" precision="I64">
					<dim>1</dim>
				</port>
			</input>
			<output>
				<port id="2" precision="FP32" names="3960,input.263">
					<dim>-1</dim>
					<dim>-1</dim>
					<dim>288</dim>
					<dim>512</dim>
				</port>
			</output>
		</layer>
		<layer id="31" name="__module.model.ball_grid.features.0.block.0.depthwise/aten::_convolution/Reshape" type="Const" version="opset1">
			<data element_type="f32" shape="9, 1, 1, 3, 3" offset="108" size="324" />
			<output>
				<port id="0" precision="FP32">
					<dim>9</dim>
					<dim>1</dim>
					<dim>1</dim>
					<dim>3</dim>
					<dim>3</dim>
				</port>
			</output>
		</layer>
		<layer id="32" name="__module.model.ball_grid.features.0.block.0.depthwise/aten::_convolution/GroupConvolution" type="GroupConvolution" version="opset1">
			<data strides="1, 1" pads_begin="1, 1" pads_end="1, 1" dilations="1, 1" auto_pad="explicit" />
			<input>
				<port id="0" precision="FP32">
					<dim>-1</dim>
					<dim>-1</dim>
					<dim>288</dim>
					<dim>512</dim>
				</port>
				<port id="1" precision="FP32">
					<dim>9</dim>
					<dim>1</dim>
					<dim>1</dim>
					<dim>3</dim>
					<dim>3</dim>
				</port>
			</input>
			<output>
				<port id="2" precision="FP32" names="3983,input.265">
					<dim>-1</dim>
					<dim>9</dim>
					<dim>288</dim>
					<dim>512</dim>
				</port>
			</output>
		</layer>
		<layer id="33" name="Multiply_48476_compressed" type="Const" version="opset1">
			<data element_type="f16" shape="64, 9, 1, 1" offset="432" size="1152" />
			<output>
				<port id="0" precision="FP16">
					<dim>64</dim>
					<dim>9</dim>
					<dim>1</dim>
					<dim>1</dim>
				</port>
			</output>
		</layer>
		<layer id="34" name="Multiply_48476" type="Convert" version="opset1">
			<data destination_type="f32" />
			<rt_info>
				<attribute name="decompression" version="0" />
			</rt_info>
			<input>
				<port id="0" precision="FP16">
					<dim>64</dim>
					<dim>9</dim>
					<dim>1</dim>
					<dim>1</dim>
				</port>
			</input>
			<output>
				<port id="1" precision="FP32">
					<dim>64</dim>
					<dim>9</dim>
					<dim>1</dim>
					<dim>1</dim>
				</port>
			</output>
		</layer>
		<layer id="35" name="Multiply_48390" type="Convolution" version="opset1">
			<data strides="1, 1" dilations="1, 1" pads_begin="0, 0" pads_end="0, 0" auto_pad="explicit" />
			<input>
				<port id="0" precision="FP32">
					<dim>-1</dim>
					<dim>9</dim>
					<dim>288</dim>
					<dim>512</dim>
				</port>
				<port id="1" precision="FP32">
					<dim>64</dim>
					<dim>9</dim>
					<dim>1</dim>
					<dim>1</dim>
				</port>
			</input>
			<output>
				<port id="2" precision="FP32">
					<dim>-1</dim>
					<dim>64</dim>
					<dim>288</dim>
					<dim>512</dim>
				</port>
			</output>
		</layer>
		<layer id="36" name="Constant_48395" type="Const" version="opset1">
			<data element_type="f32" shape="1, 64, 1, 1" offset="1584" size="256" />
			<output>
				<port id="0" precision="FP32">
					<dim>1</dim>
					<dim>64</dim>
					<dim>1</dim>
					<dim>1</dim>
				</port>
			</output>
		</layer>
		<layer id="37" name="__module.model.ball_grid.features.0.block.1/aten::batch_norm/BatchNormInference" type="Add" version="opset1">
			<data auto_broadcast="numpy" />
			<input>
				<port id="0" precision="FP32">
					<dim>-1</dim>
					<dim>64</dim>
					<dim>288</dim>
					<dim>512</dim>
				</port>
				<port id="1" precision="FP32">
					<dim>1</dim>
					<dim>64</dim>
					<dim>1</dim>
					<dim>1</dim>
				</port>
			</input>
			<output>
				<port id="2" precision="FP32" names="3994_1">
					<dim>-1</dim>
					<dim>64</dim>
					<dim>288</dim>
					<dim>512</dim>
				</port>
			</output>
		</layer>
		<layer id="38" name="__module.model.ball_grid.features.0.block.2/aten::relu_/Relu" type="ReLU" version="opset1">
			<input>
				<port id="0" precision="FP32">
					<dim>-1</dim>
					<dim>64</dim>
					<dim>288</dim>
					<dim>512</dim>
				</port>
			</input>
			<output>
				<port id="1" precision="FP32" names="3994,input.269">
					<dim>-1</dim>
					<dim>64</dim>
					<dim>288</dim>
					<dim>512</dim>
				</port>
			</output>
		</layer>
		<layer id="39" name="__module.model.ball_grid.features.1.block.0.depthwise/aten::_convolution/Reshape_compressed" type="Const" version="opset1">
			<data element_type="f16" shape="64, 1, 1, 3, 3" offset="1840" size="1152" />
			<output>
				<port id="0" precision="FP16">
					<dim>64</dim>
					<dim>1</dim>
					<dim>1</dim>
					<dim>3</dim>
					<dim>3</dim>
				</port>
			</output>
		</layer>
		<layer id="40" name="__module.model.ball_grid.features.1.block.0.depthwise/aten::_convolution/Reshape" type="Convert" version="opset1">
			<data destination_type="f32" />
			<rt_info>
				<attribute name="decompression" version="0" />
			</rt_info>
			<input>
				<port id="0" precision="FP16">
					<dim>64</dim>
					<dim>1</dim>
					<dim>1</dim>
					<dim>3</dim>
					<dim>3</dim>
				</port>
			</input>
			<output>
				<port id="1" precision="FP32">
					<dim>64</dim>
					<dim>1</dim>
					<dim>1</dim>
					<dim>3</dim>
					<dim>3</dim>
				</port>
			</output>
		</layer>
		<layer id="41" name="__module.model.ball_grid.features.1.block.0.depthwise/aten::_convolution/GroupConvolution" type="GroupConvolution" version="opset1">
			<data strides="1, 1" pads_begin="1, 1" pads_end="1, 1" dilations="1, 1" auto_pad="explicit" />
			<input>
				<port id="0" precision="FP32">
					<dim>-1</dim>
					<dim>64</dim>
					<dim>288</dim>
					<dim>512</dim>
				</port>
				<port id="1" precision="FP32">
					<dim>64</dim>
					<dim>1</dim>
					<dim>1</dim>
					<dim>3</dim>
					<dim>3</dim>
				</port>
			</input>
			<output>
				<port id="2" precision="FP32" names="4006,input.273">
					<dim>-1</dim>
					<dim>64</dim>
					<dim>288</dim>
					<dim>512</dim>
				</port>
			</output>
		</layer>
		<layer id="42" name="Multiply_48480_compressed" type="Const" version="opset1">
			<data element_type="f16" shape="64, 64, 1, 1" offset="2992" size="8192" />
			<output>
				<port id="0" precision="FP16">
					<dim>64</dim>
					<dim>64</dim>
					<dim>1</dim>
					<dim>1</dim>
				</port>
			</output>
		</layer>
		<layer id="43" name="Multiply_48480" type="Convert" version="opset1">
			<data destination_type="f32" />
			<rt_info>
				<attribute name="decompression" version="0" />
			</rt_info>
			<input>
				<port id="0" precision="FP16">
					<dim>64</dim>
					<dim>64</dim>
					<dim>1</dim>
					<dim>1</dim>
				</port>
			</input>
			<output>
				<port id="1" precision="FP32">
					<dim>64</dim>
					<dim>64</dim>
					<dim>1</dim>
					<dim>1</dim>
				</port>
			</output>
		</layer>
		<layer id="44" name="Multiply_48397" type="Convolution" version="opset1">
			<data strides="1, 1" dilations="1, 1" pads_begin="0, 0" pads_end="0, 0" auto_pad="explicit" />
			<input>
				<port id="0" precision="FP32">
					<dim>-1</dim>
					<dim>64</dim>
					<dim>288</dim>
					<dim>512</dim>
				</port>
				<port id="1" precision="FP32">
					<dim>64</dim>
					<dim>64</dim>
					<dim>1</dim>
					<dim>1</dim>
				</port>
			</input>
			<output>
				<port id="2" precision="FP32">
					<dim>-1</dim>
					<dim>64</dim>
					<dim>288</dim>
					<dim>512</dim>
				</port>
			</output>
		</layer>
		<layer id="45" name="Constant_48402_compressed" type="Const" version="opset1">
			<data element_type="f16" shape="1, 64, 1, 1" offset="11184" size="128" />
			<output>
				<port id="0" precision="FP16">
					<dim>1</dim>
					<dim>64</dim>
					<dim>1</dim>
					<dim>1</dim>
				</port>
			</output>
		</layer>
		<layer id="46" name="Constant_48402" type="Convert" version="opset1">
			<data destination_type="f32" />
			<rt_info>
				<attribute name="decompression" version="0" />
			</rt_info>
			<input>
				<port id="0" precision="FP16">
					<dim>1</dim>
					<dim>64</dim>
					<dim>1</dim>
					<dim>1</dim>
				</port>
			</input>
			<output>
				<port id="1" precision="FP32">
					<dim>1</dim>
					<dim>64</dim>
					<dim>1</dim>
					<dim>1</dim>
				</port>
			</output>
		</layer>
		<layer id="47" name="__module.model.ball_grid.features.1.block.1/aten::batch_norm/BatchNormInference" type="Add" version="opset1">
			<data auto_broadcast="numpy" />
			<input>
				<port id="0" precision="FP32">
					<dim>-1</dim>
					<dim>64</dim>
					<dim>288</dim>
					<dim>512</dim>
				</port>
				<port id="1" precision="FP32">
					<dim>1</dim>
					<dim>64</dim>
					<dim>1</dim>
					<dim>1</dim>
				</port>
			</input>
			<output>
				<port id="2" precision="FP32" names="4017_1">
					<dim>-1</dim>
					<dim>64</dim>
					<dim>288</dim>
					<dim>512</dim>
				</port>
			</output>
		</layer>
		<layer id="48" name="__module.model.ball_grid.features.1.block.2/aten::relu_/Relu" type="ReLU" version="opset1">
			<input>
				<port id="0" precision="FP32">
					<dim>-1</dim>
					<dim>64</dim>
					<dim>288</dim>
					<dim>512</dim>
				</port>
			</input>
			<output>
				<port id="1" precision="FP32" names="4017,input.277">
					<dim>-1</dim>
					<dim>64</dim>
					<dim>288</dim>
					<dim>512</dim>
				</port>
			</output>
		</layer>
		<layer id="49" name="__module.model.ball_grid.features.2/aten::max_pool2d/MaxPool" type="MaxPool" version="opset14">
			<data strides="2, 2" dilations="1, 1" pads_begin="0, 0" pads_end="0, 0" kernel="2, 2" rounding_type="floor" auto_pad="explicit" index_element_type="i64" axis="2" />
			<input>
				<port id="0" precision="FP32">
					<dim>-1</dim>
					<dim>64</dim>
					<dim>288</dim>
					<dim>512</dim>
				</port>
			</input>
			<output>
				<port id="1" precision="FP32" names="4023,input.281">
					<dim>-1</dim>
					<dim>64</dim>
					<dim>144</dim>
					<dim>256</dim>
				</port>
				<port id="2" precision="I64">
					<dim>-1</dim>
					<dim>64</dim>
					<dim>144</dim>
					<dim>256</dim>
				</port>
			</output>
		</layer>
		<layer id="50" name="__module.model.ball_grid.features.3.block.0.depthwise/aten::_convolution/Reshape_compressed" type="Const" version="opset1">
			<data element_type="f16" shape="64, 1, 1, 3, 3" offset="11312" size="1152" />
			<output>
				<port id="0" precision="FP16">
					<dim>64</dim>
					<dim>1</dim>
					<dim>1</dim>
					<dim>3</dim>
					<dim>3</dim>
				</port>
			</output>
		</layer>
		<layer id="51" name="__module.model.ball_grid.features.3.block.0.depthwise/aten::_convolution/Reshape" type="Convert" version="opset1">
			<data destination_type="f32" />
			<rt_info>
				<attribute name="decompression" version="0" />
			</rt_info>
			<input>
				<port id="0" precision="FP16">
					<dim>64</dim>
					<dim>1</dim>
					<dim>1</dim>
					<dim>3</dim>
					<dim>3</dim>
				</port>
			</input>
			<output>
				<port id="1" precision="FP32">
					<dim>64</dim>
					<dim>1</dim>
					<dim>1</dim>
					<dim>3</dim>
					<dim>3</dim>
				</port>
			</output>
		</layer>
		<layer id="52" name="__module.model.ball_grid.features.3.block.0.depthwise/aten::_convolution/GroupConvolution" type="GroupConvolution" version="opset1">
			<data strides="1, 1" pads_begin="1, 1" pads_end="1, 1" dilations="1, 1" auto_pad="explicit" />
			<input>
				<port id="0" precision="FP32">
					<dim>-1</dim>
					<dim>64</dim>
					<dim>144</dim>
					<dim>256</dim>
				</port>
				<port id="1" precision="FP32">
					<dim>64</dim>
					<dim>1</dim>
					<dim>1</dim>
					<dim>3</dim>
					<dim>3</dim>
				</port>
			</input>
			<output>
				<port id="2" precision="FP32" names="4034,input.283">
					<dim>-1</dim>
					<dim>64</dim>
					<dim>144</dim>
					<dim>256</dim>
				</port>
			</output>
		</layer>
		<layer id="53" name="Multiply_48484_compressed" type="Const" version="opset1">
			<data element_type="f16" shape="128, 64, 1, 1" offset="12464" size="16384" />
			<output>
				<port id="0" precision="FP16">
					<dim>128</dim>
					<dim>64</dim>
					<dim>1</dim>
					<dim>1</dim>
				</port>
			</output>
		</layer>
		<layer id="54" name="Multiply_48484" type="Convert" version="opset1">
			<data destination_type="f32" />
			<rt_info>
				<attribute name="decompression" version="0" />
			</rt_info>
			<input>
				<port id="0" precision="FP16">
					<dim>128</dim>
					<dim>64</dim>
					<dim>1</dim>
					<dim>1</dim>
				</port>
			</input>
			<output>
				<port id="1" precision="FP32">
					<dim>128</dim>
					<dim>64</dim>
					<dim>1</dim>
					<dim>1</dim>
				</port>
			</output>
		</layer>
		<layer id="55" name="Multiply_48404" type="Convolution" version="opset1">
			<data strides="1, 1" dilations="1, 1" pads_begin="0, 0" pads_end="0, 0" auto_pad="explicit" />
			<input>
				<port id="0" precision="FP32">
					<dim>-1</dim>
					<dim>64</dim>
					<dim>144</dim>
					<dim>256</dim>
				</port>
				<port id="1" precision="FP32">
					<dim>128</dim>
					<dim>64</dim>
					<dim>1</dim>
					<dim>1</dim>
				</port>
			</input>
			<output>
				<port id="2" precision="FP32">
					<dim>-1</dim>
					<dim>128</dim>
					<dim>144</dim>
					<dim>256</dim>
				</port>
			</output>
		</layer>
		<layer id="56" name="Constant_48409_compressed" type="Const" version="opset1">
			<data element_type="f16" shape="1, 128, 1, 1" offset="28848" size="256" />
			<output>
				<port id="0" precision="FP16">
					<dim>1</dim>
					<dim>128</dim>
					<dim>1</dim>
					<dim>1</dim>
				</port>
			</output>
		</layer>
		<layer id="57" name="Constant_48409" type="Convert" version="opset1">
			<data destination_type="f32" />
			<rt_info>
				<attribute name="decompression" version="0" />
			</rt_info>
			<input>
				<port id="0" precision="FP16">
					<dim>1</dim>
					<dim>128</dim>
					<dim>1</dim>
					<dim>1</dim>
				</port>
			</input>
			<output>
				<port id="1" precision="FP32">
					<dim>1</dim>
					<dim>128</dim>
					<dim>1</dim>
					<dim>1</dim>
				</port>
			</output>
		</layer>
		<layer id="58" name="__module.model.ball_grid.features.3.block.1/aten::batch_norm/BatchNormInference" type="Add" version="opset1">
			<data auto_broadcast="numpy" />
			<input>
				<port id="0" precision="FP32">
					<dim>-1</dim>
					<dim>128</dim>
					<dim>144</dim>
					<dim>256</dim>
				</port>
				<port id="1" precision="FP32">
					<dim>1</dim>
					<dim>128</dim>
					<dim>1</dim>
					<dim>1</dim>
				</port>
			</input>
			<output>
				<port id="2" precision="FP32" names="4045_1">
					<dim>-1</dim>
					<dim>128</dim>
					<dim>144</dim>
					<dim>256</dim>
				</port>
			</output>
		</layer>
		<layer id="59" name="__module.model.ball_grid.features.3.block.2/aten::relu_/Relu" type="ReLU" version="opset1">
			<input>
				<port id="0" precision="FP32">
					<dim>-1</dim>
					<dim>128</dim>
					<dim>144</dim>
					<dim>256</dim>
				</port>
			</input>
			<output>
				<port id="1" precision="FP32" names="4045,input.287">
					<dim>-1</dim>
					<dim>128</dim>
					<dim>144</dim>
					<dim>256</dim>
				</port>
			</output>
		</layer>
		<layer id="60" name="__module.model.ball_grid.features.4.block.0.depthwise/aten::_convolution/Reshape_compressed" type="Const" version="opset1">
			<data element_type="f16" shape="128, 1, 1, 3, 3" offset="29104" size="2304" />
			<output>
				<port id="0" precision="FP16">
					<dim>128</dim>
					<dim>1</dim>
					<dim>1</dim>
					<dim>3</dim>
					<dim>3</dim>
				</port>
			</output>
		</layer>
		<layer id="61" name="__module.model.ball_grid.features.4.block.0.depthwise/aten::_convolution/Reshape" type="Convert" version="opset1">
			<data destination_type="f32" />
			<rt_info>
				<attribute name="decompression" version="0" />
			</rt_info>
			<input>
				<port id="0" precision="FP16">
					<dim>128</dim>
					<dim>1</dim>
					<dim>1</dim>
					<dim>3</dim>
					<dim>3</dim>
				</port>
			</input>
			<output>
				<port id="1" precision="FP32">
					<dim>128</dim>
					<dim>1</dim>
					<dim>1</dim>
					<dim>3</dim>
					<dim>3</dim>
				</port>
			</output>
		</layer>
		<layer id="62" name="__module.model.ball_grid.features.4.block.0.depthwise/aten::_convolution/GroupConvolution" type="GroupConvolution" version="opset1">
			<data strides="1, 1" pads_begin="1, 1" pads_end="1, 1" dilations="1, 1" auto_pad="explicit" />
			<input>
				<port id="0" precision="FP32">
					<dim>-1</dim>
					<dim>128</dim>
					<dim>144</dim>
					<dim>256</dim>
				</port>
				<port id="1" precision="FP32">
					<dim>128</dim>
					<dim>1</dim>
					<dim>1</dim>
					<dim>3</dim>
					<dim>3</dim>
				</port>
			</input>
			<output>
				<port id="2" precision="FP32" names="4057,input.291">
					<dim>-1</dim>
					<dim>128</dim>
					<dim>144</dim>
					<dim>256</dim>
				</port>
			</output>
		</layer>
		<layer id="63" name="Multiply_48488_compressed" type="Const" version="opset1">
			<data element_type="f16" shape="128, 128, 1, 1" offset="31408" size="32768" />
			<output>
				<port id="0" precision="FP16">
					<dim>128</dim>
					<dim>128</dim>
					<dim>1</dim>
					<dim>1</dim>
				</port>
			</output>
		</layer>
		<layer id="64" name="Multiply_48488" type="Convert" version="opset1">
			<data destination_type="f32" />
			<rt_info>
				<attribute name="decompression" version="0" />
			</rt_info>
			<input>
				<port id="0" precision="FP16">
					<dim>128</dim>
					<dim>128</dim>
					<dim>1</dim>
					<dim>1</dim>
				</port>
			</input>
			<output>
				<port id="1" precision="FP32">
					<dim>128</dim>
					<dim>128</dim>
					<dim>1</dim>
					<dim>1</dim>
				</port>
			</output>
		</layer>
		<layer id="65" name="Multiply_48411" type="Convolution" version="opset1">
			<data strides="1, 1" dilations="1, 1" pads_begin="0, 0" pads_end="0, 0" auto_pad="explicit" />
			<input>
				<port id="0" precision="FP32">
					<dim>-1</dim>
					<dim>128</dim>
					<dim>144</dim>
					<dim>256</dim>
				</port>
				<port id="1" precision="FP32">
					<dim>128</dim>
					<dim>128</dim>
					<dim>1</dim>
					<dim>1</dim>
				</port>
			</input>
			<output>
				<port id="2" precision="FP32">
					<dim>-1</dim>
					<dim>128</dim>
					<dim>144</dim>
					<dim>256</dim>
				</port>
			</output>
		</layer>
		<layer id="66" name="Constant_48416_compressed" type="Const" version="opset1">
			<data element_type="f16" shape="1, 128, 1, 1" offset="64176" size="256" />
			<output>
				<port id="0" precision="FP16">
					<dim>1</dim>
					<dim>128</dim>
					<dim>1</dim>
					<dim>1</dim>
				</port>
			</output>
		</layer>
		<layer id="67" name="Constant_48416" type="Convert" version="opset1">
			<data destination_type="f32" />
			<rt_info>
				<attribute name="decompression" version="0" />
			</rt_info>
			<input>
				<port id="0" precision="FP16">
					<dim>1</dim>
					<dim>128</dim>
					<dim>1</dim>
					<dim>1</dim>
				</port>
			</input>
			<output>
				<port id="1" precision="FP32">
					<dim>1</dim>
					<dim>128</dim>
					<dim>1</dim>
					<dim>1</dim>
				</port>
			</output>
		</layer>
		<layer id="68" name="__module.model.ball_grid.features.4.block.1/aten::batch_norm/BatchNormInference" type="Add" version="opset1">
			<data auto_broadcast="numpy" />
			<input>
				<port id="0" precision="FP32">
					<dim>-1</dim>
					<dim>128</dim>
					<dim>144</dim>
					<dim>256</dim>
				</port>
				<port id="1" precision="FP32">
					<dim>1</dim>
					<dim>128</dim>
					<dim>1</dim>
					<dim>1</dim>
				</port>
			</input>
			<output>
				<port id="2" precision="FP32" names="4068_1">
					<dim>-1</dim>
					<dim>128</dim>
					<dim>144</dim>
					<dim>256</dim>
				</port>
			</output>
		</layer>
		<layer id="69" name="__module.model.ball_grid.features.4.block.2/aten::relu_/Relu" type="ReLU" version="opset1">
			<input>
				<port id="0" precision="FP32">
					<dim>-1</dim>
					<dim>128</dim>
					<dim>144</dim>
					<dim>256</dim>
				</port>
			</input>
			<output>
				<port id="1" precision="FP32" names="4068,input.295">
					<dim>-1</dim>
					<dim>128</dim>
					<dim>144</dim>
					<dim>256</dim>
				</port>
			</output>
		</layer>
		<layer id="70" name="__module.model.ball_grid.features.5/aten::max_pool2d/MaxPool" type="MaxPool" version="opset14">
			<data strides="2, 2" dilations="1, 1" pads_begin="0, 0" pads_end="0, 0" kernel="2, 2" rounding_type="floor" auto_pad="explicit" index_element_type="i64" axis="2" />
			<input>
				<port id="0" precision="FP32">
					<dim>-1</dim>
					<dim>128</dim>
					<dim>144</dim>
					<dim>256</dim>
				</port>
			</input>
			<output>
				<port id="1" precision="FP32" names="4074,input.299">
					<dim>-1</dim>
					<dim>128</dim>
					<dim>72</dim>
					<dim>128</dim>
				</port>
				<port id="2" precision="I64">
					<dim>-1</dim>
					<dim>128</dim>
					<dim>72</dim>
					<dim>128</dim>
				</port>
			</output>
		</layer>
		<layer id="71" name="__module.model.ball_grid.features.6.block.0.depthwise/aten::_convolution/Reshape_compressed" type="Const" version="opset1">
			<data element_type="f16" shape="128, 1, 1, 3, 3" offset="64432" size="2304" />
			<output>
				<port id="0" precision="FP16">
					<dim>128</dim>
					<dim>1</dim>
					<dim>1</dim>
					<dim>3</dim>
					<dim>3</dim>
				</port>
			</output>
		</layer>
		<layer id="72" name="__module.model.ball_grid.features.6.block.0.depthwise/aten::_convolution/Reshape" type="Convert" version="opset1">
			<data destination_type="f32" />
			<rt_info>
				<attribute name="decompression" version="0" />
			</rt_info>
			<input>
				<port id="0" precision="FP16">
					<dim>128</dim>
					<dim>1</dim>
					<dim>1</dim>
					<dim>3</dim>
					<dim>3</dim>
				</port>
			</input>
			<output>
				<port id="1" precision="FP32">
					<dim>128</dim>
					<dim>1</dim>
					<dim>1</dim>
					<dim>3</dim>
					<dim>3</dim>
				</port>
			</output>
		</layer>
		<layer id="73" name="__module.model.ball_grid.features.6.block.0.depthwise/aten::_convolution/GroupConvolution" type="GroupConvolution" version="opset1">
			<data strides="1, 1" pads_begin="1, 1" pads_end="1, 1" dilations="1, 1" auto_pad="explicit" />
			<input>
				<port id="0" precision="FP32">
					<dim>-1</dim>
					<dim>128</dim>
					<dim>72</dim>
					<dim>128</dim>
				</port>
				<port id="1" precision="FP32">
					<dim>128</dim>
					<dim>1</dim>
					<dim>1</dim>
					<dim>3</dim>
					<dim>3</dim>
				</port>
			</input>
			<output>
				<port id="2" precision="FP32" names="4085,input.301">
					<dim>-1</dim>
					<dim>128</dim>
					<dim>72</dim>
					<dim>128</dim>
				</port>
			</output>
		</layer>
		<layer id="74" name="Multiply_48492_compressed" type="Const" version="opset1">
			<data element_type="f16" shape="256, 128, 1, 1" offset="66736" size="65536" />
			<output>
				<port id="0" precision="FP16">
					<dim>256</dim>
					<dim>128</dim>
					<dim>1</dim>
					<dim>1</dim>
				</port>
			</output>
		</layer>
		<layer id="75" name="Multiply_48492" type="Convert" version="opset1">
			<data destination_type="f32" />
			<rt_info>
				<attribute name="decompression" version="0" />
			</rt_info>
			<input>
				<port id="0" precision="FP16">
					<dim>256</dim>
					<dim>128</dim>
					<dim>1</dim>
					<dim>1</dim>
				</port>
			</input>
			<output>
				<port id="1" precision="FP32">
					<dim>256</dim>
					<dim>128</dim>
					<dim>1</dim>
					<dim>1</dim>
				</port>
			</output>
		</layer>
		<layer id="76" name="Multiply_48418" type="Convolution" version="opset1">
			<data strides="1, 1" dilations="1, 1" pads_begin="0, 0" pads_end="0, 0" auto_pad="explicit" />
			<input>
				<port id="0" precision="FP32">
					<dim>-1</dim>
					<dim>128</dim>
					<dim>72</dim>
					<dim>128</dim>
				</port>
				<port id="1" precision="FP32">
					<dim>256</dim>
					<dim>128</dim>
					<dim>1</dim>
					<dim>1</dim>
				</port>
			</input>
			<output>
				<port id="2" precision="FP32">
					<dim>-1</dim>
					<dim>256</dim>
					<dim>72</dim>
					<dim>128</dim>
				</port>
			</output>
		</layer>
		<layer id="77" name="Constant_48423_compressed" type="Const" version="opset1">
			<data element_type="f16" shape="1, 256, 1, 1" offset="132272" size="512" />
			<output>
				<port id="0" precision="FP16">
					<dim>1</dim>
					<dim>256</dim>
					<dim>1</dim>
					<dim>1</dim>
				</port>
			</output>
		</layer>
		<layer id="78" name="Constant_48423" type="Convert" version="opset1">
			<data destination_type="f32" />
			<rt_info>
				<attribute name="decompression" version="0" />
			</rt_info>
			<input>
				<port id="0" precision="FP16">
					<dim>1</dim>
					<dim>256</dim>
					<dim>1</dim>
					<dim>1</dim>
				</port>
			</input>
			<output>
				<port id="1" precision="FP32">
					<dim>1</dim>
					<dim>256</dim>
					<dim>1</dim>
					<dim>1</dim>
				</port>
			</output>
		</layer>
		<layer id="79" name="__module.model.ball_grid.features.6.block.1/aten::batch_norm/BatchNormInference" type="Add" version="opset1">
			<data auto_broadcast="numpy" />
			<input>
				<port id="0" precision="FP32">
					<dim>-1</dim>
					<dim>256</dim>
					<dim>72</dim>
					<dim>128</dim>
				</port>
				<port id="1" precision="FP32">
					<dim>1</dim>
					<dim>256</dim>
					<dim>1</dim>
					<dim>1</dim>
				</port>
			</input>
			<output>
				<port id="2" precision="FP32" names="4096_1">
					<dim>-1</dim>
					<dim>256</dim>
					<dim>72</dim>
					<dim>128</dim>
				</port>
			</output>
		</layer>
		<layer id="80" name="__module.model.ball_grid.features.6.block.2/aten::relu_/Relu" type="ReLU" version="opset1">
			<input>
				<port id="0" precision="FP32">
					<dim>-1</dim>
					<dim>256</dim>
					<dim>72</dim>
					<dim>128</dim>
				</port>
			</input>
			<output>
				<port id="1" precision="FP32" names="4096,input.305">
					<dim>-1</dim>
					<dim>256</dim>
					<dim>72</dim>
					<dim>128</dim>
				</port>
			</output>
		</layer>
		<layer id="81" name="__module.model.ball_grid.features.7.block.0.depthwise/aten::_convolution/Reshape_compressed" type="Const" version="opset1">
			<data element_type="f16" shape="256, 1, 1, 3, 3" offset="132784" size="4608" />
			<output>
				<port id="0" precision="FP16">
					<dim>256</dim>
					<dim>1</dim>
					<dim>1</dim>
					<dim>3</dim>
					<dim>3</dim>
				</port>
			</output>
		</layer>
		<layer id="82" name="__module.model.ball_grid.features.7.block.0.depthwise/aten::_convolution/Reshape" type="Convert" version="opset1">
			<data destination_type="f32" />
			<rt_info>
				<attribute name="decompression" version="0" />
			</rt_info>
			<input>
				<port id="0" precision="FP16">
					<dim>256</dim>
					<dim>1</dim>
					<dim>1</dim>
					<dim>3</dim>
					<dim>3</dim>
				</port>
			</input>
			<output>
				<port id="1" precision="FP32">
					<dim>256</dim>
					<dim>1</dim>
					<dim>1</dim>
					<dim>3</dim>
					<dim>3</dim>
				</port>
			</output>
		</layer>
		<layer id="83" name="__module.model.ball_grid.features.7.block.0.depthwise/aten::_convolution/GroupConvolution" type="GroupConvolution" version="opset1">
			<data strides="1, 1" pads_begin="1, 1" pads_end="1, 1" dilations="1, 1" auto_pad="explicit" />
			<input>
				<port id="0" precision="FP32">
					<dim>-1</dim>
					<dim>256</dim>
					<dim>72</dim>
					<dim>128</dim>
				</port>
				<port id="1" precision="FP32">
					<dim>256</dim>
					<dim>1</dim>
					<dim>1</dim>
					<dim>3</dim>
					<dim>3</dim>
				</port>
			</input>
			<output>
				<port id="2" precision="FP32" names="4108,input.309">
					<dim>-1</dim>
					<dim>256</dim>
					<dim>72</dim>
					<dim>128</dim>
				</port>
			</output>
		</layer>
		<layer id="84" name="Multiply_48496_compressed" type="Const" version="opset1">
			<data element_type="f16" shape="256, 256, 1, 1" offset="137392" size="131072" />
			<output>
				<port id="0" precision="FP16">
					<dim>256</dim>
					<dim>256</dim>
					<dim>1</dim>
					<dim>1</dim>
				</port>
			</output>
		</layer>
		<layer id="85" name="Multiply_48496" type="Convert" version="opset1">
			<data destination_type="f32" />
			<rt_info>
				<attribute name="decompression" version="0" />
			</rt_info>
			<input>
				<port id="0" precision="FP16">
					<dim>256</dim>
					<dim>256</dim>
					<dim>1</dim>
					<dim>1</dim>
				</port>
			</input>
			<output>
				<port id="1" precision="FP32">
					<dim>256</dim>
					<dim>256</dim>
					<dim>1</dim>
					<dim>1</dim>
				</port>
			</output>
		</layer>
		<layer id="86" name="Multiply_48425" type="Convolution" version="opset1">
			<data strides="1, 1" dilations="1, 1" pads_begin="0, 0" pads_end="0, 0" auto_pad="explicit" />
			<input>
				<port id="0" precision="FP32">
					<dim>-1</dim>
					<dim>256</dim>
					<dim>72</dim>
					<dim>128</dim>
				</port>
				<port id="1" precision="FP32">
					<dim>256</dim>
					<dim>256</dim>
					<dim>1</dim>
					<dim>1</dim>
				</port>
			</input>
			<output>
				<port id="2" precision="FP32">
					<dim>-1</dim>
					<dim>256</dim>
					<dim>72</dim>
					<dim>128</dim>
				</port>
			</output>
		</layer>
		<layer id="87" name="Constant_48430_compressed" type="Const" version="opset1">
			<data element_type="f16" shape="1, 256, 1, 1" offset="268464" size="512" />
			<output>
				<port id="0" precision="FP16">
					<dim>1</dim>
					<dim>256</dim>
					<dim>1</dim>
					<dim>1</dim>
				</port>
			</output>
		</layer>
		<layer id="88" name="Constant_48430" type="Convert" version="opset1">
			<data destination_type="f32" />
			<rt_info>
				<attribute name="decompression" version="0" />
			</rt_info>
			<input>
				<port id="0" precision="FP16">
					<dim>1</dim>
					<dim>256</dim>
					<dim>1</dim>
					<dim>1</dim>
				</port>
			</input>
			<output>
				<port id="1" precision="FP32">
					<dim>1</dim>
					<dim>256</dim>
					<dim>1</dim>
					<dim>1</dim>
				</port>
			</output>
		</layer>
		<layer id="89" name="__module.model.ball_grid.features.7.block.1/aten::batch_norm/BatchNormInference" type="Add" version="opset1">
			<data auto_broadcast="numpy" />
			<input>
				<port id="0" precision="FP32">
					<dim>-1</dim>
					<dim>256</dim>
					<dim>72</dim>
					<dim>128</dim>
				</port>
				<port id="1" precision="FP32">
					<dim>1</dim>
					<dim>256</dim>
					<dim>1</dim>
					<dim>1</dim>
				</port>
			</input>
			<output>
				<port id="2" precision="FP32" names="4119_1">
					<dim>-1</dim>
					<dim>256</dim>
					<dim>72</dim>
					<dim>128</dim>
				</port>
			</output>
		</layer>
		<layer id="90" name="__module.model.ball_grid.features.7.block.2/aten::relu_/Relu" type="ReLU" version="opset1">
			<input>
				<port id="0" precision="FP32">
					<dim>-1</dim>
					<dim>256</dim>
					<dim>72</dim>
					<dim>128</dim>
				</port>
			</input>
			<output>
				<port id="1" precision="FP32" names="4119,input.313">
					<dim>-1</dim>
					<dim>256</dim>
					<dim>72</dim>
					<dim>128</dim>
				</port>
			</output>
		</layer>
		<layer id="91" name="__module.model.ball_grid.features.8/aten::max_pool2d/MaxPool" type="MaxPool" version="opset14">
			<data strides="2, 2" dilations="1, 1" pads_begin="0, 0" pads_end="0, 0" kernel="2, 2" rounding_type="floor" auto_pad="explicit" index_element_type="i64" axis="2" />
			<input>
				<port id="0" precision="FP32">
					<dim>-1</dim>
					<dim>256</dim>
					<dim>72</dim>
					<dim>128</dim>
				</port>
			</input>
			<output>
				<port id="1" precision="FP32" names="4125,input.317">
					<dim>-1</dim>
					<dim>256</dim>
					<dim>36</dim>
					<dim>64</dim>
				</port>
				<port id="2" precision="I64">
					<dim>-1</dim>
					<dim>256</dim>
					<dim>36</dim>
					<dim>64</dim>
				</port>
			</output>
		</layer>
		<layer id="92" name="__module.model.ball_grid.features.9.block.0.depthwise/aten::_convolution/Reshape_compressed" type="Const" version="opset1">
			<data element_type="f16" shape="256, 1, 1, 3, 3" offset="268976" size="4608" />
			<output>
				<port id="0" precision="FP16">
					<dim>256</dim>
					<dim>1</dim>
					<dim>1</dim>
					<dim>3</dim>
					<dim>3</dim>
				</port>
			</output>
		</layer>
		<layer id="93" name="__module.model.ball_grid.features.9.block.0.depthwise/aten::_convolution/Reshape" type="Convert" version="opset1">
			<data destination_type="f32" />
			<rt_info>
				<attribute name="decompression" version="0" />
			</rt_info>
			<input>
				<port id="0" precision="FP16">
					<dim>256</dim>
					<dim>1</dim>
					<dim>1</dim>
					<dim>3</dim>
					<dim>3</dim>
				</port>
			</input>
			<output>
				<port id="1" precision="FP32">
					<dim>256</dim>
					<dim>1</dim>
					<dim>1</dim>
					<dim>3</dim>
					<dim>3</dim>
				</port>
			</output>
		</layer>
		<layer id="94" name="__module.model.ball_grid.features.9.block.0.depthwise/aten::_convolution/GroupConvolution" type="GroupConvolution" version="opset1">
			<data strides="1, 1" pads_begin="1, 1" pads_end="1, 1" dilations="1, 1" auto_pad="explicit" />
			<input>
				<port id="0" precision="FP32">
					<dim>-1</dim>
					<dim>256</dim>
					<dim>36</dim>
					<dim>64</dim>
				</port>
				<port id="1" precision="FP32">
					<dim>256</dim>
					<dim>1</dim>
					<dim>1</dim>
					<dim>3</dim>
					<dim>3</dim>
				</port>
			</input>
			<output>
				<port id="2" precision="FP32" names="4136,input.319">
					<dim>-1</dim>
					<dim>256</dim>
					<dim>36</dim>
					<dim>64</dim>
				</port>
			</output>
		</layer>
		<layer id="95" name="Multiply_48500_compressed" type="Const" version="opset1">
			<data element_type="f16" shape="256, 256, 1, 1" offset="273584" size="131072" />
			<output>
				<port id="0" precision="FP16">
					<dim>256</dim>
					<dim>256</dim>
					<dim>1</dim>
					<dim>1</dim>
				</port>
			</output>
		</layer>
		<layer id="96" name="Multiply_48500" type="Convert" version="opset1">
			<data destination_type="f32" />
			<rt_info>
				<attribute name="decompression" version="0" />
			</rt_info>
			<input>
				<port id="0" precision="FP16">
					<dim>256</dim>
					<dim>256</dim>
					<dim>1</dim>
					<dim>1</dim>
				</port>
			</input>
			<output>
				<port id="1" precision="FP32">
					<dim>256</dim>
					<dim>256</dim>
					<dim>1</dim>
					<dim>1</dim>
				</port>
			</output>
		</layer>
		<layer id="97" name="Multiply_48432" type="Convolution" version="opset1">
			<data strides="1, 1" dilations="1, 1" pads_begin="0, 0" pads_end="0, 0" auto_pad="explicit" />
			<input>
				<port id="0" precision="FP32">
					<dim>-1</dim>
					<dim>256</dim>
					<dim>36</dim>
					<dim>64</dim>
				</port>
				<port id="1" precision="FP32">
					<dim>256</dim>
					<dim>256</dim>
					<dim>1</dim>
					<dim>1</dim>
				</port>
			</input>
			<output>
				<port id="2" precision="FP32">
					<dim>-1</dim>
					<dim>256</dim>
					<dim>36</dim>
					<dim>64</dim>
				</port>
			</output>
		</layer>
		<layer id="98" name="Constant_48437" type="Const" version="opset1">
			<data element_type="f32" shape="1, 256, 1, 1" offset="404656" size="1024" />
			<output>
				<port id="0" precision="FP32">
					<dim>1</dim>
					<dim>256</dim>
					<dim>1</dim>
					<dim>1</dim>
				</port>
			</output>
		</layer>
		<layer id="99" name="__module.model.ball_grid.features.9.block.1/aten::batch_norm/BatchNormInference" type="Add" version="opset1">
			<data auto_broadcast="numpy" />
			<input>
				<port id="0" precision="FP32">
					<dim>-1</dim>
					<dim>256</dim>
					<dim>36</dim>
					<dim>64</dim>
				</port>
				<port id="1" precision="FP32">
					<dim>1</dim>
					<dim>256</dim>
					<dim>1</dim>
					<dim>1</dim>
				</port>
			</input>
			<output>
				<port id="2" precision="FP32" names="4147_1">
					<dim>-1</dim>
					<dim>256</dim>
					<dim>36</dim>
					<dim>64</dim>
				</port>
			</output>
		</layer>
		<layer id="100" name="__module.model.ball_grid.features.9.block.2/aten::relu_/Relu" type="ReLU" version="opset1">
			<input>
				<port id="0" precision="FP32">
					<dim>-1</dim>
					<dim>256</dim>
					<dim>36</dim>
					<dim>64</dim>
				</port>
			</input>
			<output>
				<port id="1" precision="FP32" names="4147,input.323">
					<dim>-1</dim>
					<dim>256</dim>
					<dim>36</dim>
					<dim>64</dim>
				</port>
			</output>
		</layer>
		<layer id="101" name="__module.model.ball_grid.features.10.block.0.depthwise/aten::_convolution/Reshape_compressed" type="Const" version="opset1">
			<data element_type="f16" shape="256, 1, 1, 3, 3" offset="405680" size="4608" />
			<output>
				<port id="0" precision="FP16">
					<dim>256</dim>
					<dim>1</dim>
					<dim>1</dim>
					<dim>3</dim>
					<dim>3</dim>
				</port>
			</output>
		</layer>
		<layer id="102" name="__module.model.ball_grid.features.10.block.0.depthwise/aten::_convolution/Reshape" type="Convert" version="opset1">
			<data destination_type="f32" />
			<rt_info>
				<attribute name="decompression" version="0" />
			</rt_info>
			<input>
				<port id="0" precision="FP16">
					<dim>256</dim>
					<dim>1</dim>
					<dim>1</dim>
					<dim>3</dim>
					<dim>3</dim>
				</port>
			</input>
			<output>
				<port id="1" precision="FP32">
					<dim>256</dim>
					<dim>1</dim>
					<dim>1</dim>
					<dim>3</dim>
					<dim>3</dim>
				</port>
			</output>
		</layer>
		<layer id="103" name="__module.model.ball_grid.features.10.block.0.depthwise/aten::_convolution/GroupConvolution" type="GroupConvolution" version="opset1">
			<data strides="1, 1" pads_begin="1, 1" pads_end="1, 1" dilations="1, 1" auto_pad="explicit" />
			<input>
				<port id="0" precision="FP32">
					<dim>-1</dim>
					<dim>256</dim>
					<dim>36</dim>
					<dim>64</dim>
				</port>
				<port id="1" precision="FP32">
					<dim>256</dim>
					<dim>1</dim>
					<dim>1</dim>
					<dim>3</dim>
					<dim>3</dim>
				</port>
			</input>
			<output>
				<port id="2" precision="FP32" names="4159,input.327">
					<dim>-1</dim>
					<dim>256</dim>
					<dim>36</dim>
					<dim>64</dim>
				</port>
			</output>
		</layer>
		<layer id="104" name="Multiply_48504_compressed" type="Const" version="opset1">
			<data element_type="f16" shape="256, 256, 1, 1" offset="410288" size="131072" />
			<output>
				<port id="0" precision="FP16">
					<dim>256</dim>
					<dim>256</dim>
					<dim>1</dim>
					<dim>1</dim>
				</port>
			</output>
		</layer>
		<layer id="105" name="Multiply_48504" type="Convert" version="opset1">
			<data destination_type="f32" />
			<rt_info>
				<attribute name="decompression" version="0" />
			</rt_info>
			<input>
				<port id="0" precision="FP16">
					<dim>256</dim>
					<dim>256</dim>
					<dim>1</dim>
					<dim>1</dim>
				</port>
			</input>
			<output>
				<port id="1" precision="FP32">
					<dim>256</dim>
					<dim>256</dim>
					<dim>1</dim>
					<dim>1</dim>
				</port>
			</output>
		</layer>
		<layer id="106" name="Multiply_48439" type="Convolution" version="opset1">
			<data strides="1, 1" dilations="1, 1" pads_begin="0, 0" pads_end="0, 0" auto_pad="explicit" />
			<input>
				<port id="0" precision="FP32">
					<dim>-1</dim>
					<dim>256</dim>
					<dim>36</dim>
					<dim>64</dim>
				</port>
				<port id="1" precision="FP32">
					<dim>256</dim>
					<dim>256</dim>
					<dim>1</dim>
					<dim>1</dim>
				</port>
			</input>
			<output>
				<port id="2" precision="FP32">
					<dim>-1</dim>
					<dim>256</dim>
					<dim>36</dim>
					<dim>64</dim>
				</port>
			</output>
		</layer>
		<layer id="107" name="Constant_48444_compressed" type="Const" version="opset1">
			<data element_type="f16" shape="1, 256, 1, 1" offset="541360" size="512" />
			<output>
				<port id="0" precision="FP16">
					<dim>1</dim>
					<dim>256</dim>
					<dim>1</dim>
					<dim>1</dim>
				</port>
			</output>
		</layer>
		<layer id="108" name="Constant_48444" type="Convert" version="opset1">
			<data destination_type="f32" />
			<rt_info>
				<attribute name="decompression" version="0" />
			</rt_info>
			<input>
				<port id="0" precision="FP16">
					<dim>1</dim>
					<dim>256</dim>
					<dim>1</dim>
					<dim>1</dim>
				</port>
			</input>
			<output>
				<port id="1" precision="FP32">
					<dim>1</dim>
					<dim>256</dim>
					<dim>1</dim>
					<dim>1</dim>
				</port>
			</output>
		</layer>
		<layer id="109" name="__module.model.ball_grid.features.10.block.1/aten::batch_norm/BatchNormInference" type="Add" version="opset1">
			<data auto_broadcast="numpy" />
			<input>
				<port id="0" precision="FP32">
					<dim>-1</dim>
					<dim>256</dim>
					<dim>36</dim>
					<dim>64</dim>
				</port>
				<port id="1" precision="FP32">
					<dim>1</dim>
					<dim>256</dim>
					<dim>1</dim>
					<dim>1</dim>
				</port>
			</input>
			<output>
				<port id="2" precision="FP32" names="4170_1">
					<dim>-1</dim>
					<dim>256</dim>
					<dim>36</dim>
					<dim>64</dim>
				</port>
			</output>
		</layer>
		<layer id="110" name="__module.model.ball_grid.features.10.block.2/aten::relu_/Relu" type="ReLU" version="opset1">
			<input>
				<port id="0" precision="FP32">
					<dim>-1</dim>
					<dim>256</dim>
					<dim>36</dim>
					<dim>64</dim>
				</port>
			</input>
			<output>
				<port id="1" precision="FP32" names="4170,input.331">
					<dim>-1</dim>
					<dim>256</dim>
					<dim>36</dim>
					<dim>64</dim>
				</port>
			</output>
		</layer>
		<layer id="111" name="__module.model.ball_grid.features.11.block.0.depthwise/aten::_convolution/Reshape_compressed" type="Const" version="opset1">
			<data element_type="f16" shape="256, 1, 1, 3, 3" offset="541872" size="4608" />
			<output>
				<port id="0" precision="FP16">
					<dim>256</dim>
					<dim>1</dim>
					<dim>1</dim>
					<dim>3</dim>
					<dim>3</dim>
				</port>
			</output>
		</layer>
		<layer id="112" name="__module.model.ball_grid.features.11.block.0.depthwise/aten::_convolution/Reshape" type="Convert" version="opset1">
			<data destination_type="f32" />
			<rt_info>
				<attribute name="decompression" version="0" />
			</rt_info>
			<input>
				<port id="0" precision="FP16">
					<dim>256</dim>
					<dim>1</dim>
					<dim>1</dim>
					<dim>3</dim>
					<dim>3</dim>
				</port>
			</input>
			<output>
				<port id="1" precision="FP32">
					<dim>256</dim>
					<dim>1</dim>
					<dim>1</dim>
					<dim>3</dim>
					<dim>3</dim>
				</port>
			</output>
		</layer>
		<layer id="113" name="__module.model.ball_grid.features.11.block.0.depthwise/aten::_convolution/GroupConvolution" type="GroupConvolution" version="opset1">
			<data strides="1, 1" pads_begin="1, 1" pads_end="1, 1" dilations="1, 1" auto_pad="explicit" />
			<input>
				<port id="0" precision="FP32">
					<dim>-1</dim>
					<dim>256</dim>
					<dim>36</dim>
					<dim>64</dim>
				</port>
				<port id="1" precision="FP32">
					<dim>256</dim>
					<dim>1</dim>
					<dim>1</dim>
					<dim>3</dim>
					<dim>3</dim>
				</port>
			</input>
			<output>
				<port id="2" precision="FP32" names="4182,input.335">
					<dim>-1</dim>
					<dim>256</dim>
					<dim>36</dim>
					<dim>64</dim>
				</port>
			</output>
		</layer>
		<layer id="114" name="Multiply_48508_compressed" type="Const" version="opset1">
			<data element_type="f16" shape="256, 256, 1, 1" offset="546480" size="131072" />
			<output>
				<port id="0" precision="FP16">
					<dim>256</dim>
					<dim>256</dim>
					<dim>1</dim>
					<dim>1</dim>
				</port>
			</output>
		</layer>
		<layer id="115" name="Multiply_48508" type="Convert" version="opset1">
			<data destination_type="f32" />
			<rt_info>
				<attribute name="decompression" version="0" />
			</rt_info>
			<input>
				<port id="0" precision="FP16">
					<dim>256</dim>
					<dim>256</dim>
					<dim>1</dim>
					<dim>1</dim>
				</port>
			</input>
			<output>
				<port id="1" precision="FP32">
					<dim>256</dim>
					<dim>256</dim>
					<dim>1</dim>
					<dim>1</dim>
				</port>
			</output>
		</layer>
		<layer id="116" name="Multiply_48446" type="Convolution" version="opset1">
			<data strides="1, 1" dilations="1, 1" pads_begin="0, 0" pads_end="0, 0" auto_pad="explicit" />
			<input>
				<port id="0" precision="FP32">
					<dim>-1</dim>
					<dim>256</dim>
					<dim>36</dim>
					<dim>64</dim>
				</port>
				<port id="1" precision="FP32">
					<dim>256</dim>
					<dim>256</dim>
					<dim>1</dim>
					<dim>1</dim>
				</port>
			</input>
			<output>
				<port id="2" precision="FP32">
					<dim>-1</dim>
					<dim>256</dim>
					<dim>36</dim>
					<dim>64</dim>
				</port>
			</output>
		</layer>
		<layer id="117" name="Constant_48451_compressed" type="Const" version="opset1">
			<data element_type="f16" shape="1, 256, 1, 1" offset="677552" size="512" />
			<output>
				<port id="0" precision="FP16">
					<dim>1</dim>
					<dim>256</dim>
					<dim>1</dim>
					<dim>1</dim>
				</port>
			</output>
		</layer>
		<layer id="118" name="Constant_48451" type="Convert" version="opset1">
			<data destination_type="f32" />
			<rt_info>
				<attribute name="decompression" version="0" />
			</rt_info>
			<input>
				<port id="0" precision="FP16">
					<dim>1</dim>
					<dim>256</dim>
					<dim>1</dim>
					<dim>1</dim>
				</port>
			</input>
			<output>
				<port id="1" precision="FP32">
					<dim>1</dim>
					<dim>256</dim>
					<dim>1</dim>
					<dim>1</dim>
				</port>
			</output>
		</layer>
		<layer id="119" name="__module.model.ball_grid.features.11.block.1/aten::batch_norm/BatchNormInference" type="Add" version="opset1">
			<data auto_broadcast="numpy" />
			<input>
				<port id="0" precision="FP32">
					<dim>-1</dim>
					<dim>256</dim>
					<dim>36</dim>
					<dim>64</dim>
				</port>
				<port id="1" precision="FP32">
					<dim>1</dim>
					<dim>256</dim>
					<dim>1</dim>
					<dim>1</dim>
				</port>
			</input>
			<output>
				<port id="2" precision="FP32" names="4193_1">
					<dim>-1</dim>
					<dim>256</dim>
					<dim>36</dim>
					<dim>64</dim>
				</port>
			</output>
		</layer>
		<layer id="120" name="__module.model.ball_grid.features.11.block.2/aten::relu_/Relu" type="ReLU" version="opset1">
			<input>
				<port id="0" precision="FP32">
					<dim>-1</dim>
					<dim>256</dim>
					<dim>36</dim>
					<dim>64</dim>
				</port>
			</input>
			<output>
				<port id="1" precision="FP32" names="4193,input.339">
					<dim>-1</dim>
					<dim>256</dim>
					<dim>36</dim>
					<dim>64</dim>
				</port>
			</output>
		</layer>
		<layer id="121" name="__module.model.ball_grid.features.12.block.0.depthwise/aten::_convolution/Reshape_compressed" type="Const" version="opset1">
			<data element_type="f16" shape="256, 1, 1, 3, 3" offset="678064" size="4608" />
			<output>
				<port id="0" precision="FP16">
					<dim>256</dim>
					<dim>1</dim>
					<dim>1</dim>
					<dim>3</dim>
					<dim>3</dim>
				</port>
			</output>
		</layer>
		<layer id="122" name="__module.model.ball_grid.features.12.block.0.depthwise/aten::_convolution/Reshape" type="Convert" version="opset1">
			<data destination_type="f32" />
			<rt_info>
				<attribute name="decompression" version="0" />
			</rt_info>
			<input>
				<port id="0" precision="FP16">
					<dim>256</dim>
					<dim>1</dim>
					<dim>1</dim>
					<dim>3</dim>
					<dim>3</dim>
				</port>
			</input>
			<output>
				<port id="1" precision="FP32">
					<dim>256</dim>
					<dim>1</dim>
					<dim>1</dim>
					<dim>3</dim>
					<dim>3</dim>
				</port>
			</output>
		</layer>
		<layer id="123" name="__module.model.ball_grid.features.12.block.0.depthwise/aten::_convolution/GroupConvolution" type="GroupConvolution" version="opset1">
			<data strides="1, 1" pads_begin="1, 1" pads_end="1, 1" dilations="1, 1" auto_pad="explicit" />
			<input>
				<port id="0" precision="FP32">
					<dim>-1</dim>
					<dim>256</dim>
					<dim>36</dim>
					<dim>64</dim>
				</port>
				<port id="1" precision="FP32">
					<dim>256</dim>
					<dim>1</dim>
					<dim>1</dim>
					<dim>3</dim>
					<dim>3</dim>
				</port>
			</input>
			<output>
				<port id="2" precision="FP32" names="4205,input.343">
					<dim>-1</dim>
					<dim>256</dim>
					<dim>36</dim>
					<dim>64</dim>
				</port>
			</output>
		</layer>
		<layer id="124" name="Multiply_48512_compressed" type="Const" version="opset1">
			<data element_type="f16" shape="512, 256, 1, 1" offset="682672" size="262144" />
			<output>
				<port id="0" precision="FP16">
					<dim>512</dim>
					<dim>256</dim>
					<dim>1</dim>
					<dim>1</dim>
				</port>
			</output>
		</layer>
		<layer id="125" name="Multiply_48512" type="Convert" version="opset1">
			<data destination_type="f32" />
			<rt_info>
				<attribute name="decompression" version="0" />
			</rt_info>
			<input>
				<port id="0" precision="FP16">
					<dim>512</dim>
					<dim>256</dim>
					<dim>1</dim>
					<dim>1</dim>
				</port>
			</input>
			<output>
				<port id="1" precision="FP32">
					<dim>512</dim>
					<dim>256</dim>
					<dim>1</dim>
					<dim>1</dim>
				</port>
			</output>
		</layer>
		<layer id="126" name="Multiply_48453" type="Convolution" version="opset1">
			<data strides="1, 1" dilations="1, 1" pads_begin="0, 0" pads_end="0, 0" auto_pad="explicit" />
			<input>
				<port id="0" precision="FP32">
					<dim>-1</dim>
					<dim>256</dim>
					<dim>36</dim>
					<dim>64</dim>
				</port>
				<port id="1" precision="FP32">
					<dim>512</dim>
					<dim>256</dim>
					<dim>1</dim>
					<dim>1</dim>
				</port>
			</input>
			<output>
				<port id="2" precision="FP32">
					<dim>-1</dim>
					<dim>512</dim>
					<dim>36</dim>
					<dim>64</dim>
				</port>
			</output>
		</layer>
		<layer id="127" name="Constant_48458_compressed" type="Const" version="opset1">
			<data element_type="f16" shape="1, 512, 1, 1" offset="944816" size="1024" />
			<output>
				<port id="0" precision="FP16">
					<dim>1</dim>
					<dim>512</dim>
					<dim>1</dim>
					<dim>1</dim>
				</port>
			</output>
		</layer>
		<layer id="128" name="Constant_48458" type="Convert" version="opset1">
			<data destination_type="f32" />
			<rt_info>
				<attribute name="decompression" version="0" />
			</rt_info>
			<input>
				<port id="0" precision="FP16">
					<dim>1</dim>
					<dim>512</dim>
					<dim>1</dim>
					<dim>1</dim>
				</port>
			</input>
			<output>
				<port id="1" precision="FP32">
					<dim>1</dim>
					<dim>512</dim>
					<dim>1</dim>
					<dim>1</dim>
				</port>
			</output>
		</layer>
		<layer id="129" name="__module.model.ball_grid.features.12.block.1/aten::batch_norm/BatchNormInference" type="Add" version="opset1">
			<data auto_broadcast="numpy" />
			<input>
				<port id="0" precision="FP32">
					<dim>-1</dim>
					<dim>512</dim>
					<dim>36</dim>
					<dim>64</dim>
				</port>
				<port id="1" precision="FP32">
					<dim>1</dim>
					<dim>512</dim>
					<dim>1</dim>
					<dim>1</dim>
				</port>
			</input>
			<output>
				<port id="2" precision="FP32" names="4216_1">
					<dim>-1</dim>
					<dim>512</dim>
					<dim>36</dim>
					<dim>64</dim>
				</port>
			</output>
		</layer>
		<layer id="130" name="__module.model.ball_grid.features.12.block.2/aten::relu_/Relu" type="ReLU" version="opset1">
			<input>
				<port id="0" precision="FP32">
					<dim>-1</dim>
					<dim>512</dim>
					<dim>36</dim>
					<dim>64</dim>
				</port>
			</input>
			<output>
				<port id="1" precision="FP32" names="4216,input.347">
					<dim>-1</dim>
					<dim>512</dim>
					<dim>36</dim>
					<dim>64</dim>
				</port>
			</output>
		</layer>
		<layer id="131" name="__module.model.ball_grid.features.13.block.0.depthwise/aten::_convolution/Reshape_compressed" type="Const" version="opset1">
			<data element_type="f16" shape="512, 1, 1, 3, 3" offset="945840" size="9216" />
			<output>
				<port id="0" precision="FP16">
					<dim>512</dim>
					<dim>1</dim>
					<dim>1</dim>
					<dim>3</dim>
					<dim>3</dim>
				</port>
			</output>
		</layer>
		<layer id="132" name="__module.model.ball_grid.features.13.block.0.depthwise/aten::_convolution/Reshape" type="Convert" version="opset1">
			<data destination_type="f32" />
			<rt_info>
				<attribute name="decompression" version="0" />
			</rt_info>
			<input>
				<port id="0" precision="FP16">
					<dim>512</dim>
					<dim>1</dim>
					<dim>1</dim>
					<dim>3</dim>
					<dim>3</dim>
				</port>
			</input>
			<output>
				<port id="1" precision="FP32">
					<dim>512</dim>
					<dim>1</dim>
					<dim>1</dim>
					<dim>3</dim>
					<dim>3</dim>
				</port>
			</output>
		</layer>
		<layer id="133" name="__module.model.ball_grid.features.13.block.0.depthwise/aten::_convolution/GroupConvolution" type="GroupConvolution" version="opset1">
			<data strides="1, 1" pads_begin="1, 1" pads_end="1, 1" dilations="1, 1" auto_pad="explicit" />
			<input>
				<port id="0" precision="FP32">
					<dim>-1</dim>
					<dim>512</dim>
					<dim>36</dim>
					<dim>64</dim>
				</port>
				<port id="1" precision="FP32">
					<dim>512</dim>
					<dim>1</dim>
					<dim>1</dim>
					<dim>3</dim>
					<dim>3</dim>
				</port>
			</input>
			<output>
				<port id="2" precision="FP32" names="4228,input.351">
					<dim>-1</dim>
					<dim>512</dim>
					<dim>36</dim>
					<dim>64</dim>
				</port>
			</output>
		</layer>
		<layer id="134" name="Multiply_48516_compressed" type="Const" version="opset1">
			<data element_type="f16" shape="512, 512, 1, 1" offset="955056" size="524288" />
			<output>
				<port id="0" precision="FP16">
					<dim>512</dim>
					<dim>512</dim>
					<dim>1</dim>
					<dim>1</dim>
				</port>
			</output>
		</layer>
		<layer id="135" name="Multiply_48516" type="Convert" version="opset1">
			<data destination_type="f32" />
			<rt_info>
				<attribute name="decompression" version="0" />
			</rt_info>
			<input>
				<port id="0" precision="FP16">
					<dim>512</dim>
					<dim>512</dim>
					<dim>1</dim>
					<dim>1</dim>
				</port>
			</input>
			<output>
				<port id="1" precision="FP32">
					<dim>512</dim>
					<dim>512</dim>
					<dim>1</dim>
					<dim>1</dim>
				</port>
			</output>
		</layer>
		<layer id="136" name="Multiply_48460" type="Convolution" version="opset1">
			<data strides="1, 1" dilations="1, 1" pads_begin="0, 0" pads_end="0, 0" auto_pad="explicit" />
			<input>
				<port id="0" precision="FP32">
					<dim>-1</dim>
					<dim>512</dim>
					<dim>36</dim>
					<dim>64</dim>
				</port>
				<port id="1" precision="FP32">
					<dim>512</dim>
					<dim>512</dim>
					<dim>1</dim>
					<dim>1</dim>
				</port>
			</input>
			<output>
				<port id="2" precision="FP32">
					<dim>-1</dim>
					<dim>512</dim>
					<dim>36</dim>
					<dim>64</dim>
				</port>
			</output>
		</layer>
		<layer id="137" name="Constant_48465_compressed" type="Const" version="opset1">
			<data element_type="f16" shape="1, 512, 1, 1" offset="1479344" size="1024" />
			<output>
				<port id="0" precision="FP16">
					<dim>1</dim>
					<dim>512</dim>
					<dim>1</dim>
					<dim>1</dim>
				</port>
			</output>
		</layer>
		<layer id="138" name="Constant_48465" type="Convert" version="opset1">
			<data destination_type="f32" />
			<rt_info>
				<attribute name="decompression" version="0" />
			</rt_info>
			<input>
				<port id="0" precision="FP16">
					<dim>1</dim>
					<dim>512</dim>
					<dim>1</dim>
					<dim>1</dim>
				</port>
			</input>
			<output>
				<port id="1" precision="FP32">
					<dim>1</dim>
					<dim>512</dim>
					<dim>1</dim>
					<dim>1</dim>
				</port>
			</output>
		</layer>
		<layer id="139" name="__module.model.ball_grid.features.13.block.1/aten::batch_norm/BatchNormInference" type="Add" version="opset1">
			<data auto_broadcast="numpy" />
			<input>
				<port id="0" precision="FP32">
					<dim>-1</dim>
					<dim>512</dim>
					<dim>36</dim>
					<dim>64</dim>
				</port>
				<port id="1" precision="FP32">
					<dim>1</dim>
					<dim>512</dim>
					<dim>1</dim>
					<dim>1</dim>
				</port>
			</input>
			<output>
				<port id="2" precision="FP32" names="4239_1">
					<dim>-1</dim>
					<dim>512</dim>
					<dim>36</dim>
					<dim>64</dim>
				</port>
			</output>
		</layer>
		<layer id="140" name="__module.model.ball_grid.features.13.block.2/aten::relu_/Relu" type="ReLU" version="opset1">
			<input>
				<port id="0" precision="FP32">
					<dim>-1</dim>
					<dim>512</dim>
					<dim>36</dim>
					<dim>64</dim>
				</port>
			</input>
			<output>
				<port id="1" precision="FP32" names="4239,input.355">
					<dim>-1</dim>
					<dim>512</dim>
					<dim>36</dim>
					<dim>64</dim>
				</port>
			</output>
		</layer>
		<layer id="141" name="__module.model.ball_grid.features.14.block.0.depthwise/aten::_convolution/Reshape_compressed" type="Const" version="opset1">
			<data element_type="f16" shape="512, 1, 1, 3, 3" offset="1480368" size="9216" />
			<output>
				<port id="0" precision="FP16">
					<dim>512</dim>
					<dim>1</dim>
					<dim>1</dim>
					<dim>3</dim>
					<dim>3</dim>
				</port>
			</output>
		</layer>
		<layer id="142" name="__module.model.ball_grid.features.14.block.0.depthwise/aten::_convolution/Reshape" type="Convert" version="opset1">
			<data destination_type="f32" />
			<rt_info>
				<attribute name="decompression" version="0" />
			</rt_info>
			<input>
				<port id="0" precision="FP16">
					<dim>512</dim>
					<dim>1</dim>
					<dim>1</dim>
					<dim>3</dim>
					<dim>3</dim>
				</port>
			</input>
			<output>
				<port id="1" precision="FP32">
					<dim>512</dim>
					<dim>1</dim>
					<dim>1</dim>
					<dim>3</dim>
					<dim>3</dim>
				</port>
			</output>
		</layer>
		<layer id="143" name="__module.model.ball_grid.features.14.block.0.depthwise/aten::_convolution/GroupConvolution" type="GroupConvolution" version="opset1">
			<data strides="1, 1" pads_begin="1, 1" pads_end="1, 1" dilations="1, 1" auto_pad="explicit" />
			<input>
				<port id="0" precision="FP32">
					<dim>-1</dim>
					<dim>512</dim>
					<dim>36</dim>
					<dim>64</dim>
				</port>
				<port id="1" precision="FP32">
					<dim>512</dim>
					<dim>1</dim>
					<dim>1</dim>
					<dim>3</dim>
					<dim>3</dim>
				</port>
			</input>
			<output>
				<port id="2" precision="FP32" names="4251,input.359">
					<dim>-1</dim>
					<dim>512</dim>
					<dim>36</dim>
					<dim>64</dim>
				</port>
			</output>
		</layer>
		<layer id="144" name="Multiply_48520_compressed" type="Const" version="opset1">
			<data element_type="f16" shape="512, 512, 1, 1" offset="1489584" size="524288" />
			<output>
				<port id="0" precision="FP16">
					<dim>512</dim>
					<dim>512</dim>
					<dim>1</dim>
					<dim>1</dim>
				</port>
			</output>
		</layer>
		<layer id="145" name="Multiply_48520" type="Convert" version="opset1">
			<data destination_type="f32" />
			<rt_info>
				<attribute name="decompression" version="0" />
			</rt_info>
			<input>
				<port id="0" precision="FP16">
					<dim>512</dim>
					<dim>512</dim>
					<dim>1</dim>
					<dim>1</dim>
				</port>
			</input>
			<output>
				<port id="1" precision="FP32">
					<dim>512</dim>
					<dim>512</dim>
					<dim>1</dim>
					<dim>1</dim>
				</port>
			</output>
		</layer>
		<layer id="146" name="Multiply_48467" type="Convolution" version="opset1">
			<data strides="1, 1" dilations="1, 1" pads_begin="0, 0" pads_end="0, 0" auto_pad="explicit" />
			<input>
				<port id="0" precision="FP32">
					<dim>-1</dim>
					<dim>512</dim>
					<dim>36</dim>
					<dim>64</dim>
				</port>
				<port id="1" precision="FP32">
					<dim>512</dim>
					<dim>512</dim>
					<dim>1</dim>
					<dim>1</dim>
				</port>
			</input>
			<output>
				<port id="2" precision="FP32">
					<dim>-1</dim>
					<dim>512</dim>
					<dim>36</dim>
					<dim>64</dim>
				</port>
			</output>
		</layer>
		<layer id="147" name="Constant_48472_compressed" type="Const" version="opset1">
			<data element_type="f16" shape="1, 512, 1, 1" offset="2013872" size="1024" />
			<output>
				<port id="0" precision="FP16">
					<dim>1</dim>
					<dim>512</dim>
					<dim>1</dim>
					<dim>1</dim>
				</port>
			</output>
		</layer>
		<layer id="148" name="Constant_48472" type="Convert" version="opset1">
			<data destination_type="f32" />
			<rt_info>
				<attribute name="decompression" version="0" />
			</rt_info>
			<input>
				<port id="0" precision="FP16">
					<dim>1</dim>
					<dim>512</dim>
					<dim>1</dim>
					<dim>1</dim>
				</port>
			</input>
			<output>
				<port id="1" precision="FP32">
					<dim>1</dim>
					<dim>512</dim>
					<dim>1</dim>
					<dim>1</dim>
				</port>
			</output>
		</layer>
		<layer id="149" name="__module.model.ball_grid.features.14.block.1/aten::batch_norm/BatchNormInference" type="Add" version="opset1">
			<data auto_broadcast="numpy" />
			<input>
				<port id="0" precision="FP32">
					<dim>-1</dim>
					<dim>512</dim>
					<dim>36</dim>
					<dim>64</dim>
				</port>
				<port id="1" precision="FP32">
					<dim>1</dim>
					<dim>512</dim>
					<dim>1</dim>
					<dim>1</dim>
				</port>
			</input>
			<output>
				<port id="2" precision="FP32" names="4262_1">
					<dim>-1</dim>
					<dim>512</dim>
					<dim>36</dim>
					<dim>64</dim>
				</port>
			</output>
		</layer>
		<layer id="150" name="__module.model.ball_grid.features.14.block.2/aten::relu_/Relu" type="ReLU" version="opset1">
			<input>
				<port id="0" precision="FP32">
					<dim>-1</dim>
					<dim>512</dim>
					<dim>36</dim>
					<dim>64</dim>
				</port>
			</input>
			<output>
				<port id="1" precision="FP32" names="4262,input.363">
					<dim>-1</dim>
					<dim>512</dim>
					<dim>36</dim>
					<dim>64</dim>
				</port>
			</output>
		</layer>
		<layer id="151" name="self.model.ball_grid.output.0.weight_compressed" type="Const" version="opset1">
			<data element_type="f16" shape="27, 512, 3, 3" offset="2014896" size="248832" />
			<output>
				<port id="0" precision="FP16" names="self.model.ball_grid.output.0.weight">
					<dim>27</dim>
					<dim>512</dim>
					<dim>3</dim>
					<dim>3</dim>
				</port>
			</output>
		</layer>
		<layer id="152" name="self.model.ball_grid.output.0.weight" type="Convert" version="opset1">
			<data destination_type="f32" />
			<rt_info>
				<attribute name="decompression" version="0" />
			</rt_info>
			<input>
				<port id="0" precision="FP16">
					<dim>27</dim>
					<dim>512</dim>
					<dim>3</dim>
					<dim>3</dim>
				</port>
			</input>
			<output>
				<port id="1" precision="FP32">
					<dim>27</dim>
					<dim>512</dim>
					<dim>3</dim>
					<dim>3</dim>
				</port>
			</output>
		</layer>
		<layer id="153" name="__module.model.ball_grid.output.0/aten::_convolution/Convolution" type="Convolution" version="opset1">
			<data strides="1, 1" dilations="1, 1" pads_begin="1, 1" pads_end="1, 1" auto_pad="explicit" />
			<input>
				<port id="0" precision="FP32">
					<dim>-1</dim>
					<dim>512</dim>
					<dim>36</dim>
					<dim>64</dim>
				</port>
				<port id="1" precision="FP32">
					<dim>27</dim>
					<dim>512</dim>
					<dim>3</dim>
					<dim>3</dim>
				</port>
			</input>
			<output>
				<port id="2" precision="FP32">
					<dim>-1</dim>
					<dim>27</dim>
					<dim>36</dim>
					<dim>64</dim>
				</port>
			</output>
		</layer>
		<layer id="154" name="__module.model.ball_grid.output.0/aten::_convolution/Reshape_compressed" type="Const" version="opset1">
			<data element_type="f16" shape="1, 27, 1, 1" offset="2263728" size="54" />
			<output>
				<port id="0" precision="FP16">
					<dim>1</dim>
					<dim>27</dim>
					<dim>1</dim>
					<dim>1</dim>
				</port>
			</output>
		</layer>
		<layer id="155" name="__module.model.ball_grid.output.0/aten::_convolution/Reshape" type="Convert" version="opset1">
			<data destination_type="f32" />
			<rt_info>
				<attribute name="decompression" version="0" />
			</rt_info>
			<input>
				<port id="0" precision="FP16">
					<dim>1</dim>
					<dim>27</dim>
					<dim>1</dim>
					<dim>1</dim>
				</port>
			</input>
			<output>
				<port id="1" precision="FP32">
					<dim>1</dim>
					<dim>27</dim>
					<dim>1</dim>
					<dim>1</dim>
				</port>
			</output>
		</layer>
		<layer id="156" name="__module.model.ball_grid.output.0/aten::_convolution/Add" type="Add" version="opset1">
			<data auto_broadcast="numpy" />
			<input>
				<port id="0" precision="FP32">
					<dim>-1</dim>
					<dim>27</dim>
					<dim>36</dim>
					<dim>64</dim>
				</port>
				<port id="1" precision="FP32">
					<dim>1</dim>
					<dim>27</dim>
					<dim>1</dim>
					<dim>1</dim>
				</port>
			</input>
			<output>
				<port id="2" precision="FP32" names="4271,input">
					<dim>-1</dim>
					<dim>27</dim>
					<dim>36</dim>
					<dim>64</dim>
				</port>
			</output>
		</layer>
		<layer id="157" name="__module.model.ball_grid.output.1/aten::sigmoid/Sigmoid" type="Sigmoid" version="opset1">
			<input>
				<port id="0" precision="FP32">
					<dim>-1</dim>
					<dim>27</dim>
					<dim>36</dim>
					<dim>64</dim>
				</port>
			</input>
			<output>
				<port id="1" precision="FP32" names="4272,values">
					<dim>-1</dim>
					<dim>27</dim>
					<dim>36</dim>
					<dim>64</dim>
				</port>
			</output>
		</layer>
		<layer id="158" name="Constant_50711" type="Const" version="opset1">
			<data element_type="i64" shape="5" offset="2263782" size="40" />
			<rt_info>
				<attribute name="precise" version="0" />
			</rt_info>
			<output>
				<port id="0" precision="I64">
					<dim>5</dim>
				</port>
			</output>
		</layer>
		<layer id="159" name="__module.model.ball_grid/aten::view/Reshape" type="Reshape" version="opset1">
			<data special_zero="true" />
			<input>
				<port id="0" precision="FP32">
					<dim>-1</dim>
					<dim>27</dim>
					<dim>36</dim>
					<dim>64</dim>
				</port>
				<port id="1" precision="I64">
					<dim>5</dim>
				</port>
			</input>
			<output>
				<port id="2" precision="FP32" names="ball_grid">
					<dim>-1</dim>
					<dim>9</dim>
					<dim>3</dim>
					<dim>36</dim>
					<dim>64</dim>
				</port>
			</output>
		</layer>
		<layer id="160" name="self.model.backbone.stem.block.0.weight_compressed" type="Const" version="opset1">
			<data element_type="f16" shape="16, 3, 3, 3" offset="2263822" size="864" />
			<output>
				<port id="0" precision="FP16" names="self.model.backbone.stem.block.0.weight">
					<dim>16</dim>
					<dim>3</dim>
					<dim>3</dim>
					<dim>3</dim>
				</port>
			</output>
		</layer>
		<layer id="161" name="self.model.backbone.stem.block.0.weight" type="Convert" version="opset1">
			<data destination_type="f32" />
			<rt_info>
				<attribute name="decompression" version="0" />
			</rt_info>
			<input>
				<port id="0" precision="FP16">
					<dim>16</dim>
					<dim>3</dim>
					<dim>3</dim>
					<dim>3</dim>
				</port>
			</input>
			<output>
				<port id="1" precision="FP32">
					<dim>16</dim>
					<dim>3</dim>
					<dim>3</dim>
					<dim>3</dim>
				</port>
			</output>
		</layer>
		<layer id="162" name="__module.model.backbone.stem.block.0/aten::_convolution/Convolution" type="Convolution" version="opset1">
			<data strides="2, 2" dilations="1, 1" pads_begin="1, 1" pads_end="1, 1" auto_pad="explicit" />
			<input>
				<port id="0" precision="FP32">
					<dim>-1</dim>
					<dim>-1</dim>
					<dim>288</dim>
					<dim>512</dim>
				</port>
				<port id="1" precision="FP32">
					<dim>16</dim>
					<dim>3</dim>
					<dim>3</dim>
					<dim>3</dim>
				</port>
			</input>
			<output>
				<port id="2" precision="FP32" names="109,input.5">
					<dim>-1</dim>
					<dim>16</dim>
					<dim>144</dim>
					<dim>256</dim>
				</port>
			</output>
		</layer>
		<layer id="163" name="self.model.backbone.stem.block.1.weight" type="Const" version="opset1">
			<data element_type="f32" shape="16" offset="2264686" size="64" />
			<output>
				<port id="0" precision="FP32" names="self.model.backbone.stem.block.1.weight">
					<dim>16</dim>
				</port>
			</output>
		</layer>
		<layer id="164" name="self.model.backbone.stem.block.1.bias_compressed" type="Const" version="opset1">
			<data element_type="f16" shape="16" offset="2264750" size="32" />
			<output>
				<port id="0" precision="FP16" names="self.model.backbone.stem.block.1.bias">
					<dim>16</dim>
				</port>
			</output>
		</layer>
		<layer id="165" name="self.model.backbone.stem.block.1.bias" type="Convert" version="opset1">
			<data destination_type="f32" />
			<rt_info>
				<attribute name="decompression" version="0" />
			</rt_info>
			<input>
				<port id="0" precision="FP16">
					<dim>16</dim>
				</port>
			</input>
			<output>
				<port id="1" precision="FP32">
					<dim>16</dim>
				</port>
			</output>
		</layer>
		<layer id="166" name="__module.model.backbone.stem.block.1/aten::group_norm/GroupNormalization" type="GroupNormalization" version="opset12">
			<data num_groups="8" epsilon="9.9999997473787516e-06" />
			<input>
				<port id="0" precision="FP32">
					<dim>-1</dim>
					<dim>16</dim>
					<dim>144</dim>
					<dim>256</dim>
				</port>
				<port id="1" precision="FP32">
					<dim>16</dim>
				</port>
				<port id="2" precision="FP32">
					<dim>16</dim>
				</port>
			</input>
			<output>
				<port id="3" precision="FP32" names="112,input.7">
					<dim>-1</dim>
					<dim>16</dim>
					<dim>144</dim>
					<dim>256</dim>
				</port>
			</output>
		</layer>
		<layer id="167" name="__module.model.backbone.stem.block.2/aten::gelu/Gelu" type="Gelu" version="opset7">
			<data approximation_mode="ERF" />
			<input>
				<port id="0" precision="FP32">
					<dim>-1</dim>
					<dim>16</dim>
					<dim>144</dim>
					<dim>256</dim>
				</port>
			</input>
			<output>
				<port id="1" precision="FP32" names="113,input.9">
					<dim>-1</dim>
					<dim>16</dim>
					<dim>144</dim>
					<dim>256</dim>
				</port>
			</output>
		</layer>
		<layer id="168" name="self.model.backbone.stem.block.3.weight_compressed" type="Const" version="opset1">
			<data element_type="f16" shape="16, 16, 3, 3" offset="2264782" size="4608" />
			<output>
				<port id="0" precision="FP16" names="self.model.backbone.stem.block.3.weight">
					<dim>16</dim>
					<dim>16</dim>
					<dim>3</dim>
					<dim>3</dim>
				</port>
			</output>
		</layer>
		<layer id="169" name="self.model.backbone.stem.block.3.weight" type="Convert" version="opset1">
			<data destination_type="f32" />
			<rt_info>
				<attribute name="decompression" version="0" />
			</rt_info>
			<input>
				<port id="0" precision="FP16">
					<dim>16</dim>
					<dim>16</dim>
					<dim>3</dim>
					<dim>3</dim>
				</port>
			</input>
			<output>
				<port id="1" precision="FP32">
					<dim>16</dim>
					<dim>16</dim>
					<dim>3</dim>
					<dim>3</dim>
				</port>
			</output>
		</layer>
		<layer id="170" name="__module.model.backbone.stem.block.3/aten::_convolution/Convolution" type="Convolution" version="opset1">
			<data strides="1, 1" dilations="1, 1" pads_begin="1, 1" pads_end="1, 1" auto_pad="explicit" />
			<input>
				<port id="0" precision="FP32">
					<dim>-1</dim>
					<dim>16</dim>
					<dim>144</dim>
					<dim>256</dim>
				</port>
				<port id="1" precision="FP32">
					<dim>16</dim>
					<dim>16</dim>
					<dim>3</dim>
					<dim>3</dim>
				</port>
			</input>
			<output>
				<port id="2" precision="FP32" names="119,input.11">
					<dim>-1</dim>
					<dim>16</dim>
					<dim>144</dim>
					<dim>256</dim>
				</port>
			</output>
		</layer>
		<layer id="171" name="self.model.backbone.stem.block.4.weight_compressed" type="Const" version="opset1">
			<data element_type="f16" shape="16" offset="2269390" size="32" />
			<output>
				<port id="0" precision="FP16" names="self.model.backbone.stem.block.4.weight">
					<dim>16</dim>
				</port>
			</output>
		</layer>
		<layer id="172" name="self.model.backbone.stem.block.4.weight" type="Convert" version="opset1">
			<data destination_type="f32" />
			<rt_info>
				<attribute name="decompression" version="0" />
			</rt_info>
			<input>
				<port id="0" precision="FP16">
					<dim>16</dim>
				</port>
			</input>
			<output>
				<port id="1" precision="FP32">
					<dim>16</dim>
				</port>
			</output>
		</layer>
		<layer id="173" name="self.model.backbone.stem.block.4.bias" type="Const" version="opset1">
			<data element_type="f32" shape="16" offset="2269422" size="64" />
			<output>
				<port id="0" precision="FP32" names="self.model.backbone.stem.block.4.bias">
					<dim>16</dim>
				</port>
			</output>
		</layer>
		<layer id="174" name="__module.model.backbone.stem.block.4/aten::group_norm/GroupNormalization" type="GroupNormalization" version="opset12">
			<data num_groups="8" epsilon="9.9999997473787516e-06" />
			<input>
				<port id="0" precision="FP32">
					<dim>-1</dim>
					<dim>16</dim>
					<dim>144</dim>
					<dim>256</dim>
				</port>
				<port id="1" precision="FP32">
					<dim>16</dim>
				</port>
				<port id="2" precision="FP32">
					<dim>16</dim>
				</port>
			</input>
			<output>
				<port id="3" precision="FP32" names="122,input.13">
					<dim>-1</dim>
					<dim>16</dim>
					<dim>144</dim>
					<dim>256</dim>
				</port>
			</output>
		</layer>
		<layer id="175" name="__module.model.backbone.stem.block.5/aten::gelu/Gelu" type="Gelu" version="opset7">
			<data approximation_mode="ERF" />
			<input>
				<port id="0" precision="FP32">
					<dim>-1</dim>
					<dim>16</dim>
					<dim>144</dim>
					<dim>256</dim>
				</port>
			</input>
			<output>
				<port id="1" precision="FP32" names="123,input.15">
					<dim>-1</dim>
					<dim>16</dim>
					<dim>144</dim>
					<dim>256</dim>
				</port>
			</output>
		</layer>
		<layer id="176" name="self.model.backbone.stage4.block.0.weight_compressed" type="Const" version="opset1">
			<data element_type="f16" shape="32, 16, 3, 3" offset="2269486" size="9216" />
			<output>
				<port id="0" precision="FP16" names="self.model.backbone.stage4.block.0.weight">
					<dim>32</dim>
					<dim>16</dim>
					<dim>3</dim>
					<dim>3</dim>
				</port>
			</output>
		</layer>
		<layer id="177" name="self.model.backbone.stage4.block.0.weight" type="Convert" version="opset1">
			<data destination_type="f32" />
			<rt_info>
				<attribute name="decompression" version="0" />
			</rt_info>
			<input>
				<port id="0" precision="FP16">
					<dim>32</dim>
					<dim>16</dim>
					<dim>3</dim>
					<dim>3</dim>
				</port>
			</input>
			<output>
				<port id="1" precision="FP32">
					<dim>32</dim>
					<dim>16</dim>
					<dim>3</dim>
					<dim>3</dim>
				</port>
			</output>
		</layer>
		<layer id="178" name="__module.model.backbone.stage4.block.0/aten::_convolution/Convolution" type="Convolution" version="opset1">
			<data strides="2, 2" dilations="1, 1" pads_begin="1, 1" pads_end="1, 1" auto_pad="explicit" />
			<input>
				<port id="0" precision="FP32">
					<dim>-1</dim>
					<dim>16</dim>
					<dim>144</dim>
					<dim>256</dim>
				</port>
				<port id="1" precision="FP32">
					<dim>32</dim>
					<dim>16</dim>
					<dim>3</dim>
					<dim>3</dim>
				</port>
			</input>
			<output>
				<port id="2" precision="FP32" names="134,input.17">
					<dim>-1</dim>
					<dim>32</dim>
					<dim>72</dim>
					<dim>128</dim>
				</port>
			</output>
		</layer>
		<layer id="179" name="self.model.backbone.stage4.block.1.weight_compressed" type="Const" version="opset1">
			<data element_type="f16" shape="32" offset="2278702" size="64" />
			<output>
				<port id="0" precision="FP16" names="self.model.backbone.stage4.block.1.weight">
					<dim>32</dim>
				</port>
			</output>
		</layer>
		<layer id="180" name="self.model.backbone.stage4.block.1.weight" type="Convert" version="opset1">
			<data destination_type="f32" />
			<rt_info>
				<attribute name="decompression" version="0" />
			</rt_info>
			<input>
				<port id="0" precision="FP16">
					<dim>32</dim>
				</port>
			</input>
			<output>
				<port id="1" precision="FP32">
					<dim>32</dim>
				</port>
			</output>
		</layer>
		<layer id="181" name="self.model.backbone.stage4.block.1.bias_compressed" type="Const" version="opset1">
			<data element_type="f16" shape="32" offset="2278766" size="64" />
			<output>
				<port id="0" precision="FP16" names="self.model.backbone.stage4.block.1.bias">
					<dim>32</dim>
				</port>
			</output>
		</layer>
		<layer id="182" name="self.model.backbone.stage4.block.1.bias" type="Convert" version="opset1">
			<data destination_type="f32" />
			<rt_info>
				<attribute name="decompression" version="0" />
			</rt_info>
			<input>
				<port id="0" precision="FP16">
					<dim>32</dim>
				</port>
			</input>
			<output>
				<port id="1" precision="FP32">
					<dim>32</dim>
				</port>
			</output>
		</layer>
		<layer id="183" name="__module.model.backbone.stage4.block.1/aten::group_norm/GroupNormalization" type="GroupNormalization" version="opset12">
			<data num_groups="8" epsilon="9.9999997473787516e-06" />
			<input>
				<port id="0" precision="FP32">
					<dim>-1</dim>
					<dim>32</dim>
					<dim>72</dim>
					<dim>128</dim>
				</port>
				<port id="1" precision="FP32">
					<dim>32</dim>
				</port>
				<port id="2" precision="FP32">
					<dim>32</dim>
				</port>
			</input>
			<output>
				<port id="3" precision="FP32" names="137,input.19">
					<dim>-1</dim>
					<dim>32</dim>
					<dim>72</dim>
					<dim>128</dim>
				</port>
			</output>
		</layer>
		<layer id="184" name="__module.model.backbone.stage4.block.2/aten::gelu/Gelu" type="Gelu" version="opset7">
			<data approximation_mode="ERF" />
			<input>
				<port id="0" precision="FP32">
					<dim>-1</dim>
					<dim>32</dim>
					<dim>72</dim>
					<dim>128</dim>
				</port>
			</input>
			<output>
				<port id="1" precision="FP32" names="138,input.21">
					<dim>-1</dim>
					<dim>32</dim>
					<dim>72</dim>
					<dim>128</dim>
				</port>
			</output>
		</layer>
		<layer id="185" name="self.model.backbone.stage4.block.3.weight_compressed" type="Const" version="opset1">
			<data element_type="f16" shape="32, 32, 3, 3" offset="2278830" size="18432" />
			<output>
				<port id="0" precision="FP16" names="self.model.backbone.stage4.block.3.weight">
					<dim>32</dim>
					<dim>32</dim>
					<dim>3</dim>
					<dim>3</dim>
				</port>
			</output>
		</layer>
		<layer id="186" name="self.model.backbone.stage4.block.3.weight" type="Convert" version="opset1">
			<data destination_type="f32" />
			<rt_info>
				<attribute name="decompression" version="0" />
			</rt_info>
			<input>
				<port id="0" precision="FP16">
					<dim>32</dim>
					<dim>32</dim>
					<dim>3</dim>
					<dim>3</dim>
				</port>
			</input>
			<output>
				<port id="1" precision="FP32">
					<dim>32</dim>
					<dim>32</dim>
					<dim>3</dim>
					<dim>3</dim>
				</port>
			</output>
		</layer>
		<layer id="187" name="__module.model.backbone.stage4.block.3/aten::_convolution/Convolution" type="Convolution" version="opset1">
			<data strides="1, 1" dilations="1, 1" pads_begin="1, 1" pads_end="1, 1" auto_pad="explicit" />
			<input>
				<port id="0" precision="FP32">
					<dim>-1</dim>
					<dim>32</dim>
					<dim>72</dim>
					<dim>128</dim>
				</port>
				<port id="1" precision="FP32">
					<dim>32</dim>
					<dim>32</dim>
					<dim>3</dim>
					<dim>3</dim>
				</port>
			</input>
			<output>
				<port id="2" precision="FP32" names="144,input.23">
					<dim>-1</dim>
					<dim>32</dim>
					<dim>72</dim>
					<dim>128</dim>
				</port>
			</output>
		</layer>
		<layer id="188" name="self.model.backbone.stage4.block.4.weight" type="Const" version="opset1">
			<data element_type="f32" shape="32" offset="2297262" size="128" />
			<output>
				<port id="0" precision="FP32" names="self.model.backbone.stage4.block.4.weight">
					<dim>32</dim>
				</port>
			</output>
		</layer>
		<layer id="189" name="self.model.backbone.stage4.block.4.bias_compressed" type="Const" version="opset1">
			<data element_type="f16" shape="32" offset="2297390" size="64" />
			<output>
				<port id="0" precision="FP16" names="self.model.backbone.stage4.block.4.bias">
					<dim>32</dim>
				</port>
			</output>
		</layer>
		<layer id="190" name="self.model.backbone.stage4.block.4.bias" type="Convert" version="opset1">
			<data destination_type="f32" />
			<rt_info>
				<attribute name="decompression" version="0" />
			</rt_info>
			<input>
				<port id="0" precision="FP16">
					<dim>32</dim>
				</port>
			</input>
			<output>
				<port id="1" precision="FP32">
					<dim>32</dim>
				</port>
			</output>
		</layer>
		<layer id="191" name="__module.model.backbone.stage4.block.4/aten::group_norm/GroupNormalization" type="GroupNormalization" version="opset12">
			<data num_groups="8" epsilon="9.9999997473787516e-06" />
			<input>
				<port id="0" precision="FP32">
					<dim>-1</dim>
					<dim>32</dim>
					<dim>72</dim>
					<dim>128</dim>
				</port>
				<port id="1" precision="FP32">
					<dim>32</dim>
				</port>
				<port id="2" precision="FP32">
					<dim>32</dim>
				</port>
			</input>
			<output>
				<port id="3" precision="FP32" names="147,input.25">
					<dim>-1</dim>
					<dim>32</dim>
					<dim>72</dim>
					<dim>128</dim>
				</port>
			</output>
		</layer>
		<layer id="192" name="__module.model.backbone.stage4.block.5/aten::gelu/Gelu" type="Gelu" version="opset7">
			<data approximation_mode="ERF" />
			<input>
				<port id="0" precision="FP32">
					<dim>-1</dim>
					<dim>32</dim>
					<dim>72</dim>
					<dim>128</dim>
				</port>
			</input>
			<output>
				<port id="1" precision="FP32" names="148,input.27">
					<dim>-1</dim>
					<dim>32</dim>
					<dim>72</dim>
					<dim>128</dim>
				</port>
			</output>
		</layer>
		<layer id="193" name="self.model.backbone.lateral4.weight_compressed" type="Const" version="opset1">
			<data element_type="f16" shape="128, 32, 1, 1" offset="2297454" size="8192" />
			<output>
				<port id="0" precision="FP16" names="self.model.backbone.lateral4.weight">
					<dim>128</dim>
					<dim>32</dim>
					<dim>1</dim>
					<dim>1</dim>
				</port>
			</output>
		</layer>
		<layer id="194" name="self.model.backbone.lateral4.weight" type="Convert" version="opset1">
			<data destination_type="f32" />
			<rt_info>
				<attribute name="decompression" version="0" />
			</rt_info>
			<input>
				<port id="0" precision="FP16">
					<dim>128</dim>
					<dim>32</dim>
					<dim>1</dim>
					<dim>1</dim>
				</port>
			</input>
			<output>
				<port id="1" precision="FP32">
					<dim>128</dim>
					<dim>32</dim>
					<dim>1</dim>
					<dim>1</dim>
				</port>
			</output>
		</layer>
		<layer id="195" name="__module.model.backbone.lateral4/aten::_convolution/Convolution" type="Convolution" version="opset1">
			<data strides="1, 1" dilations="1, 1" pads_begin="0, 0" pads_end="0, 0" auto_pad="explicit" />
			<input>
				<port id="0" precision="FP32">
					<dim>-1</dim>
					<dim>32</dim>
					<dim>72</dim>
					<dim>128</dim>
				</port>
				<port id="1" precision="FP32">
					<dim>128</dim>
					<dim>32</dim>
					<dim>1</dim>
					<dim>1</dim>
				</port>
			</input>
			<output>
				<port id="2" precision="FP32">
					<dim>-1</dim>
					<dim>128</dim>
					<dim>72</dim>
					<dim>128</dim>
				</port>
			</output>
		</layer>
		<layer id="196" name="__module.model.backbone.lateral4/aten::_convolution/Reshape_compressed" type="Const" version="opset1">
			<data element_type="f16" shape="1, 128, 1, 1" offset="2305646" size="256" />
			<output>
				<port id="0" precision="FP16">
					<dim>1</dim>
					<dim>128</dim>
					<dim>1</dim>
					<dim>1</dim>
				</port>
			</output>
		</layer>
		<layer id="197" name="__module.model.backbone.lateral4/aten::_convolution/Reshape" type="Convert" version="opset1">
			<data destination_type="f32" />
			<rt_info>
				<attribute name="decompression" version="0" />
			</rt_info>
			<input>
				<port id="0" precision="FP16">
					<dim>1</dim>
					<dim>128</dim>
					<dim>1</dim>
					<dim>1</dim>
				</port>
			</input>
			<output>
				<port id="1" precision="FP32">
					<dim>1</dim>
					<dim>128</dim>
					<dim>1</dim>
					<dim>1</dim>
				</port>
			</output>
		</layer>
		<layer id="198" name="__module.model.backbone.lateral4/aten::_convolution/Add" type="Add" version="opset1">
			<data auto_broadcast="numpy" />
			<input>
				<port id="0" precision="FP32">
					<dim>-1</dim>
					<dim>128</dim>
					<dim>72</dim>
					<dim>128</dim>
				</port>
				<port id="1" precision="FP32">
					<dim>1</dim>
					<dim>128</dim>
					<dim>1</dim>
					<dim>1</dim>
				</port>
			</input>
			<output>
				<port id="2" precision="FP32" names="224">
					<dim>-1</dim>
					<dim>128</dim>
					<dim>72</dim>
					<dim>128</dim>
				</port>
			</output>
		</layer>
		<layer id="199" name="self.model.backbone.stage8.block.0.weight_compressed" type="Const" version="opset1">
			<data element_type="f16" shape="64, 32, 3, 3" offset="2305902" size="36864" />
			<output>
				<port id="0" precision="FP16" names="self.model.backbone.stage8.block.0.weight">
					<dim>64</dim>
					<dim>32</dim>
					<dim>3</dim>
					<dim>3</dim>
				</port>
			</output>
		</layer>
		<layer id="200" name="self.model.backbone.stage8.block.0.weight" type="Convert" version="opset1">
			<data destination_type="f32" />
			<rt_info>
				<attribute name="decompression" version="0" />
			</rt_info>
			<input>
				<port id="0" precision="FP16">
					<dim>64</dim>
					<dim>32</dim>
					<dim>3</dim>
					<dim>3</dim>
				</port>
			</input>
			<output>
				<port id="1" precision="FP32">
					<dim>64</dim>
					<dim>32</dim>
					<dim>3</dim>
					<dim>3</dim>
				</port>
			</output>
		</layer>
		<layer id="201" name="__module.model.backbone.stage8.block.0/aten::_convolution/Convolution" type="Convolution" version="opset1">
			<data strides="2, 2" dilations="1, 1" pads_begin="1, 1" pads_end="1, 1" auto_pad="explicit" />
			<input>
				<port id="0" precision="FP32">
					<dim>-1</dim>
					<dim>32</dim>
					<dim>72</dim>
					<dim>128</dim>
				</port>
				<port id="1" precision="FP32">
					<dim>64</dim>
					<dim>32</dim>
					<dim>3</dim>
					<dim>3</dim>
				</port>
			</input>
			<output>
				<port id="2" precision="FP32" names="159,input.29">
					<dim>-1</dim>
					<dim>64</dim>
					<dim>36</dim>
					<dim>64</dim>
				</port>
			</output>
		</layer>
		<layer id="202" name="self.model.backbone.stage8.block.1.weight_compressed" type="Const" version="opset1">
			<data element_type="f16" shape="64" offset="2342766" size="128" />
			<output>
				<port id="0" precision="FP16" names="self.model.backbone.stage8.block.1.weight">
					<dim>64</dim>
				</port>
			</output>
		</layer>
		<layer id="203" name="self.model.backbone.stage8.block.1.weight" type="Convert" version="opset1">
			<data destination_type="f32" />
			<rt_info>
				<attribute name="decompression" version="0" />
			</rt_info>
			<input>
				<port id="0" precision="FP16">
					<dim>64</dim>
				</port>
			</input>
			<output>
				<port id="1" precision="FP32">
					<dim>64</dim>
				</port>
			</output>
		</layer>
		<layer id="204" name="self.model.backbone.stage8.block.1.bias_compressed" type="Const" version="opset1">
			<data element_type="f16" shape="64" offset="2342894" size="128" />
			<output>
				<port id="0" precision="FP16" names="self.model.backbone.stage8.block.1.bias">
					<dim>64</dim>
				</port>
			</output>
		</layer>
		<layer id="205" name="self.model.backbone.stage8.block.1.bias" type="Convert" version="opset1">
			<data destination_type="f32" />
			<rt_info>
				<attribute name="decompression" version="0" />
			</rt_info>
			<input>
				<port id="0" precision="FP16">
					<dim>64</dim>
				</port>
			</input>
			<output>
				<port id="1" precision="FP32">
					<dim>64</dim>
				</port>
			</output>
		</layer>
		<layer id="206" name="__module.model.backbone.stage8.block.1/aten::group_norm/GroupNormalization" type="GroupNormalization" version="opset12">
			<data num_groups="8" epsilon="9.9999997473787516e-06" />
			<input>
				<port id="0" precision="FP32">
					<dim>-1</dim>
					<dim>64</dim>
					<dim>36</dim>
					<dim>64</dim>
				</port>
				<port id="1" precision="FP32">
					<dim>64</dim>
				</port>
				<port id="2" precision="FP32">
					<dim>64</dim>
				</port>
			</input>
			<output>
				<port id="3" precision="FP32" names="162,input.31">
					<dim>-1</dim>
					<dim>64</dim>
					<dim>36</dim>
					<dim>64</dim>
				</port>
			</output>
		</layer>
		<layer id="207" name="__module.model.backbone.stage8.block.2/aten::gelu/Gelu" type="Gelu" version="opset7">
			<data approximation_mode="ERF" />
			<input>
				<port id="0" precision="FP32">
					<dim>-1</dim>
					<dim>64</dim>
					<dim>36</dim>
					<dim>64</dim>
				</port>
			</input>
			<output>
				<port id="1" precision="FP32" names="163,input.33">
					<dim>-1</dim>
					<dim>64</dim>
					<dim>36</dim>
					<dim>64</dim>
				</port>
			</output>
		</layer>
		<layer id="208" name="self.model.backbone.stage8.block.3.weight_compressed" type="Const" version="opset1">
			<data element_type="f16" shape="64, 64, 3, 3" offset="2343022" size="73728" />
			<output>
				<port id="0" precision="FP16" names="self.model.backbone.stage8.block.3.weight">
					<dim>64</dim>
					<dim>64</dim>
					<dim>3</dim>
					<dim>3</dim>
				</port>
			</output>
		</layer>
		<layer id="209" name="self.model.backbone.stage8.block.3.weight" type="Convert" version="opset1">
			<data destination_type="f32" />
			<rt_info>
				<attribute name="decompression" version="0" />
			</rt_info>
			<input>
				<port id="0" precision="FP16">
					<dim>64</dim>
					<dim>64</dim>
					<dim>3</dim>
					<dim>3</dim>
				</port>
			</input>
			<output>
				<port id="1" precision="FP32">
					<dim>64</dim>
					<dim>64</dim>
					<dim>3</dim>
					<dim>3</dim>
				</port>
			</output>
		</layer>
		<layer id="210" name="__module.model.backbone.stage8.block.3/aten::_convolution/Convolution" type="Convolution" version="opset1">
			<data strides="1, 1" dilations="1, 1" pads_begin="1, 1" pads_end="1, 1" auto_pad="explicit" />
			<input>
				<port id="0" precision="FP32">
					<dim>-1</dim>
					<dim>64</dim>
					<dim>36</dim>
					<dim>64</dim>
				</port>
				<port id="1" precision="FP32">
					<dim>64</dim>
					<dim>64</dim>
					<dim>3</dim>
					<dim>3</dim>
				</port>
			</input>
			<output>
				<port id="2" precision="FP32" names="169,input.35">
					<dim>-1</dim>
					<dim>64</dim>
					<dim>36</dim>
					<dim>64</dim>
				</port>
			</output>
		</layer>
		<layer id="211" name="self.model.backbone.stage8.block.4.weight_compressed" type="Const" version="opset1">
			<data element_type="f16" shape="64" offset="2416750" size="128" />
			<output>
				<port id="0" precision="FP16" names="self.model.backbone.stage8.block.4.weight">
					<dim>64</dim>
				</port>
			</output>
		</layer>
		<layer id="212" name="self.model.backbone.stage8.block.4.weight" type="Convert" version="opset1">
			<data destination_type="f32" />
			<rt_info>
				<attribute name="decompression" version="0" />
			</rt_info>
			<input>
				<port id="0" precision="FP16">
					<dim>64</dim>
				</port>
			</input>
			<output>
				<port id="1" precision="FP32">
					<dim>64</dim>
				</port>
			</output>
		</layer>
		<layer id="213" name="self.model.backbone.stage8.block.4.bias_compressed" type="Const" version="opset1">
			<data element_type="f16" shape="64" offset="2416878" size="128" />
			<output>
				<port id="0" precision="FP16" names="self.model.backbone.stage8.block.4.bias">
					<dim>64</dim>
				</port>
			</output>
		</layer>
		<layer id="214" name="self.model.backbone.stage8.block.4.bias" type="Convert" version="opset1">
			<data destination_type="f32" />
			<rt_info>
				<attribute name="decompression" version="0" />
			</rt_info>
			<input>
				<port id="0" precision="FP16">
					<dim>64</dim>
				</port>
			</input>
			<output>
				<port id="1" precision="FP32">
					<dim>64</dim>
				</port>
			</output>
		</layer>
		<layer id="215" name="__module.model.backbone.stage8.block.4/aten::group_norm/GroupNormalization" type="GroupNormalization" version="opset12">
			<data num_groups="8" epsilon="9.9999997473787516e-06" />
			<input>
				<port id="0" precision="FP32">
					<dim>-1</dim>
					<dim>64</dim>
					<dim>36</dim>
					<dim>64</dim>
				</port>
				<port id="1" precision="FP32">
					<dim>64</dim>
				</port>
				<port id="2" precision="FP32">
					<dim>64</dim>
				</port>
			</input>
			<output>
				<port id="3" precision="FP32" names="172,input.37">
					<dim>-1</dim>
					<dim>64</dim>
					<dim>36</dim>
					<dim>64</dim>
				</port>
			</output>
		</layer>
		<layer id="216" name="__module.model.backbone.stage8.block.5/aten::gelu/Gelu" type="Gelu" version="opset7">
			<data approximation_mode="ERF" />
			<input>
				<port id="0" precision="FP32">
					<dim>-1</dim>
					<dim>64</dim>
					<dim>36</dim>
					<dim>64</dim>
				</port>
			</input>
			<output>
				<port id="1" precision="FP32" names="173,input.39">
					<dim>-1</dim>
					<dim>64</dim>
					<dim>36</dim>
					<dim>64</dim>
				</port>
			</output>
		</layer>
		<layer id="217" name="self.model.backbone.lateral8.weight_compressed" type="Const" version="opset1">
			<data element_type="f16" shape="128, 64, 1, 1" offset="2417006" size="16384" />
			<output>
				<port id="0" precision="FP16" names="self.model.backbone.lateral8.weight">
					<dim>128</dim>
					<dim>64</dim>
					<dim>1</dim>
					<dim>1</dim>
				</port>
			</output>
		</layer>
		<layer id="218" name="self.model.backbone.lateral8.weight" type="Convert" version="opset1">
			<data destination_type="f32" />
			<rt_info>
				<attribute name="decompression" version="0" />
			</rt_info>
			<input>
				<port id="0" precision="FP16">
					<dim>128</dim>
					<dim>64</dim>
					<dim>1</dim>
					<dim>1</dim>
				</port>
			</input>
			<output>
				<port id="1" precision="FP32">
					<dim>128</dim>
					<dim>64</dim>
					<dim>1</dim>
					<dim>1</dim>
				</port>
			</output>
		</layer>
		<layer id="219" name="__module.model.backbone.lateral8/aten::_convolution/Convolution" type="Convolution" version="opset1">
			<data strides="1, 1" dilations="1, 1" pads_begin="0, 0" pads_end="0, 0" auto_pad="explicit" />
			<input>
				<port id="0" precision="FP32">
					<dim>-1</dim>
					<dim>64</dim>
					<dim>36</dim>
					<dim>64</dim>
				</port>
				<port id="1" precision="FP32">
					<dim>128</dim>
					<dim>64</dim>
					<dim>1</dim>
					<dim>1</dim>
				</port>
			</input>
			<output>
				<port id="2" precision="FP32">
					<dim>-1</dim>
					<dim>128</dim>
					<dim>36</dim>
					<dim>64</dim>
				</port>
			</output>
		</layer>
		<layer id="220" name="__module.model.backbone.lateral8/aten::_convolution/Reshape" type="Const" version="opset1">
			<data element_type="f32" shape="1, 128, 1, 1" offset="2433390" size="512" />
			<output>
				<port id="0" precision="FP32">
					<dim>1</dim>
					<dim>128</dim>
					<dim>1</dim>
					<dim>1</dim>
				</port>
			</output>
		</layer>
		<layer id="221" name="__module.model.backbone.lateral8/aten::_convolution/Add" type="Add" version="opset1">
			<data auto_broadcast="numpy" />
			<input>
				<port id="0" precision="FP32">
					<dim>-1</dim>
					<dim>128</dim>
					<dim>36</dim>
					<dim>64</dim>
				</port>
				<port id="1" precision="FP32">
					<dim>1</dim>
					<dim>128</dim>
					<dim>1</dim>
					<dim>1</dim>
				</port>
			</input>
			<output>
				<port id="2" precision="FP32" names="212">
					<dim>-1</dim>
					<dim>128</dim>
					<dim>36</dim>
					<dim>64</dim>
				</port>
			</output>
		</layer>
		<layer id="222" name="self.model.backbone.stage16.block.0.weight_compressed" type="Const" version="opset1">
			<data element_type="f16" shape="128, 64, 3, 3" offset="2433902" size="147456" />
			<output>
				<port id="0" precision="FP16" names="self.model.backbone.stage16.block.0.weight">
					<dim>128</dim>
					<dim>64</dim>
					<dim>3</dim>
					<dim>3</dim>
				</port>
			</output>
		</layer>
		<layer id="223" name="self.model.backbone.stage16.block.0.weight" type="Convert" version="opset1">
			<data destination_type="f32" />
			<rt_info>
				<attribute name="decompression" version="0" />
			</rt_info>
			<input>
				<port id="0" precision="FP16">
					<dim>128</dim>
					<dim>64</dim>
					<dim>3</dim>
					<dim>3</dim>
				</port>
			</input>
			<output>
				<port id="1" precision="FP32">
					<dim>128</dim>
					<dim>64</dim>
					<dim>3</dim>
					<dim>3</dim>
				</port>
			</output>
		</layer>
		<layer id="224" name="__module.model.backbone.stage16.block.0/aten::_convolution/Convolution" type="Convolution" version="opset1">
			<data strides="2, 2" dilations="1, 1" pads_begin="1, 1" pads_end="1, 1" auto_pad="explicit" />
			<input>
				<port id="0" precision="FP32">
					<dim>-1</dim>
					<dim>64</dim>
					<dim>36</dim>
					<dim>64</dim>
				</port>
				<port id="1" precision="FP32">
					<dim>128</dim>
					<dim>64</dim>
					<dim>3</dim>
					<dim>3</dim>
				</port>
			</input>
			<output>
				<port id="2" precision="FP32" names="184,input.41">
					<dim>-1</dim>
					<dim>128</dim>
					<dim>18</dim>
					<dim>32</dim>
				</port>
			</output>
		</layer>
		<layer id="225" name="self.model.backbone.stage16.block.1.weight_compressed" type="Const" version="opset1">
			<data element_type="f16" shape="128" offset="2581358" size="256" />
			<output>
				<port id="0" precision="FP16" names="self.model.backbone.stage16.block.1.weight">
					<dim>128</dim>
				</port>
			</output>
		</layer>
		<layer id="226" name="self.model.backbone.stage16.block.1.weight" type="Convert" version="opset1">
			<data destination_type="f32" />
			<rt_info>
				<attribute name="decompression" version="0" />
			</rt_info>
			<input>
				<port id="0" precision="FP16">
					<dim>128</dim>
				</port>
			</input>
			<output>
				<port id="1" precision="FP32">
					<dim>128</dim>
				</port>
			</output>
		</layer>
		<layer id="227" name="self.model.backbone.stage16.block.1.bias_compressed" type="Const" version="opset1">
			<data element_type="f16" shape="128" offset="2581614" size="256" />
			<output>
				<port id="0" precision="FP16" names="self.model.backbone.stage16.block.1.bias">
					<dim>128</dim>
				</port>
			</output>
		</layer>
		<layer id="228" name="self.model.backbone.stage16.block.1.bias" type="Convert" version="opset1">
			<data destination_type="f32" />
			<rt_info>
				<attribute name="decompression" version="0" />
			</rt_info>
			<input>
				<port id="0" precision="FP16">
					<dim>128</dim>
				</port>
			</input>
			<output>
				<port id="1" precision="FP32">
					<dim>128</dim>
				</port>
			</output>
		</layer>
		<layer id="229" name="__module.model.backbone.stage16.block.1/aten::group_norm/GroupNormalization" type="GroupNormalization" version="opset12">
			<data num_groups="8" epsilon="9.9999997473787516e-06" />
			<input>
				<port id="0" precision="FP32">
					<dim>-1</dim>
					<dim>128</dim>
					<dim>18</dim>
					<dim>32</dim>
				</port>
				<port id="1" precision="FP32">
					<dim>128</dim>
				</port>
				<port id="2" precision="FP32">
					<dim>128</dim>
				</port>
			</input>
			<output>
				<port id="3" precision="FP32" names="187,input.43">
					<dim>-1</dim>
					<dim>128</dim>
					<dim>18</dim>
					<dim>32</dim>
				</port>
			</output>
		</layer>
		<layer id="230" name="__module.model.backbone.stage16.block.2/aten::gelu/Gelu" type="Gelu" version="opset7">
			<data approximation_mode="ERF" />
			<input>
				<port id="0" precision="FP32">
					<dim>-1</dim>
					<dim>128</dim>
					<dim>18</dim>
					<dim>32</dim>
				</port>
			</input>
			<output>
				<port id="1" precision="FP32" names="188,input.45">
					<dim>-1</dim>
					<dim>128</dim>
					<dim>18</dim>
					<dim>32</dim>
				</port>
			</output>
		</layer>
		<layer id="231" name="self.model.backbone.stage16.block.3.weight_compressed" type="Const" version="opset1">
			<data element_type="f16" shape="128, 128, 3, 3" offset="2581870" size="294912" />
			<output>
				<port id="0" precision="FP16" names="self.model.backbone.stage16.block.3.weight">
					<dim>128</dim>
					<dim>128</dim>
					<dim>3</dim>
					<dim>3</dim>
				</port>
			</output>
		</layer>
		<layer id="232" name="self.model.backbone.stage16.block.3.weight" type="Convert" version="opset1">
			<data destination_type="f32" />
			<rt_info>
				<attribute name="decompression" version="0" />
			</rt_info>
			<input>
				<port id="0" precision="FP16">
					<dim>128</dim>
					<dim>128</dim>
					<dim>3</dim>
					<dim>3</dim>
				</port>
			</input>
			<output>
				<port id="1" precision="FP32">
					<dim>128</dim>
					<dim>128</dim>
					<dim>3</dim>
					<dim>3</dim>
				</port>
			</output>
		</layer>
		<layer id="233" name="__module.model.backbone.stage16.block.3/aten::_convolution/Convolution" type="Convolution" version="opset1">
			<data strides="1, 1" dilations="1, 1" pads_begin="1, 1" pads_end="1, 1" auto_pad="explicit" />
			<input>
				<port id="0" precision="FP32">
					<dim>-1</dim>
					<dim>128</dim>
					<dim>18</dim>
					<dim>32</dim>
				</port>
				<port id="1" precision="FP32">
					<dim>128</dim>
					<dim>128</dim>
					<dim>3</dim>
					<dim>3</dim>
				</port>
			</input>
			<output>
				<port id="2" precision="FP32" names="194,input.47">
					<dim>-1</dim>
					<dim>128</dim>
					<dim>18</dim>
					<dim>32</dim>
				</port>
			</output>
		</layer>
		<layer id="234" name="self.model.backbone.stage16.block.4.weight_compressed" type="Const" version="opset1">
			<data element_type="f16" shape="128" offset="2876782" size="256" />
			<output>
				<port id="0" precision="FP16" names="self.model.backbone.stage16.block.4.weight">
					<dim>128</dim>
				</port>
			</output>
		</layer>
		<layer id="235" name="self.model.backbone.stage16.block.4.weight" type="Convert" version="opset1">
			<data destination_type="f32" />
			<rt_info>
				<attribute name="decompression" version="0" />
			</rt_info>
			<input>
				<port id="0" precision="FP16">
					<dim>128</dim>
				</port>
			</input>
			<output>
				<port id="1" precision="FP32">
					<dim>128</dim>
				</port>
			</output>
		</layer>
		<layer id="236" name="self.model.backbone.stage16.block.4.bias_compressed" type="Const" version="opset1">
			<data element_type="f16" shape="128" offset="2877038" size="256" />
			<output>
				<port id="0" precision="FP16" names="self.model.backbone.stage16.block.4.bias">
					<dim>128</dim>
				</port>
			</output>
		</layer>
		<layer id="237" name="self.model.backbone.stage16.block.4.bias" type="Convert" version="opset1">
			<data destination_type="f32" />
			<rt_info>
				<attribute name="decompression" version="0" />
			</rt_info>
			<input>
				<port id="0" precision="FP16">
					<dim>128</dim>
				</port>
			</input>
			<output>
				<port id="1" precision="FP32">
					<dim>128</dim>
				</port>
			</output>
		</layer>
		<layer id="238" name="__module.model.backbone.stage16.block.4/aten::group_norm/GroupNormalization" type="GroupNormalization" version="opset12">
			<data num_groups="8" epsilon="9.9999997473787516e-06" />
			<input>
				<port id="0" precision="FP32">
					<dim>-1</dim>
					<dim>128</dim>
					<dim>18</dim>
					<dim>32</dim>
				</port>
				<port id="1" precision="FP32">
					<dim>128</dim>
				</port>
				<port id="2" precision="FP32">
					<dim>128</dim>
				</port>
			</input>
			<output>
				<port id="3" precision="FP32" names="197,input.49">
					<dim>-1</dim>
					<dim>128</dim>
					<dim>18</dim>
					<dim>32</dim>
				</port>
			</output>
		</layer>
		<layer id="239" name="__module.model.backbone.stage16.block.5/aten::gelu/Gelu" type="Gelu" version="opset7">
			<data approximation_mode="ERF" />
			<input>
				<port id="0" precision="FP32">
					<dim>-1</dim>
					<dim>128</dim>
					<dim>18</dim>
					<dim>32</dim>
				</port>
			</input>
			<output>
				<port id="1" precision="FP32" names="198,input.51">
					<dim>-1</dim>
					<dim>128</dim>
					<dim>18</dim>
					<dim>32</dim>
				</port>
			</output>
		</layer>
		<layer id="240" name="self.model.backbone.lateral16.weight_compressed" type="Const" version="opset1">
			<data element_type="f16" shape="128, 128, 1, 1" offset="2877294" size="32768" />
			<output>
				<port id="0" precision="FP16" names="self.model.backbone.lateral16.weight">
					<dim>128</dim>
					<dim>128</dim>
					<dim>1</dim>
					<dim>1</dim>
				</port>
			</output>
		</layer>
		<layer id="241" name="self.model.backbone.lateral16.weight" type="Convert" version="opset1">
			<data destination_type="f32" />
			<rt_info>
				<attribute name="decompression" version="0" />
			</rt_info>
			<input>
				<port id="0" precision="FP16">
					<dim>128</dim>
					<dim>128</dim>
					<dim>1</dim>
					<dim>1</dim>
				</port>
			</input>
			<output>
				<port id="1" precision="FP32">
					<dim>128</dim>
					<dim>128</dim>
					<dim>1</dim>
					<dim>1</dim>
				</port>
			</output>
		</layer>
		<layer id="242" name="__module.model.backbone.lateral16/aten::_convolution/Convolution" type="Convolution" version="opset1">
			<data strides="1, 1" dilations="1, 1" pads_begin="0, 0" pads_end="0, 0" auto_pad="explicit" />
			<input>
				<port id="0" precision="FP32">
					<dim>-1</dim>
					<dim>128</dim>
					<dim>18</dim>
					<dim>32</dim>
				</port>
				<port id="1" precision="FP32">
					<dim>128</dim>
					<dim>128</dim>
					<dim>1</dim>
					<dim>1</dim>
				</port>
			</input>
			<output>
				<port id="2" precision="FP32">
					<dim>-1</dim>
					<dim>128</dim>
					<dim>18</dim>
					<dim>32</dim>
				</port>
			</output>
		</layer>
		<layer id="243" name="__module.model.backbone.lateral16/aten::_convolution/Reshape_compressed" type="Const" version="opset1">
			<data element_type="f16" shape="1, 128, 1, 1" offset="2910062" size="256" />
			<output>
				<port id="0" precision="FP16">
					<dim>1</dim>
					<dim>128</dim>
					<dim>1</dim>
					<dim>1</dim>
				</port>
			</output>
		</layer>
		<layer id="244" name="__module.model.backbone.lateral16/aten::_convolution/Reshape" type="Convert" version="opset1">
			<data destination_type="f32" />
			<rt_info>
				<attribute name="decompression" version="0" />
			</rt_info>
			<input>
				<port id="0" precision="FP16">
					<dim>1</dim>
					<dim>128</dim>
					<dim>1</dim>
					<dim>1</dim>
				</port>
			</input>
			<output>
				<port id="1" precision="FP32">
					<dim>1</dim>
					<dim>128</dim>
					<dim>1</dim>
					<dim>1</dim>
				</port>
			</output>
		</layer>
		<layer id="245" name="__module.model.backbone.lateral16/aten::_convolution/Add" type="Add" version="opset1">
			<data auto_broadcast="numpy" />
			<input>
				<port id="0" precision="FP32">
					<dim>-1</dim>
					<dim>128</dim>
					<dim>18</dim>
					<dim>32</dim>
				</port>
				<port id="1" precision="FP32">
					<dim>1</dim>
					<dim>128</dim>
					<dim>1</dim>
					<dim>1</dim>
				</port>
			</input>
			<output>
				<port id="2" precision="FP32" names="205,input.53">
					<dim>-1</dim>
					<dim>128</dim>
					<dim>18</dim>
					<dim>32</dim>
				</port>
			</output>
		</layer>
		<layer id="246" name="__module.model.backbone/aten::size/ShapeOf" type="ShapeOf" version="opset3">
			<data output_type="i64" />
			<input>
				<port id="0" precision="FP32">
					<dim>-1</dim>
					<dim>64</dim>
					<dim>36</dim>
					<dim>64</dim>
				</port>
			</input>
			<output>
				<port id="1" precision="I64">
					<dim>4</dim>
				</port>
			</output>
		</layer>
		<layer id="247" name="Constant_42116" type="Const" version="opset1">
			<data element_type="i64" shape="2" offset="2910318" size="16" />
			<rt_info>
				<attribute name="precise" version="0" />
			</rt_info>
			<output>
				<port id="0" precision="I64">
					<dim>2</dim>
				</port>
			</output>
		</layer>
		<layer id="248" name="Constant_42117" type="Const" version="opset1">
			<data element_type="i64" shape="" offset="16" size="8" />
			<rt_info>
				<attribute name="precise" version="0" />
			</rt_info>
			<output>
				<port id="0" precision="I64" />
			</output>
		</layer>
		<layer id="249" name="Gather_42118" type="Gather" version="opset8">
			<data batch_dims="0" />
			<input>
				<port id="0" precision="I64">
					<dim>4</dim>
				</port>
				<port id="1" precision="I64">
					<dim>2</dim>
				</port>
				<port id="2" precision="I64" />
			</input>
			<output>
				<port id="3" precision="I64">
					<dim>2</dim>
				</port>
			</output>
		</layer>
		<layer id="250" name="Convert_50360" type="Convert" version="opset1">
			<data destination_type="i32" />
			<input>
				<port id="0" precision="I64">
					<dim>2</dim>
				</port>
			</input>
			<output>
				<port id="1" precision="I32">
					<dim>2</dim>
				</port>
			</output>
		</layer>
		<layer id="251" name="Constant_569" type="Const" version="opset1">
			<data element_type="i32" shape="2" offset="32" size="8" />
			<output>
				<port id="0" precision="I32">
					<dim>2</dim>
				</port>
			</output>
		</layer>
		<layer id="252" name="__module.model.backbone/aten::upsample_bilinear2d/Interpolate" type="Interpolate" version="opset11">
			<data mode="linear_onnx" shape_calculation_mode="sizes" coordinate_transformation_mode="pytorch_half_pixel" nearest_mode="floor" antialias="false" pads_begin="0, 0, 0, 0" pads_end="0, 0, 0, 0" cube_coeff="-0.75" />
			<input>
				<port id="0" precision="FP32">
					<dim>-1</dim>
					<dim>128</dim>
					<dim>18</dim>
					<dim>32</dim>
				</port>
				<port id="1" precision="I32">
					<dim>2</dim>
				</port>
				<port id="2" precision="I32">
					<dim>2</dim>
				</port>
			</input>
			<output>
				<port id="3" precision="FP32" names="216">
					<dim>-1</dim>
					<dim>128</dim>
					<dim>36</dim>
					<dim>64</dim>
				</port>
			</output>
		</layer>
		<layer id="253" name="__module.model.backbone/aten::add/Add" type="Add" version="opset1">
			<data auto_broadcast="numpy" />
			<input>
				<port id="0" precision="FP32">
					<dim>-1</dim>
					<dim>128</dim>
					<dim>36</dim>
					<dim>64</dim>
				</port>
				<port id="1" precision="FP32">
					<dim>-1</dim>
					<dim>128</dim>
					<dim>36</dim>
					<dim>64</dim>
				</port>
			</input>
			<output>
				<port id="2" precision="FP32" names="217,input.55">
					<dim>-1</dim>
					<dim>128</dim>
					<dim>36</dim>
					<dim>64</dim>
				</port>
			</output>
		</layer>
		<layer id="254" name="__module.model.backbone/aten::size/ShapeOf_2" type="ShapeOf" version="opset3">
			<data output_type="i64" />
			<input>
				<port id="0" precision="FP32">
					<dim>-1</dim>
					<dim>32</dim>
					<dim>72</dim>
					<dim>128</dim>
				</port>
			</input>
			<output>
				<port id="1" precision="I64">
					<dim>4</dim>
				</port>
			</output>
		</layer>
		<layer id="255" name="Constant_42120" type="Const" version="opset1">
			<data element_type="i64" shape="2" offset="2910318" size="16" />
			<rt_info>
				<attribute name="precise" version="0" />
			</rt_info>
			<output>
				<port id="0" precision="I64">
					<dim>2</dim>
				</port>
			</output>
		</layer>
		<layer id="256" name="Constant_42121" type="Const" version="opset1">
			<data element_type="i64" shape="" offset="16" size="8" />
			<rt_info>
				<attribute name="precise" version="0" />
			</rt_info>
			<output>
				<port id="0" precision="I64" />
			</output>
		</layer>
		<layer id="257" name="Gather_42122" type="Gather" version="opset8">
			<data batch_dims="0" />
			<input>
				<port id="0" precision="I64">
					<dim>4</dim>
				</port>
				<port id="1" precision="I64">
					<dim>2</dim>
				</port>
				<port id="2" precision="I64" />
			</input>
			<output>
				<port id="3" precision="I64">
					<dim>2</dim>
				</port>
			</output>
		</layer>
		<layer id="258" name="Convert_50367" type="Convert" version="opset1">
			<data destination_type="i32" />
			<input>
				<port id="0" precision="I64">
					<dim>2</dim>
				</port>
			</input>
			<output>
				<port id="1" precision="I32">
					<dim>2</dim>
				</port>
			</output>
		</layer>
		<layer id="259" name="Constant_645" type="Const" version="opset1">
			<data element_type="i32" shape="2" offset="32" size="8" />
			<output>
				<port id="0" precision="I32">
					<dim>2</dim>
				</port>
			</output>
		</layer>
		<layer id="260" name="__module.model.backbone/aten::upsample_bilinear2d/Interpolate_1" type="Interpolate" version="opset11">
			<data mode="linear_onnx" shape_calculation_mode="sizes" coordinate_transformation_mode="pytorch_half_pixel" nearest_mode="floor" antialias="false" pads_begin="0, 0, 0, 0" pads_end="0, 0, 0, 0" cube_coeff="-0.75" />
			<input>
				<port id="0" precision="FP32">
					<dim>-1</dim>
					<dim>128</dim>
					<dim>36</dim>
					<dim>64</dim>
				</port>
				<port id="1" precision="I32">
					<dim>2</dim>
				</port>
				<port id="2" precision="I32">
					<dim>2</dim>
				</port>
			</input>
			<output>
				<port id="3" precision="FP32" names="228">
					<dim>-1</dim>
					<dim>128</dim>
					<dim>72</dim>
					<dim>128</dim>
				</port>
			</output>
		</layer>
		<layer id="261" name="__module.model.backbone/aten::add/Add_1" type="Add" version="opset1">
			<data auto_broadcast="numpy" />
			<input>
				<port id="0" precision="FP32">
					<dim>-1</dim>
					<dim>128</dim>
					<dim>72</dim>
					<dim>128</dim>
				</port>
				<port id="1" precision="FP32">
					<dim>-1</dim>
					<dim>128</dim>
					<dim>72</dim>
					<dim>128</dim>
				</port>
			</input>
			<output>
				<port id="2" precision="FP32" names="229,input.57">
					<dim>-1</dim>
					<dim>128</dim>
					<dim>72</dim>
					<dim>128</dim>
				</port>
			</output>
		</layer>
		<layer id="262" name="self.model.backbone.refine4.block.0.weight_compressed" type="Const" version="opset1">
			<data element_type="f16" shape="128, 128, 3, 3" offset="2910334" size="294912" />
			<output>
				<port id="0" precision="FP16" names="self.model.backbone.refine4.block.0.weight">
					<dim>128</dim>
					<dim>128</dim>
					<dim>3</dim>
					<dim>3</dim>
				</port>
			</output>
		</layer>
		<layer id="263" name="self.model.backbone.refine4.block.0.weight" type="Convert" version="opset1">
			<data destination_type="f32" />
			<rt_info>
				<attribute name="decompression" version="0" />
			</rt_info>
			<input>
				<port id="0" precision="FP16">
					<dim>128</dim>
					<dim>128</dim>
					<dim>3</dim>
					<dim>3</dim>
				</port>
			</input>
			<output>
				<port id="1" precision="FP32">
					<dim>128</dim>
					<dim>128</dim>
					<dim>3</dim>
					<dim>3</dim>
				</port>
			</output>
		</layer>
		<layer id="264" name="__module.model.backbone.refine4.block.0/aten::_convolution/Convolution" type="Convolution" version="opset1">
			<data strides="1, 1" dilations="1, 1" pads_begin="1, 1" pads_end="1, 1" auto_pad="explicit" />
			<input>
				<port id="0" precision="FP32">
					<dim>-1</dim>
					<dim>128</dim>
					<dim>72</dim>
					<dim>128</dim>
				</port>
				<port id="1" precision="FP32">
					<dim>128</dim>
					<dim>128</dim>
					<dim>3</dim>
					<dim>3</dim>
				</port>
			</input>
			<output>
				<port id="2" precision="FP32" names="240,input.59">
					<dim>-1</dim>
					<dim>128</dim>
					<dim>72</dim>
					<dim>128</dim>
				</port>
			</output>
		</layer>
		<layer id="265" name="self.model.backbone.refine4.block.1.weight_compressed" type="Const" version="opset1">
			<data element_type="f16" shape="128" offset="3205246" size="256" />
			<output>
				<port id="0" precision="FP16" names="self.model.backbone.refine4.block.1.weight">
					<dim>128</dim>
				</port>
			</output>
		</layer>
		<layer id="266" name="self.model.backbone.refine4.block.1.weight" type="Convert" version="opset1">
			<data destination_type="f32" />
			<rt_info>
				<attribute name="decompression" version="0" />
			</rt_info>
			<input>
				<port id="0" precision="FP16">
					<dim>128</dim>
				</port>
			</input>
			<output>
				<port id="1" precision="FP32">
					<dim>128</dim>
				</port>
			</output>
		</layer>
		<layer id="267" name="self.model.backbone.refine4.block.1.bias_compressed" type="Const" version="opset1">
			<data element_type="f16" shape="128" offset="3205502" size="256" />
			<output>
				<port id="0" precision="FP16" names="self.model.backbone.refine4.block.1.bias">
					<dim>128</dim>
				</port>
			</output>
		</layer>
		<layer id="268" name="self.model.backbone.refine4.block.1.bias" type="Convert" version="opset1">
			<data destination_type="f32" />
			<rt_info>
				<attribute name="decompression" version="0" />
			</rt_info>
			<input>
				<port id="0" precision="FP16">
					<dim>128</dim>
				</port>
			</input>
			<output>
				<port id="1" precision="FP32">
					<dim>128</dim>
				</port>
			</output>
		</layer>
		<layer id="269" name="__module.model.backbone.refine4.block.1/aten::group_norm/GroupNormalization" type="GroupNormalization" version="opset12">
			<data num_groups="8" epsilon="9.9999997473787516e-06" />
			<input>
				<port id="0" precision="FP32">
					<dim>-1</dim>
					<dim>128</dim>
					<dim>72</dim>
					<dim>128</dim>
				</port>
				<port id="1" precision="FP32">
					<dim>128</dim>
				</port>
				<port id="2" precision="FP32">
					<dim>128</dim>
				</port>
			</input>
			<output>
				<port id="3" precision="FP32" names="243,input.61">
					<dim>-1</dim>
					<dim>128</dim>
					<dim>72</dim>
					<dim>128</dim>
				</port>
			</output>
		</layer>
		<layer id="270" name="__module.model.backbone.refine4.block.2/aten::gelu/Gelu" type="Gelu" version="opset7">
			<data approximation_mode="ERF" />
			<input>
				<port id="0" precision="FP32">
					<dim>-1</dim>
					<dim>128</dim>
					<dim>72</dim>
					<dim>128</dim>
				</port>
			</input>
			<output>
				<port id="1" precision="FP32" names="244,input.63">
					<dim>-1</dim>
					<dim>128</dim>
					<dim>72</dim>
					<dim>128</dim>
				</port>
			</output>
		</layer>
		<layer id="271" name="self.model.backbone.refine4.block.3.weight_compressed" type="Const" version="opset1">
			<data element_type="f16" shape="128, 128, 3, 3" offset="3205758" size="294912" />
			<output>
				<port id="0" precision="FP16" names="self.model.backbone.refine4.block.3.weight">
					<dim>128</dim>
					<dim>128</dim>
					<dim>3</dim>
					<dim>3</dim>
				</port>
			</output>
		</layer>
		<layer id="272" name="self.model.backbone.refine4.block.3.weight" type="Convert" version="opset1">
			<data destination_type="f32" />
			<rt_info>
				<attribute name="decompression" version="0" />
			</rt_info>
			<input>
				<port id="0" precision="FP16">
					<dim>128</dim>
					<dim>128</dim>
					<dim>3</dim>
					<dim>3</dim>
				</port>
			</input>
			<output>
				<port id="1" precision="FP32">
					<dim>128</dim>
					<dim>128</dim>
					<dim>3</dim>
					<dim>3</dim>
				</port>
			</output>
		</layer>
		<layer id="273" name="__module.model.backbone.refine4.block.3/aten::_convolution/Convolution" type="Convolution" version="opset1">
			<data strides="1, 1" dilations="1, 1" pads_begin="1, 1" pads_end="1, 1" auto_pad="explicit" />
			<input>
				<port id="0" precision="FP32">
					<dim>-1</dim>
					<dim>128</dim>
					<dim>72</dim>
					<dim>128</dim>
				</port>
				<port id="1" precision="FP32">
					<dim>128</dim>
					<dim>128</dim>
					<dim>3</dim>
					<dim>3</dim>
				</port>
			</input>
			<output>
				<port id="2" precision="FP32" names="250,input.65">
					<dim>-1</dim>
					<dim>128</dim>
					<dim>72</dim>
					<dim>128</dim>
				</port>
			</output>
		</layer>
		<layer id="274" name="self.model.backbone.refine4.block.4.weight_compressed" type="Const" version="opset1">
			<data element_type="f16" shape="128" offset="3500670" size="256" />
			<output>
				<port id="0" precision="FP16" names="self.model.backbone.refine4.block.4.weight">
					<dim>128</dim>
				</port>
			</output>
		</layer>
		<layer id="275" name="self.model.backbone.refine4.block.4.weight" type="Convert" version="opset1">
			<data destination_type="f32" />
			<rt_info>
				<attribute name="decompression" version="0" />
			</rt_info>
			<input>
				<port id="0" precision="FP16">
					<dim>128</dim>
				</port>
			</input>
			<output>
				<port id="1" precision="FP32">
					<dim>128</dim>
				</port>
			</output>
		</layer>
		<layer id="276" name="self.model.backbone.refine4.block.4.bias_compressed" type="Const" version="opset1">
			<data element_type="f16" shape="128" offset="3500926" size="256" />
			<output>
				<port id="0" precision="FP16" names="self.model.backbone.refine4.block.4.bias">
					<dim>128</dim>
				</port>
			</output>
		</layer>
		<layer id="277" name="self.model.backbone.refine4.block.4.bias" type="Convert" version="opset1">
			<data destination_type="f32" />
			<rt_info>
				<attribute name="decompression" version="0" />
			</rt_info>
			<input>
				<port id="0" precision="FP16">
					<dim>128</dim>
				</port>
			</input>
			<output>
				<port id="1" precision="FP32">
					<dim>128</dim>
				</port>
			</output>
		</layer>
		<layer id="278" name="__module.model.backbone.refine4.block.4/aten::group_norm/GroupNormalization" type="GroupNormalization" version="opset12">
			<data num_groups="8" epsilon="9.9999997473787516e-06" />
			<input>
				<port id="0" precision="FP32">
					<dim>-1</dim>
					<dim>128</dim>
					<dim>72</dim>
					<dim>128</dim>
				</port>
				<port id="1" precision="FP32">
					<dim>128</dim>
				</port>
				<port id="2" precision="FP32">
					<dim>128</dim>
				</port>
			</input>
			<output>
				<port id="3" precision="FP32" names="253,input.67">
					<dim>-1</dim>
					<dim>128</dim>
					<dim>72</dim>
					<dim>128</dim>
				</port>
			</output>
		</layer>
		<layer id="279" name="__module.model.backbone.refine4.block.5/aten::gelu/Gelu" type="Gelu" version="opset7">
			<data approximation_mode="ERF" />
			<input>
				<port id="0" precision="FP32">
					<dim>-1</dim>
					<dim>128</dim>
					<dim>72</dim>
					<dim>128</dim>
				</port>
			</input>
			<output>
				<port id="1" precision="FP32" names="254,value.1">
					<dim>-1</dim>
					<dim>128</dim>
					<dim>72</dim>
					<dim>128</dim>
				</port>
			</output>
		</layer>
		<layer id="280" name="Constant_927" type="Const" version="opset1">
			<data element_type="i64" shape="1" offset="3501182" size="8" />
			<rt_info>
				<attribute name="precise" version="0" />
			</rt_info>
			<output>
				<port id="0" precision="I64">
					<dim>1</dim>
				</port>
			</output>
		</layer>
		<layer id="281" name="Constant_928" type="Const" version="opset1">
			<data element_type="i64" shape="1" offset="3501190" size="8" />
			<rt_info>
				<attribute name="precise" version="0" />
			</rt_info>
			<output>
				<port id="0" precision="I64">
					<dim>1</dim>
				</port>
			</output>
		</layer>
		<layer id="282" name="Constant_929" type="Const" version="opset1">
			<data element_type="i64" shape="1" offset="3501182" size="8" />
			<rt_info>
				<attribute name="precise" version="0" />
			</rt_info>
			<output>
				<port id="0" precision="I64">
					<dim>1</dim>
				</port>
			</output>
		</layer>
		<layer id="283" name="__module.model/prim::ListConstruct/SequenceMark_1" type="Concat" version="opset1">
			<data axis="0" />
			<input>
				<port id="0" precision="I64">
					<dim>2</dim>
				</port>
				<port id="1" precision="I64">
					<dim>1</dim>
				</port>
				<port id="2" precision="I64">
					<dim>1</dim>
				</port>
				<port id="3" precision="I64">
					<dim>1</dim>
				</port>
			</input>
			<output>
				<port id="4" precision="I64">
					<dim>5</dim>
				</port>
			</output>
		</layer>
		<layer id="284" name="__module.model/aten::view/Reshape_1" type="Reshape" version="opset1">
			<data special_zero="false" />
			<input>
				<port id="0" precision="FP32">
					<dim>-1</dim>
					<dim>128</dim>
					<dim>72</dim>
					<dim>128</dim>
				</port>
				<port id="1" precision="I64">
					<dim>5</dim>
				</port>
			</input>
			<output>
				<port id="2" precision="FP32" names="1362,1776,2190,2604,3018,313,324,3432,534,948,value.7">
					<dim>-1</dim>
					<dim>-1</dim>
					<dim>128</dim>
					<dim>72</dim>
					<dim>128</dim>
				</port>
			</output>
		</layer>
		<layer id="285" name="52" type="Const" version="opset1">
			<data element_type="i64" shape="" offset="16" size="8" />
			<output>
				<port id="0" precision="I64" names="52" />
			</output>
		</layer>
		<layer id="286" name="51" type="Const" version="opset1">
			<data element_type="i64" shape="" offset="80" size="8" />
			<output>
				<port id="0" precision="I64" names="51" />
			</output>
		</layer>
		<layer id="287" name="__module.model/aten::select/Gather" type="Gather" version="opset8">
			<data batch_dims="0" />
			<input>
				<port id="0" precision="FP32">
					<dim>-1</dim>
					<dim>-1</dim>
					<dim>128</dim>
					<dim>72</dim>
					<dim>128</dim>
				</port>
				<port id="1" precision="I64" />
				<port id="2" precision="I64" />
			</input>
			<output>
				<port id="3" precision="FP32" names="325,input.89">
					<dim>-1</dim>
					<dim>128</dim>
					<dim>72</dim>
					<dim>128</dim>
				</port>
			</output>
		</layer>
		<layer id="288" name="__module.model.proposals/aten::arange/Constant" type="Const" version="opset1">
			<data element_type="i32" shape="" offset="3501198" size="4" />
			<output>
				<port id="0" precision="I32" />
			</output>
		</layer>
		<layer id="289" name="self.model.proposals.features.0.weight_compressed" type="Const" version="opset1">
			<data element_type="f16" shape="128, 128, 3, 3" offset="3501202" size="294912" />
			<output>
				<port id="0" precision="FP16" names="self.model.proposals.features.0.weight">
					<dim>128</dim>
					<dim>128</dim>
					<dim>3</dim>
					<dim>3</dim>
				</port>
			</output>
		</layer>
		<layer id="290" name="self.model.proposals.features.0.weight" type="Convert" version="opset1">
			<data destination_type="f32" />
			<rt_info>
				<attribute name="decompression" version="0" />
			</rt_info>
			<input>
				<port id="0" precision="FP16">
					<dim>128</dim>
					<dim>128</dim>
					<dim>3</dim>
					<dim>3</dim>
				</port>
			</input>
			<output>
				<port id="1" precision="FP32">
					<dim>128</dim>
					<dim>128</dim>
					<dim>3</dim>
					<dim>3</dim>
				</port>
			</output>
		</layer>
		<layer id="291" name="__module.model.proposals.features.0/aten::_convolution/Convolution" type="Convolution" version="opset1">
			<data strides="1, 1" dilations="1, 1" pads_begin="1, 1" pads_end="1, 1" auto_pad="explicit" />
			<input>
				<port id="0" precision="FP32">
					<dim>-1</dim>
					<dim>128</dim>
					<dim>72</dim>
					<dim>128</dim>
				</port>
				<port id="1" precision="FP32">
					<dim>128</dim>
					<dim>128</dim>
					<dim>3</dim>
					<dim>3</dim>
				</port>
			</input>
			<output>
				<port id="2" precision="FP32">
					<dim>-1</dim>
					<dim>128</dim>
					<dim>72</dim>
					<dim>128</dim>
				</port>
			</output>
		</layer>
		<layer id="292" name="__module.model.proposals.features.0/aten::_convolution/Reshape_compressed" type="Const" version="opset1">
			<data element_type="f16" shape="1, 128, 1, 1" offset="3796114" size="256" />
			<output>
				<port id="0" precision="FP16">
					<dim>1</dim>
					<dim>128</dim>
					<dim>1</dim>
					<dim>1</dim>
				</port>
			</output>
		</layer>
		<layer id="293" name="__module.model.proposals.features.0/aten::_convolution/Reshape" type="Convert" version="opset1">
			<data destination_type="f32" />
			<rt_info>
				<attribute name="decompression" version="0" />
			</rt_info>
			<input>
				<port id="0" precision="FP16">
					<dim>1</dim>
					<dim>128</dim>
					<dim>1</dim>
					<dim>1</dim>
				</port>
			</input>
			<output>
				<port id="1" precision="FP32">
					<dim>1</dim>
					<dim>128</dim>
					<dim>1</dim>
					<dim>1</dim>
				</port>
			</output>
		</layer>
		<layer id="294" name="__module.model.proposals.features.0/aten::_convolution/Add" type="Add" version="opset1">
			<data auto_broadcast="numpy" />
			<input>
				<port id="0" precision="FP32">
					<dim>-1</dim>
					<dim>128</dim>
					<dim>72</dim>
					<dim>128</dim>
				</port>
				<port id="1" precision="FP32">
					<dim>1</dim>
					<dim>128</dim>
					<dim>1</dim>
					<dim>1</dim>
				</port>
			</input>
			<output>
				<port id="2" precision="FP32" names="341,input.91">
					<dim>-1</dim>
					<dim>128</dim>
					<dim>72</dim>
					<dim>128</dim>
				</port>
			</output>
		</layer>
		<layer id="295" name="__module.model.proposals.features.1/aten::gelu/Gelu" type="Gelu" version="opset7">
			<data approximation_mode="ERF" />
			<input>
				<port id="0" precision="FP32">
					<dim>-1</dim>
					<dim>128</dim>
					<dim>72</dim>
					<dim>128</dim>
				</port>
			</input>
			<output>
				<port id="1" precision="FP32" names="342,input.93">
					<dim>-1</dim>
					<dim>128</dim>
					<dim>72</dim>
					<dim>128</dim>
				</port>
			</output>
		</layer>
		<layer id="296" name="self.model.proposals.box.weight_compressed" type="Const" version="opset1">
			<data element_type="f16" shape="4, 128, 1, 1" offset="3796370" size="1024" />
			<output>
				<port id="0" precision="FP16" names="self.model.proposals.box.weight">
					<dim>4</dim>
					<dim>128</dim>
					<dim>1</dim>
					<dim>1</dim>
				</port>
			</output>
		</layer>
		<layer id="297" name="self.model.proposals.box.weight" type="Convert" version="opset1">
			<data destination_type="f32" />
			<rt_info>
				<attribute name="decompression" version="0" />
			</rt_info>
			<input>
				<port id="0" precision="FP16">
					<dim>4</dim>
					<dim>128</dim>
					<dim>1</dim>
					<dim>1</dim>
				</port>
			</input>
			<output>
				<port id="1" precision="FP32">
					<dim>4</dim>
					<dim>128</dim>
					<dim>1</dim>
					<dim>1</dim>
				</port>
			</output>
		</layer>
		<layer id="298" name="__module.model.proposals.box/aten::_convolution/Convolution" type="Convolution" version="opset1">
			<data strides="1, 1" dilations="1, 1" pads_begin="0, 0" pads_end="0, 0" auto_pad="explicit" />
			<input>
				<port id="0" precision="FP32">
					<dim>-1</dim>
					<dim>128</dim>
					<dim>72</dim>
					<dim>128</dim>
				</port>
				<port id="1" precision="FP32">
					<dim>4</dim>
					<dim>128</dim>
					<dim>1</dim>
					<dim>1</dim>
				</port>
			</input>
			<output>
				<port id="2" precision="FP32">
					<dim>-1</dim>
					<dim>4</dim>
					<dim>72</dim>
					<dim>128</dim>
				</port>
			</output>
		</layer>
		<layer id="299" name="__module.model.proposals.box/aten::_convolution/Reshape_compressed" type="Const" version="opset1">
			<data element_type="f16" shape="1, 4, 1, 1" offset="3797394" size="8" />
			<output>
				<port id="0" precision="FP16">
					<dim>1</dim>
					<dim>4</dim>
					<dim>1</dim>
					<dim>1</dim>
				</port>
			</output>
		</layer>
		<layer id="300" name="__module.model.proposals.box/aten::_convolution/Reshape" type="Convert" version="opset1">
			<data destination_type="f32" />
			<rt_info>
				<attribute name="decompression" version="0" />
			</rt_info>
			<input>
				<port id="0" precision="FP16">
					<dim>1</dim>
					<dim>4</dim>
					<dim>1</dim>
					<dim>1</dim>
				</port>
			</input>
			<output>
				<port id="1" precision="FP32">
					<dim>1</dim>
					<dim>4</dim>
					<dim>1</dim>
					<dim>1</dim>
				</port>
			</output>
		</layer>
		<layer id="301" name="__module.model.proposals.box/aten::_convolution/Add" type="Add" version="opset1">
			<data auto_broadcast="numpy" />
			<input>
				<port id="0" precision="FP32">
					<dim>-1</dim>
					<dim>4</dim>
					<dim>72</dim>
					<dim>128</dim>
				</port>
				<port id="1" precision="FP32">
					<dim>1</dim>
					<dim>4</dim>
					<dim>1</dim>
					<dim>1</dim>
				</port>
			</input>
			<output>
				<port id="2" precision="FP32" names="349,360,365,372,raw_boxes.1">
					<dim>-1</dim>
					<dim>4</dim>
					<dim>72</dim>
					<dim>128</dim>
				</port>
			</output>
		</layer>
		<layer id="302" name="__module.model.proposals/aten::size/ShapeOf" type="ShapeOf" version="opset3">
			<data output_type="i64" />
			<input>
				<port id="0" precision="FP32">
					<dim>-1</dim>
					<dim>4</dim>
					<dim>72</dim>
					<dim>128</dim>
				</port>
			</input>
			<output>
				<port id="1" precision="I64">
					<dim>4</dim>
				</port>
			</output>
		</layer>
		<layer id="303" name="46" type="Const" version="opset1">
			<data element_type="i64" shape="" offset="56" size="8" />
			<output>
				<port id="0" precision="I64" names="46" />
			</output>
		</layer>
		<layer id="304" name="__module.model.proposals/aten::size/Constant" type="Const" version="opset1">
			<data element_type="i32" shape="" offset="3501198" size="4" />
			<output>
				<port id="0" precision="I32" />
			</output>
		</layer>
		<layer id="305" name="__module.model.proposals/aten::size/Gather" type="Gather" version="opset8">
			<data batch_dims="0" />
			<input>
				<port id="0" precision="I64">
					<dim>4</dim>
				</port>
				<port id="1" precision="I64" />
				<port id="2" precision="I32" />
			</input>
			<output>
				<port id="3" precision="I64" names="1390,1804,2218,2632,3046,3460,352,562,976" />
			</output>
		</layer>
		<layer id="306" name="__module.model.proposals/aten::arange/Constant_1" type="Const" version="opset1">
			<data element_type="i32" shape="" offset="12" size="4" />
			<output>
				<port id="0" precision="I32" />
			</output>
		</layer>
		<layer id="307" name="__module.model.proposals/aten::arange/Range" type="Range" version="opset4">
			<data output_type="i64" />
			<input>
				<port id="0" precision="I32" />
				<port id="1" precision="I64" />
				<port id="2" precision="I32" />
			</input>
			<output>
				<port id="3" precision="I64">
					<dim>128</dim>
				</port>
			</output>
		</layer>
		<layer id="308" name="__module.model.proposals/aten::arange/Convert" type="Convert" version="opset1">
			<data destination_type="f32" />
			<input>
				<port id="0" precision="I64">
					<dim>128</dim>
				</port>
			</input>
			<output>
				<port id="1" precision="FP32" names="1393,1807,2221,2635,3049,3463,355,565,979">
					<dim>128</dim>
				</port>
			</output>
		</layer>
		<layer id="309" name="__module.model.proposals/prim::ListUnpack/Concat_3" type="Const" version="opset1">
			<data element_type="i32" shape="2" offset="3797402" size="8" />
			<rt_info>
				<attribute name="precise" version="0" />
			</rt_info>
			<output>
				<port id="0" precision="I32">
					<dim>2</dim>
				</port>
			</output>
		</layer>
		<layer id="310" name="__module.model.proposals/prim::ListUnpack/Reshape_4" type="Reshape" version="opset1">
			<data special_zero="false" />
			<input>
				<port id="0" precision="FP32">
					<dim>128</dim>
				</port>
				<port id="1" precision="I32">
					<dim>2</dim>
				</port>
			</input>
			<output>
				<port id="2" precision="FP32" names="1397,1811,2225,2639,3053,3467,359,569,983,columns,columns.1,columns.11,columns.13,columns.15,columns.3,columns.5,columns.7,columns.9">
					<dim>1</dim>
					<dim>128</dim>
				</port>
			</output>
		</layer>
		<layer id="311" name="__module.model.proposals/aten::select/Gather" type="Gather" version="opset8">
			<data batch_dims="0" />
			<input>
				<port id="0" precision="FP32">
					<dim>-1</dim>
					<dim>4</dim>
					<dim>72</dim>
					<dim>128</dim>
				</port>
				<port id="1" precision="I64" />
				<port id="2" precision="I64" />
			</input>
			<output>
				<port id="3" precision="FP32" names="361">
					<dim>-1</dim>
					<dim>72</dim>
					<dim>128</dim>
				</port>
			</output>
		</layer>
		<layer id="312" name="__module.model.proposals/aten::sigmoid/Sigmoid" type="Sigmoid" version="opset1">
			<input>
				<port id="0" precision="FP32">
					<dim>-1</dim>
					<dim>72</dim>
					<dim>128</dim>
				</port>
			</input>
			<output>
				<port id="1" precision="FP32" names="362">
					<dim>-1</dim>
					<dim>72</dim>
					<dim>128</dim>
				</port>
			</output>
		</layer>
		<layer id="313" name="__module.model.proposals/aten::add/Add" type="Add" version="opset1">
			<data auto_broadcast="numpy" />
			<input>
				<port id="0" precision="FP32">
					<dim>1</dim>
					<dim>128</dim>
				</port>
				<port id="1" precision="FP32">
					<dim>-1</dim>
					<dim>72</dim>
					<dim>128</dim>
				</port>
			</input>
			<output>
				<port id="2" precision="FP32" names="363">
					<dim>-1</dim>
					<dim>72</dim>
					<dim>128</dim>
				</port>
			</output>
		</layer>
		<layer id="314" name="__module.model.proposals/aten::div/Convert" type="Convert" version="opset1">
			<data destination_type="f32" />
			<input>
				<port id="0" precision="I64" />
			</input>
			<output>
				<port id="1" precision="FP32" />
			</output>
		</layer>
		<layer id="315" name="__module.model.proposals/aten::div/Divide" type="Divide" version="opset1">
			<data auto_broadcast="numpy" m_pythondiv="true" />
			<input>
				<port id="0" precision="FP32">
					<dim>-1</dim>
					<dim>72</dim>
					<dim>128</dim>
				</port>
				<port id="1" precision="FP32" />
			</input>
			<output>
				<port id="2" precision="FP32" names="364">
					<dim>-1</dim>
					<dim>72</dim>
					<dim>128</dim>
				</port>
			</output>
		</layer>
		<layer id="316" name="__module.model.proposals/aten::stack/Constant" type="Const" version="opset1">
			<data element_type="i32" shape="" offset="12" size="4" />
			<output>
				<port id="0" precision="I32" />
			</output>
		</layer>
		<layer id="317" name="__module.model.proposals/aten::stack/Unsqueeze" type="Unsqueeze" version="opset1">
			<input>
				<port id="0" precision="FP32">
					<dim>-1</dim>
					<dim>72</dim>
					<dim>128</dim>
				</port>
				<port id="1" precision="I32" />
			</input>
			<output>
				<port id="2" precision="FP32">
					<dim>-1</dim>
					<dim>1</dim>
					<dim>72</dim>
					<dim>128</dim>
				</port>
			</output>
		</layer>
		<layer id="318" name="__module.model.proposals/aten::arange/Constant_2" type="Const" version="opset1">
			<data element_type="i32" shape="" offset="3501198" size="4" />
			<output>
				<port id="0" precision="I32" />
			</output>
		</layer>
		<layer id="319" name="42" type="Const" version="opset1">
			<data element_type="i64" shape="" offset="88" size="8" />
			<output>
				<port id="0" precision="I64" names="42" />
			</output>
		</layer>
		<layer id="320" name="__module.model.proposals/aten::size/Constant_1" type="Const" version="opset1">
			<data element_type="i32" shape="" offset="3501198" size="4" />
			<output>
				<port id="0" precision="I32" />
			</output>
		</layer>
		<layer id="321" name="__module.model.proposals/aten::size/Gather_1" type="Gather" version="opset8">
			<data batch_dims="0" />
			<input>
				<port id="0" precision="I64">
					<dim>4</dim>
				</port>
				<port id="1" precision="I64" />
				<port id="2" precision="I32" />
			</input>
			<output>
				<port id="3" precision="I64" names="1388,1802,2216,2630,3044,3458,350,560,974" />
			</output>
		</layer>
		<layer id="322" name="__module.model.proposals/aten::arange/Constant_3" type="Const" version="opset1">
			<data element_type="i32" shape="" offset="12" size="4" />
			<output>
				<port id="0" precision="I32" />
			</output>
		</layer>
		<layer id="323" name="__module.model.proposals/aten::arange/Range_1" type="Range" version="opset4">
			<data output_type="i64" />
			<input>
				<port id="0" precision="I32" />
				<port id="1" precision="I64" />
				<port id="2" precision="I32" />
			</input>
			<output>
				<port id="3" precision="I64">
					<dim>72</dim>
				</port>
			</output>
		</layer>
…
		<edge from-layer="3084" from-port="0" to-layer="3087" to-port="2" />
		<edge from-layer="3085" from-port="0" to-layer="3087" to-port="3" />
		<edge from-layer="3086" from-port="0" to-layer="3087" to-port="4" />
		<edge from-layer="3087" from-port="5" to-layer="3089" to-port="0" />
		<edge from-layer="3087" from-port="5" to-layer="3332" to-port="0" />
		<edge from-layer="3087" from-port="5" to-layer="3471" to-port="0" />
		<edge from-layer="3088" from-port="0" to-layer="3089" to-port="1" />
		<edge from-layer="3089" from-port="2" to-layer="3092" to-port="0" />
		<edge from-layer="3090" from-port="0" to-layer="3091" to-port="1" />
		<edge from-layer="3091" from-port="2" to-layer="3092" to-port="1" />
		<edge from-layer="3092" from-port="2" to-layer="3095" to-port="0" />
		<edge from-layer="3093" from-port="0" to-layer="3094" to-port="0" />
		<edge from-layer="3094" from-port="1" to-layer="3095" to-port="1" />
		<edge from-layer="3095" from-port="2" to-layer="3097" to-port="0" />
		<edge from-layer="3096" from-port="0" to-layer="3097" to-port="1" />
		<edge from-layer="3097" from-port="2" to-layer="3100" to-port="0" />
		<edge from-layer="3098" from-port="0" to-layer="3099" to-port="0" />
		<edge from-layer="3099" from-port="1" to-layer="3100" to-port="1" />
		<edge from-layer="3100" from-port="2" to-layer="3102" to-port="0" />
		<edge from-layer="3101" from-port="0" to-layer="3102" to-port="1" />
		<edge from-layer="3102" from-port="2" to-layer="3103" to-port="1" />
		<edge from-layer="3103" from-port="2" to-layer="3104" to-port="0" />
		<edge from-layer="3104" from-port="1" to-layer="3636" to-port="0" />
		<edge from-layer="3104" from-port="1" to-layer="3105" to-port="0" />
		<edge from-layer="3105" from-port="2" to-layer="3106" to-port="1" />
		<edge from-layer="3105" from-port="2" to-layer="3124" to-port="0" />
		<edge from-layer="3106" from-port="2" to-layer="3108" to-port="0" />
		<edge from-layer="3107" from-port="0" to-layer="3108" to-port="1" />
		<edge from-layer="3108" from-port="2" to-layer="3109" to-port="0" />
		<edge from-layer="3109" from-port="2" to-layer="3112" to-port="0" />
		<edge from-layer="3110" from-port="0" to-layer="3111" to-port="0" />
		<edge from-layer="3111" from-port="1" to-layer="3112" to-port="1" />
		<edge from-layer="3112" from-port="2" to-layer="3117" to-port="0" />
		<edge from-layer="3112" from-port="2" to-layer="3122" to-port="0" />
		<edge from-layer="3112" from-port="2" to-layer="3147" to-port="0" />
		<edge from-layer="3113" from-port="0" to-layer="3117" to-port="1" />
		<edge from-layer="3114" from-port="0" to-layer="3117" to-port="2" />
		<edge from-layer="3115" from-port="0" to-layer="3117" to-port="3" />
		<edge from-layer="3116" from-port="0" to-layer="3117" to-port="4" />
		<edge from-layer="3117" from-port="5" to-layer="3141" to-port="0" />
		<edge from-layer="3118" from-port="0" to-layer="3122" to-port="1" />
		<edge from-layer="3119" from-port="0" to-layer="3122" to-port="2" />
		<edge from-layer="3120" from-port="0" to-layer="3122" to-port="3" />
		<edge from-layer="3121" from-port="0" to-layer="3122" to-port="4" />
		<edge from-layer="3122" from-port="5" to-layer="3133" to-port="0" />
		<edge from-layer="3123" from-port="0" to-layer="3124" to-port="1" />
		<edge from-layer="3124" from-port="2" to-layer="3125" to-port="0" />
		<edge from-layer="3124" from-port="2" to-layer="3155" to-port="0" />
		<edge from-layer="3125" from-port="2" to-layer="3127" to-port="0" />
		<edge from-layer="3126" from-port="0" to-layer="3127" to-port="1" />
		<edge from-layer="3127" from-port="2" to-layer="3132" to-port="0" />
		<edge from-layer="3127" from-port="2" to-layer="3139" to-port="0" />
		<edge from-layer="3127" from-port="2" to-layer="3152" to-port="0" />
		<edge from-layer="3128" from-port="0" to-layer="3132" to-port="1" />
		<edge from-layer="3129" from-port="0" to-layer="3132" to-port="2" />
		<edge from-layer="3130" from-port="0" to-layer="3132" to-port="3" />
		<edge from-layer="3131" from-port="0" to-layer="3132" to-port="4" />
		<edge from-layer="3132" from-port="5" to-layer="3133" to-port="1" />
		<edge from-layer="3133" from-port="2" to-layer="3134" to-port="0" />
		<edge from-layer="3134" from-port="1" to-layer="3140" to-port="0" />
		<edge from-layer="3135" from-port="0" to-layer="3139" to-port="1" />
		<edge from-layer="3136" from-port="0" to-layer="3139" to-port="2" />
		<edge from-layer="3137" from-port="0" to-layer="3139" to-port="3" />
		<edge from-layer="3138" from-port="0" to-layer="3139" to-port="4" />
		<edge from-layer="3139" from-port="5" to-layer="3140" to-port="1" />
		<edge from-layer="3140" from-port="2" to-layer="3141" to-port="1" />
		<edge from-layer="3141" from-port="2" to-layer="3142" to-port="0" />
		<edge from-layer="3142" from-port="1" to-layer="3155" to-port="1" />
		<edge from-layer="3142" from-port="1" to-layer="3157" to-port="0" />
		<edge from-layer="3143" from-port="0" to-layer="3147" to-port="1" />
		<edge from-layer="3144" from-port="0" to-layer="3147" to-port="2" />
		<edge from-layer="3145" from-port="0" to-layer="3147" to-port="3" />
		<edge from-layer="3146" from-port="0" to-layer="3147" to-port="4" />
		<edge from-layer="3147" from-port="5" to-layer="3153" to-port="0" />
		<edge from-layer="3148" from-port="0" to-layer="3152" to-port="1" />
		<edge from-layer="3149" from-port="0" to-layer="3152" to-port="2" />
		<edge from-layer="3150" from-port="0" to-layer="3152" to-port="3" />
		<edge from-layer="3151" from-port="0" to-layer="3152" to-port="4" />
		<edge from-layer="3152" from-port="5" to-layer="3153" to-port="1" />
		<edge from-layer="3153" from-port="2" to-layer="3154" to-port="0" />
		<edge from-layer="3154" from-port="1" to-layer="3156" to-port="0" />
		<edge from-layer="3155" from-port="2" to-layer="3156" to-port="1" />
		<edge from-layer="3156" from-port="2" to-layer="3157" to-port="1" />
		<edge from-layer="3157" from-port="2" to-layer="3159" to-port="0" />
		<edge from-layer="3158" from-port="0" to-layer="3159" to-port="1" />
		<edge from-layer="3159" from-port="2" to-layer="3164" to-port="0" />
		<edge from-layer="3160" from-port="2" to-layer="3163" to-port="0" />
		<edge from-layer="3161" from-port="0" to-layer="3162" to-port="0" />
		<edge from-layer="3162" from-port="1" to-layer="3163" to-port="1" />
		<edge from-layer="3163" from-port="2" to-layer="3164" to-port="1" />
		<edge from-layer="3164" from-port="2" to-layer="3166" to-port="0" />
		<edge from-layer="3165" from-port="0" to-layer="3166" to-port="1" />
		<edge from-layer="3166" from-port="2" to-layer="3169" to-port="0" />
		<edge from-layer="3167" from-port="0" to-layer="3168" to-port="0" />
		<edge from-layer="3168" from-port="1" to-layer="3169" to-port="1" />
		<edge from-layer="3169" from-port="2" to-layer="3171" to-port="0" />
		<edge from-layer="3170" from-port="0" to-layer="3171" to-port="1" />
		<edge from-layer="3171" from-port="2" to-layer="3485" to-port="1" />
		<edge from-layer="3171" from-port="2" to-layer="3172" to-port="0" />
		<edge from-layer="3171" from-port="2" to-layer="3414" to-port="1" />
		<edge from-layer="3171" from-port="2" to-layer="3449" to-port="0" />
		<edge from-layer="3171" from-port="2" to-layer="3452" to-port="0" />
		<edge from-layer="3172" from-port="2" to-layer="3553" to-port="7" />
		<edge from-layer="3173" from-port="0" to-layer="3174" to-port="1" />
		<edge from-layer="3173" from-port="0" to-layer="3254" to-port="1" />
		<edge from-layer="3173" from-port="0" to-layer="3279" to-port="1" />
		<edge from-layer="3174" from-port="3" to-layer="3175" to-port="0" />
		<edge from-layer="3174" from-port="3" to-layer="3244" to-port="0" />
		<edge from-layer="3174" from-port="3" to-layer="3351" to-port="0" />
		<edge from-layer="3175" from-port="2" to-layer="3178" to-port="0" />
		<edge from-layer="3176" from-port="0" to-layer="3177" to-port="0" />
		<edge from-layer="3177" from-port="1" to-layer="3178" to-port="1" />
		<edge from-layer="3178" from-port="2" to-layer="3179" to-port="0" />
		<edge from-layer="3179" from-port="1" to-layer="3180" to-port="0" />
		<edge from-layer="3179" from-port="1" to-layer="3206" to-port="0" />
		<edge from-layer="3179" from-port="1" to-layer="3309" to-port="0" />
		<edge from-layer="3180" from-port="2" to-layer="3183" to-port="0" />
		<edge from-layer="3181" from-port="0" to-layer="3182" to-port="0" />
		<edge from-layer="3182" from-port="1" to-layer="3183" to-port="1" />
		<edge from-layer="3183" from-port="2" to-layer="3184" to-port="0" />
		<edge from-layer="3183" from-port="2" to-layer="3190" to-port="0" />
		<edge from-layer="3183" from-port="2" to-layer="3199" to-port="0" />
		<edge from-layer="3184" from-port="3" to-layer="3185" to-port="0" />
		<edge from-layer="3185" from-port="1" to-layer="3186" to-port="1" />
		<edge from-layer="3186" from-port="2" to-layer="3187" to-port="0" />
		<edge from-layer="3187" from-port="2" to-layer="3189" to-port="0" />
		<edge from-layer="3188" from-port="0" to-layer="3189" to-port="1" />
		<edge from-layer="3188" from-port="0" to-layer="3194" to-port="1" />
		<edge from-layer="3189" from-port="2" to-layer="3201" to-port="0" />
		<edge from-layer="3190" from-port="3" to-layer="3191" to-port="0" />
		<edge from-layer="3191" from-port="1" to-layer="3192" to-port="1" />
		<edge from-layer="3192" from-port="2" to-layer="3193" to-port="0" />
		<edge from-layer="3193" from-port="2" to-layer="3194" to-port="0" />
		<edge from-layer="3194" from-port="2" to-layer="3201" to-port="1" />
		<edge from-layer="3195" from-port="0" to-layer="3199" to-port="1" />
		<edge from-layer="3196" from-port="0" to-layer="3199" to-port="2" />
		<edge from-layer="3197" from-port="0" to-layer="3199" to-port="3" />
		<edge from-layer="3198" from-port="0" to-layer="3199" to-port="4" />
		<edge from-layer="3199" from-port="5" to-layer="3200" to-port="0" />
		<edge from-layer="3200" from-port="1" to-layer="3201" to-port="2" />
		<edge from-layer="3201" from-port="3" to-layer="3203" to-port="0" />
		<edge from-layer="3202" from-port="0" to-layer="3203" to-port="1" />
		<edge from-layer="3203" from-port="2" to-layer="3205" to-port="0" />
		<edge from-layer="3204" from-port="0" to-layer="3205" to-port="1" />
		<edge from-layer="3205" from-port="2" to-layer="3219" to-port="0" />
		<edge from-layer="3206" from-port="2" to-layer="3208" to-port="0" />
		<edge from-layer="3207" from-port="0" to-layer="3208" to-port="1" />
		<edge from-layer="3208" from-port="2" to-layer="3209" to-port="0" />
		<edge from-layer="3208" from-port="2" to-layer="3210" to-port="0" />
		<edge from-layer="3208" from-port="2" to-layer="3211" to-port="1" />
		<edge from-layer="3208" from-port="2" to-layer="3426" to-port="0" />
		<edge from-layer="3209" from-port="1" to-layer="3210" to-port="1" />
		<edge from-layer="3210" from-port="2" to-layer="3211" to-port="0" />
		<edge from-layer="3211" from-port="3" to-layer="3213" to-port="0" />
		<edge from-layer="3212" from-port="0" to-layer="3213" to-port="1" />
		<edge from-layer="3213" from-port="2" to-layer="3214" to-port="0" />
		<edge from-layer="3214" from-port="3" to-layer="3215" to-port="0" />
		<edge from-layer="3214" from-port="2" to-layer="3326" to-port="0" />
		<edge from-layer="3215" from-port="2" to-layer="3217" to-port="0" />
		<edge from-layer="3215" from-port="2" to-layer="3317" to-port="0" />
		<edge from-layer="3216" from-port="0" to-layer="3217" to-port="1" />
		<edge from-layer="3217" from-port="2" to-layer="3218" to-port="0" />
		<edge from-layer="3218" from-port="1" to-layer="3219" to-port="1" />
		<edge from-layer="3219" from-port="2" to-layer="3224" to-port="0" />
		<edge from-layer="3219" from-port="2" to-layer="3231" to-port="0" />
		<edge from-layer="3219" from-port="2" to-layer="3321" to-port="0" />
		<edge from-layer="3219" from-port="2" to-layer="3457" to-port="0" />
		<edge from-layer="3220" from-port="0" to-layer="3224" to-port="1" />
		<edge from-layer="3221" from-port="0" to-layer="3224" to-port="2" />
		<edge from-layer="3222" from-port="0" to-layer="3224" to-port="3" />
		<edge from-layer="3223" from-port="0" to-layer="3224" to-port="4" />
		<edge from-layer="3224" from-port="5" to-layer="3225" to-port="0" />
		<edge from-layer="3225" from-port="2" to-layer="3235" to-port="0" />
		<edge from-layer="3225" from-port="2" to-layer="3259" to-port="0" />
		<edge from-layer="3225" from-port="2" to-layer="3284" to-port="0" />
		<edge from-layer="3226" from-port="0" to-layer="3234" to-port="0" />
		<edge from-layer="3227" from-port="0" to-layer="3231" to-port="1" />
		<edge from-layer="3228" from-port="0" to-layer="3231" to-port="2" />
		<edge from-layer="3229" from-port="0" to-layer="3231" to-port="3" />
		<edge from-layer="3230" from-port="0" to-layer="3231" to-port="4" />
		<edge from-layer="3231" from-port="5" to-layer="3232" to-port="0" />
		<edge from-layer="3231" from-port="5" to-layer="3256" to-port="0" />
		<edge from-layer="3231" from-port="5" to-layer="3281" to-port="0" />
		<edge from-layer="3232" from-port="2" to-layer="3233" to-port="0" />
		<edge from-layer="3233" from-port="2" to-layer="3234" to-port="1" />
		<edge from-layer="3234" from-port="2" to-layer="3235" to-port="1" />
		<edge from-layer="3235" from-port="2" to-layer="3238" to-port="0" />
		<edge from-layer="3236" from-port="0" to-layer="3237" to-port="0" />
		<edge from-layer="3237" from-port="1" to-layer="3238" to-port="1" />
		<edge from-layer="3238" from-port="2" to-layer="3241" to-port="0" />
		<edge from-layer="3239" from-port="0" to-layer="3240" to-port="0" />
		<edge from-layer="3240" from-port="1" to-layer="3241" to-port="1" />
		<edge from-layer="3241" from-port="2" to-layer="3243" to-port="0" />
		<edge from-layer="3242" from-port="0" to-layer="3243" to-port="1" />
		<edge from-layer="3243" from-port="2" to-layer="3244" to-port="1" />
		<edge from-layer="3244" from-port="2" to-layer="3245" to-port="0" />
		<edge from-layer="3245" from-port="2" to-layer="3247" to-port="0" />
		<edge from-layer="3246" from-port="0" to-layer="3247" to-port="1" />
		<edge from-layer="3247" from-port="2" to-layer="3249" to-port="0" />
		<edge from-layer="3248" from-port="0" to-layer="3249" to-port="1" />
		<edge from-layer="3249" from-port="2" to-layer="3251" to-port="0" />
		<edge from-layer="3250" from-port="0" to-layer="3251" to-port="1" />
		<edge from-layer="3251" from-port="2" to-layer="3253" to-port="0" />
		<edge from-layer="3252" from-port="0" to-layer="3253" to-port="1" />
		<edge from-layer="3253" from-port="2" to-layer="3304" to-port="0" />
		<edge from-layer="3254" from-port="3" to-layer="3268" to-port="0" />
		<edge from-layer="3254" from-port="3" to-layer="3374" to-port="0" />
		<edge from-layer="3255" from-port="0" to-layer="3258" to-port="0" />
		<edge from-layer="3256" from-port="2" to-layer="3257" to-port="0" />
		<edge from-layer="3257" from-port="2" to-layer="3258" to-port="1" />
		<edge from-layer="3258" from-port="2" to-layer="3259" to-port="1" />
		<edge from-layer="3259" from-port="2" to-layer="3262" to-port="0" />
		<edge from-layer="3260" from-port="0" to-layer="3261" to-port="0" />
		<edge from-layer="3261" from-port="1" to-layer="3262" to-port="1" />
		<edge from-layer="3262" from-port="2" to-layer="3265" to-port="0" />
		<edge from-layer="3263" from-port="0" to-layer="3264" to-port="0" />
		<edge from-layer="3264" from-port="1" to-layer="3265" to-port="1" />
		<edge from-layer="3265" from-port="2" to-layer="3267" to-port="0" />
		<edge from-layer="3266" from-port="0" to-layer="3267" to-port="1" />
		<edge from-layer="3267" from-port="2" to-layer="3268" to-port="1" />
		<edge from-layer="3268" from-port="2" to-layer="3269" to-port="0" />
		<edge from-layer="3269" from-port="2" to-layer="3271" to-port="0" />
		<edge from-layer="3270" from-port="0" to-layer="3271" to-port="1" />
		<edge from-layer="3271" from-port="2" to-layer="3273" to-port="0" />
		<edge from-layer="3272" from-port="0" to-layer="3273" to-port="1" />
		<edge from-layer="3273" from-port="2" to-layer="3275" to-port="0" />
		<edge from-layer="3274" from-port="0" to-layer="3275" to-port="1" />
		<edge from-layer="3275" from-port="2" to-layer="3278" to-port="0" />
		<edge from-layer="3276" from-port="0" to-layer="3277" to-port="0" />
		<edge from-layer="3277" from-port="1" to-layer="3278" to-port="1" />
		<edge from-layer="3278" from-port="2" to-layer="3304" to-port="1" />
		<edge from-layer="3279" from-port="3" to-layer="3293" to-port="0" />
		<edge from-layer="3279" from-port="3" to-layer="3398" to-port="0" />
		<edge from-layer="3280" from-port="0" to-layer="3283" to-port="0" />
		<edge from-layer="3281" from-port="2" to-layer="3282" to-port="0" />
		<edge from-layer="3282" from-port="2" to-layer="3283" to-port="1" />
		<edge from-layer="3283" from-port="2" to-layer="3284" to-port="1" />
		<edge from-layer="3284" from-port="2" to-layer="3287" to-port="0" />
		<edge from-layer="3285" from-port="0" to-layer="3286" to-port="0" />
		<edge from-layer="3286" from-port="1" to-layer="3287" to-port="1" />
		<edge from-layer="3287" from-port="2" to-layer="3290" to-port="0" />
		<edge from-layer="3288" from-port="0" to-layer="3289" to-port="0" />
		<edge from-layer="3289" from-port="1" to-layer="3290" to-port="1" />
		<edge from-layer="3290" from-port="2" to-layer="3292" to-port="0" />
		<edge from-layer="3291" from-port="0" to-layer="3292" to-port="1" />
		<edge from-layer="3292" from-port="2" to-layer="3293" to-port="1" />
		<edge from-layer="3293" from-port="2" to-layer="3294" to-port="0" />
		<edge from-layer="3294" from-port="2" to-layer="3296" to-port="0" />
		<edge from-layer="3295" from-port="0" to-layer="3296" to-port="1" />
		<edge from-layer="3296" from-port="2" to-layer="3298" to-port="0" />
		<edge from-layer="3297" from-port="0" to-layer="3298" to-port="1" />
		<edge from-layer="3298" from-port="2" to-layer="3300" to-port="0" />
		<edge from-layer="3299" from-port="0" to-layer="3300" to-port="1" />
		<edge from-layer="3300" from-port="2" to-layer="3303" to-port="0" />
		<edge from-layer="3301" from-port="0" to-layer="3302" to-port="0" />
		<edge from-layer="3302" from-port="1" to-layer="3303" to-port="1" />
		<edge from-layer="3303" from-port="2" to-layer="3304" to-port="2" />
		<edge from-layer="3304" from-port="3" to-layer="3305" to-port="0" />
		<edge from-layer="3305" from-port="2" to-layer="3308" to-port="0" />
		<edge from-layer="3306" from-port="0" to-layer="3307" to-port="0" />
		<edge from-layer="3307" from-port="1" to-layer="3308" to-port="1" />
		<edge from-layer="3308" from-port="2" to-layer="3320" to-port="0" />
		<edge from-layer="3309" from-port="2" to-layer="3311" to-port="0" />
		<edge from-layer="3310" from-port="0" to-layer="3311" to-port="1" />
		<edge from-layer="3311" from-port="2" to-layer="3313" to-port="0" />
		<edge from-layer="3312" from-port="0" to-layer="3313" to-port="1" />
		<edge from-layer="3313" from-port="2" to-layer="3315" to-port="0" />
		<edge from-layer="3314" from-port="0" to-layer="3315" to-port="1" />
		<edge from-layer="3315" from-port="2" to-layer="3319" to-port="0" />
		<edge from-layer="3316" from-port="0" to-layer="3317" to-port="1" />
		<edge from-layer="3317" from-port="2" to-layer="3318" to-port="0" />
		<edge from-layer="3318" from-port="1" to-layer="3319" to-port="1" />
		<edge from-layer="3319" from-port="2" to-layer="3320" to-port="1" />
		<edge from-layer="3320" from-port="2" to-layer="3325" to-port="0" />
		<edge from-layer="3321" from-port="2" to-layer="3324" to-port="0" />
		<edge from-layer="3322" from-port="0" to-layer="3323" to-port="0" />
		<edge from-layer="3323" from-port="1" to-layer="3324" to-port="1" />
		<edge from-layer="3324" from-port="2" to-layer="3325" to-port="1" />
		<edge from-layer="3325" from-port="2" to-layer="3331" to-port="0" />
		<edge from-layer="3326" from-port="3" to-layer="3327" to-port="0" />
		<edge from-layer="3327" from-port="2" to-layer="3329" to-port="0" />
		<edge from-layer="3327" from-port="2" to-layer="3455" to-port="0" />
		<edge from-layer="3328" from-port="0" to-layer="3329" to-port="1" />
		<edge from-layer="3329" from-port="2" to-layer="3330" to-port="0" />
		<edge from-layer="3330" from-port="1" to-layer="3331" to-port="1" />
		<edge from-layer="3331" from-port="2" to-layer="3444" to-port="0" />
		<edge from-layer="3332" from-port="2" to-layer="3342" to-port="0" />
		<edge from-layer="3332" from-port="2" to-layer="3365" to-port="0" />
		<edge from-layer="3332" from-port="2" to-layer="3389" to-port="0" />
		<edge from-layer="3332" from-port="2" to-layer="3422" to-port="0" />
		<edge from-layer="3333" from-port="0" to-layer="3341" to-port="0" />
		<edge from-layer="3334" from-port="0" to-layer="3338" to-port="1" />
		<edge from-layer="3335" from-port="0" to-layer="3338" to-port="2" />
		<edge from-layer="3336" from-port="0" to-layer="3338" to-port="3" />
		<edge from-layer="3337" from-port="0" to-layer="3338" to-port="4" />
		<edge from-layer="3338" from-port="5" to-layer="3339" to-port="0" />
		<edge from-layer="3338" from-port="5" to-layer="3362" to-port="0" />
		<edge from-layer="3338" from-port="5" to-layer="3386" to-port="0" />
		<edge from-layer="3339" from-port="2" to-layer="3340" to-port="0" />
		<edge from-layer="3340" from-port="2" to-layer="3341" to-port="1" />
		<edge from-layer="3341" from-port="2" to-layer="3342" to-port="1" />
		<edge from-layer="3342" from-port="2" to-layer="3345" to-port="0" />
		<edge from-layer="3343" from-port="0" to-layer="3344" to-port="0" />
		<edge from-layer="3344" from-port="1" to-layer="3345" to-port="1" />
		<edge from-layer="3345" from-port="2" to-layer="3348" to-port="0" />
		<edge from-layer="3346" from-port="0" to-layer="3347" to-port="0" />
		<edge from-layer="3347" from-port="1" to-layer="3348" to-port="1" />
		<edge from-layer="3348" from-port="2" to-layer="3350" to-port="0" />
		<edge from-layer="3349" from-port="0" to-layer="3350" to-port="1" />
		<edge from-layer="3350" from-port="2" to-layer="3351" to-port="1" />
		<edge from-layer="3351" from-port="2" to-layer="3352" to-port="0" />
		<edge from-layer="3352" from-port="2" to-layer="3354" to-port="0" />
		<edge from-layer="3353" from-port="0" to-layer="3354" to-port="1" />
		<edge from-layer="3354" from-port="2" to-layer="3356" to-port="0" />
		<edge from-layer="3355" from-port="0" to-layer="3356" to-port="1" />
		<edge from-layer="3356" from-port="2" to-layer="3358" to-port="0" />
		<edge from-layer="3357" from-port="0" to-layer="3358" to-port="1" />
		<edge from-layer="3358" from-port="2" to-layer="3360" to-port="0" />
		<edge from-layer="3359" from-port="0" to-layer="3360" to-port="1" />
		<edge from-layer="3360" from-port="2" to-layer="3409" to-port="0" />
		<edge from-layer="3361" from-port="0" to-layer="3364" to-port="0" />
		<edge from-layer="3362" from-port="2" to-layer="3363" to-port="0" />
		<edge from-layer="3363" from-port="2" to-layer="3364" to-port="1" />
		<edge from-layer="3364" from-port="2" to-layer="3365" to-port="1" />
		<edge from-layer="3365" from-port="2" to-layer="3368" to-port="0" />
		<edge from-layer="3366" from-port="0" to-layer="3367" to-port="0" />
		<edge from-layer="3367" from-port="1" to-layer="3368" to-port="1" />
		<edge from-layer="3368" from-port="2" to-layer="3371" to-port="0" />
		<edge from-layer="3369" from-port="0" to-layer="3370" to-port="0" />
		<edge from-layer="3370" from-port="1" to-layer="3371" to-port="1" />
		<edge from-layer="3371" from-port="2" to-layer="3373" to-port="0" />
		<edge from-layer="3372" from-port="0" to-layer="3373" to-port="1" />
		<edge from-layer="3373" from-port="2" to-layer="3374" to-port="1" />
		<edge from-layer="3374" from-port="2" to-layer="3375" to-port="0" />
		<edge from-layer="3375" from-port="2" to-layer="3377" to-port="0" />
		<edge from-layer="3376" from-port="0" to-layer="3377" to-port="1" />
		<edge from-layer="3377" from-port="2" to-layer="3379" to-port="0" />
		<edge from-layer="3378" from-port="0" to-layer="3379" to-port="1" />
		<edge from-layer="3379" from-port="2" to-layer="3381" to-port="0" />
		<edge from-layer="3380" from-port="0" to-layer="3381" to-port="1" />
		<edge from-layer="3381" from-port="2" to-layer="3384" to-port="0" />
		<edge from-layer="3382" from-port="0" to-layer="3383" to-port="0" />
		<edge from-layer="3383" from-port="1" to-layer="3384" to-port="1" />
		<edge from-layer="3384" from-port="2" to-layer="3409" to-port="1" />
		<edge from-layer="3385" from-port="0" to-layer="3388" to-port="0" />
		<edge from-layer="3386" from-port="2" to-layer="3387" to-port="0" />
		<edge from-layer="3387" from-port="2" to-layer="3388" to-port="1" />
		<edge from-layer="3388" from-port="2" to-layer="3389" to-port="1" />
		<edge from-layer="3389" from-port="2" to-layer="3392" to-port="0" />
		<edge from-layer="3390" from-port="0" to-layer="3391" to-port="0" />
		<edge from-layer="3391" from-port="1" to-layer="3392" to-port="1" />
		<edge from-layer="3392" from-port="2" to-layer="3395" to-port="0" />
		<edge from-layer="3393" from-port="0" to-layer="3394" to-port="0" />
		<edge from-layer="3394" from-port="1" to-layer="3395" to-port="1" />
		<edge from-layer="3395" from-port="2" to-layer="3397" to-port="0" />
		<edge from-layer="3396" from-port="0" to-layer="3397" to-port="1" />
		<edge from-layer="3397" from-port="2" to-layer="3398" to-port="1" />
		<edge from-layer="3398" from-port="2" to-layer="3399" to-port="0" />
		<edge from-layer="3399" from-port="2" to-layer="3401" to-port="0" />
		<edge from-layer="3400" from-port="0" to-layer="3401" to-port="1" />
		<edge from-layer="3401" from-port="2" to-layer="3403" to-port="0" />
		<edge from-layer="3402" from-port="0" to-layer="3403" to-port="1" />
		<edge from-layer="3403" from-port="2" to-layer="3405" to-port="0" />
		<edge from-layer="3404" from-port="0" to-layer="3405" to-port="1" />
		<edge from-layer="3405" from-port="2" to-layer="3408" to-port="0" />
		<edge from-layer="3406" from-port="0" to-layer="3407" to-port="0" />
		<edge from-layer="3407" from-port="1" to-layer="3408" to-port="1" />
		<edge from-layer="3408" from-port="2" to-layer="3409" to-port="2" />
		<edge from-layer="3409" from-port="3" to-layer="3410" to-port="0" />
		<edge from-layer="3410" from-port="2" to-layer="3413" to-port="0" />
		<edge from-layer="3411" from-port="0" to-layer="3412" to-port="0" />
		<edge from-layer="3412" from-port="1" to-layer="3413" to-port="1" />
		<edge from-layer="3413" from-port="2" to-layer="3414" to-port="0" />
		<edge from-layer="3414" from-port="2" to-layer="3419" to-port="0" />
		<edge from-layer="3415" from-port="2" to-layer="3418" to-port="0" />
		<edge from-layer="3416" from-port="0" to-layer="3417" to-port="0" />
		<edge from-layer="3417" from-port="1" to-layer="3418" to-port="1" />
		<edge from-layer="3418" from-port="2" to-layer="3419" to-port="1" />
		<edge from-layer="3419" from-port="2" to-layer="3443" to-port="0" />
		<edge from-layer="3420" from-port="0" to-layer="3421" to-port="0" />
		<edge from-layer="3421" from-port="1" to-layer="3422" to-port="1" />
		<edge from-layer="3422" from-port="2" to-layer="3425" to-port="0" />
		<edge from-layer="3423" from-port="0" to-layer="3424" to-port="0" />
		<edge from-layer="3424" from-port="1" to-layer="3425" to-port="1" />
		<edge from-layer="3425" from-port="2" to-layer="3426" to-port="1" />
		<edge from-layer="3426" from-port="2" to-layer="3427" to-port="0" />
		<edge from-layer="3427" from-port="3" to-layer="3428" to-port="0" />
		<edge from-layer="3428" from-port="3" to-layer="3437" to-port="0" />
		<edge from-layer="3429" from-port="1" to-layer="3430" to-port="1" />
		<edge from-layer="3430" from-port="2" to-layer="3433" to-port="0" />
		<edge from-layer="3431" from-port="1" to-layer="3432" to-port="1" />
		<edge from-layer="3432" from-port="2" to-layer="3433" to-port="1" />
		<edge from-layer="3433" from-port="2" to-layer="3436" to-port="0" />
		<edge from-layer="3434" from-port="0" to-layer="3435" to-port="0" />
		<edge from-layer="3435" from-port="1" to-layer="3436" to-port="1" />
		<edge from-layer="3436" from-port="2" to-layer="3437" to-port="1" />
		<edge from-layer="3437" from-port="2" to-layer="3438" to-port="0" />
		<edge from-layer="3438" from-port="3" to-layer="3439" to-port="0" />
		<edge from-layer="3439" from-port="2" to-layer="3441" to-port="0" />
		<edge from-layer="3439" from-port="2" to-layer="3459" to-port="0" />
		<edge from-layer="3440" from-port="0" to-layer="3441" to-port="1" />
		<edge from-layer="3441" from-port="2" to-layer="3442" to-port="0" />
		<edge from-layer="3442" from-port="1" to-layer="3443" to-port="1" />
		<edge from-layer="3443" from-port="2" to-layer="3444" to-port="1" />
		<edge from-layer="3444" from-port="2" to-layer="3486" to-port="0" />
		<edge from-layer="3444" from-port="2" to-layer="3445" to-port="0" />
		<edge from-layer="3444" from-port="2" to-layer="3448" to-port="0" />
		<edge from-layer="3445" from-port="2" to-layer="3447" to-port="0" />
		<edge from-layer="3446" from-port="0" to-layer="3447" to-port="1" />
		<edge from-layer="3447" from-port="2" to-layer="3448" to-port="1" />
		<edge from-layer="3448" from-port="2" to-layer="3453" to-port="0" />
		<edge from-layer="3449" from-port="2" to-layer="3451" to-port="0" />
		<edge from-layer="3450" from-port="0" to-layer="3451" to-port="1" />
		<edge from-layer="3451" from-port="2" to-layer="3452" to-port="1" />
		<edge from-layer="3452" from-port="2" to-layer="3453" to-port="1" />
		<edge from-layer="3453" from-port="2" to-layer="3483" to-port="0" />
		<edge from-layer="3454" from-port="0" to-layer="3455" to-port="1" />
		<edge from-layer="3455" from-port="2" to-layer="3456" to-port="0" />
		<edge from-layer="3456" from-port="1" to-layer="3457" to-port="1" />
		<edge from-layer="3457" from-port="2" to-layer="3462" to-port="0" />
		<edge from-layer="3458" from-port="0" to-layer="3459" to-port="1" />
		<edge from-layer="3459" from-port="2" to-layer="3460" to-port="0" />
		<edge from-layer="3460" from-port="1" to-layer="3461" to-port="1" />
		<edge from-layer="3461" from-port="2" to-layer="3462" to-port="1" />
		<edge from-layer="3462" from-port="2" to-layer="3540" to-port="0" />
		<edge from-layer="3462" from-port="2" to-layer="3648" to-port="0" />
		<edge from-layer="3462" from-port="2" to-layer="3467" to-port="0" />
		<edge from-layer="3463" from-port="0" to-layer="3467" to-port="1" />
		<edge from-layer="3464" from-port="0" to-layer="3467" to-port="2" />
		<edge from-layer="3465" from-port="0" to-layer="3467" to-port="3" />
		<edge from-layer="3466" from-port="0" to-layer="3467" to-port="4" />
		<edge from-layer="3467" from-port="5" to-layer="3469" to-port="0" />
		<edge from-layer="3468" from-port="0" to-layer="3469" to-port="1" />
		<edge from-layer="3469" from-port="2" to-layer="3472" to-port="0" />
		<edge from-layer="3470" from-port="0" to-layer="3471" to-port="1" />
		<edge from-layer="3471" from-port="2" to-layer="3472" to-port="1" />
		<edge from-layer="3472" from-port="2" to-layer="3475" to-port="0" />
		<edge from-layer="3473" from-port="0" to-layer="3474" to-port="0" />
		<edge from-layer="3474" from-port="1" to-layer="3475" to-port="1" />
		<edge from-layer="3475" from-port="2" to-layer="3477" to-port="0" />
		<edge from-layer="3476" from-port="0" to-layer="3477" to-port="1" />
		<edge from-layer="3477" from-port="2" to-layer="3480" to-port="0" />
		<edge from-layer="3478" from-port="0" to-layer="3479" to-port="0" />
		<edge from-layer="3479" from-port="1" to-layer="3480" to-port="1" />
		<edge from-layer="3480" from-port="2" to-layer="3482" to-port="0" />
		<edge from-layer="3481" from-port="0" to-layer="3482" to-port="1" />
		<edge from-layer="3482" from-port="2" to-layer="3483" to-port="1" />
		<edge from-layer="3483" from-port="2" to-layer="3484" to-port="0" />
		<edge from-layer="3484" from-port="1" to-layer="3485" to-port="0" />
		<edge from-layer="3484" from-port="1" to-layer="3637" to-port="0" />
		<edge from-layer="3485" from-port="2" to-layer="3486" to-port="1" />
		<edge from-layer="3485" from-port="2" to-layer="3504" to-port="0" />
		<edge from-layer="3486" from-port="2" to-layer="3488" to-port="0" />
		<edge from-layer="3487" from-port="0" to-layer="3488" to-port="1" />
		<edge from-layer="3488" from-port="2" to-layer="3489" to-port="0" />
		<edge from-layer="3489" from-port="2" to-layer="3492" to-port="0" />
		<edge from-layer="3490" from-port="0" to-layer="3491" to-port="0" />
		<edge from-layer="3491" from-port="1" to-layer="3492" to-port="1" />
		<edge from-layer="3492" from-port="2" to-layer="3497" to-port="0" />
		<edge from-layer="3492" from-port="2" to-layer="3502" to-port="0" />
		<edge from-layer="3492" from-port="2" to-layer="3527" to-port="0" />
		<edge from-layer="3493" from-port="0" to-layer="3497" to-port="1" />
		<edge from-layer="3494" from-port="0" to-layer="3497" to-port="2" />
		<edge from-layer="3495" from-port="0" to-layer="3497" to-port="3" />
		<edge from-layer="3496" from-port="0" to-layer="3497" to-port="4" />
		<edge from-layer="3497" from-port="5" to-layer="3521" to-port="0" />
		<edge from-layer="3498" from-port="0" to-layer="3502" to-port="1" />
		<edge from-layer="3499" from-port="0" to-layer="3502" to-port="2" />
		<edge from-layer="3500" from-port="0" to-layer="3502" to-port="3" />
		<edge from-layer="3501" from-port="0" to-layer="3502" to-port="4" />
		<edge from-layer="3502" from-port="5" to-layer="3513" to-port="0" />
		<edge from-layer="3503" from-port="0" to-layer="3504" to-port="1" />
		<edge from-layer="3504" from-port="2" to-layer="3505" to-port="0" />
		<edge from-layer="3504" from-port="2" to-layer="3535" to-port="0" />
		<edge from-layer="3505" from-port="2" to-layer="3507" to-port="0" />
		<edge from-layer="3506" from-port="0" to-layer="3507" to-port="1" />
		<edge from-layer="3507" from-port="2" to-layer="3512" to-port="0" />
		<edge from-layer="3507" from-port="2" to-layer="3519" to-port="0" />
		<edge from-layer="3507" from-port="2" to-layer="3532" to-port="0" />
		<edge from-layer="3508" from-port="0" to-layer="3512" to-port="1" />
		<edge from-layer="3509" from-port="0" to-layer="3512" to-port="2" />
		<edge from-layer="3510" from-port="0" to-layer="3512" to-port="3" />
		<edge from-layer="3511" from-port="0" to-layer="3512" to-port="4" />
		<edge from-layer="3512" from-port="5" to-layer="3513" to-port="1" />
		<edge from-layer="3513" from-port="2" to-layer="3514" to-port="0" />
		<edge from-layer="3514" from-port="1" to-layer="3520" to-port="0" />
		<edge from-layer="3515" from-port="0" to-layer="3519" to-port="1" />
		<edge from-layer="3516" from-port="0" to-layer="3519" to-port="2" />
		<edge from-layer="3517" from-port="0" to-layer="3519" to-port="3" />
		<edge from-layer="3518" from-port="0" to-layer="3519" to-port="4" />
		<edge from-layer="3519" from-port="5" to-layer="3520" to-port="1" />
		<edge from-layer="3520" from-port="2" to-layer="3521" to-port="1" />
		<edge from-layer="3521" from-port="2" to-layer="3522" to-port="0" />
		<edge from-layer="3522" from-port="1" to-layer="3535" to-port="1" />
		<edge from-layer="3522" from-port="1" to-layer="3537" to-port="0" />
		<edge from-layer="3523" from-port="0" to-layer="3527" to-port="1" />
		<edge from-layer="3524" from-port="0" to-layer="3527" to-port="2" />
		<edge from-layer="3525" from-port="0" to-layer="3527" to-port="3" />
		<edge from-layer="3526" from-port="0" to-layer="3527" to-port="4" />
		<edge from-layer="3527" from-port="5" to-layer="3533" to-port="0" />
		<edge from-layer="3528" from-port="0" to-layer="3532" to-port="1" />
		<edge from-layer="3529" from-port="0" to-layer="3532" to-port="2" />
		<edge from-layer="3530" from-port="0" to-layer="3532" to-port="3" />
		<edge from-layer="3531" from-port="0" to-layer="3532" to-port="4" />
		<edge from-layer="3532" from-port="5" to-layer="3533" to-port="1" />
		<edge from-layer="3533" from-port="2" to-layer="3534" to-port="0" />
		<edge from-layer="3534" from-port="1" to-layer="3536" to-port="0" />
		<edge from-layer="3535" from-port="2" to-layer="3536" to-port="1" />
		<edge from-layer="3536" from-port="2" to-layer="3537" to-port="1" />
		<edge from-layer="3537" from-port="2" to-layer="3539" to-port="0" />
		<edge from-layer="3538" from-port="0" to-layer="3539" to-port="1" />
		<edge from-layer="3539" from-port="2" to-layer="3544" to-port="0" />
		<edge from-layer="3540" from-port="2" to-layer="3543" to-port="0" />
		<edge from-layer="3541" from-port="0" to-layer="3542" to-port="0" />
		<edge from-layer="3542" from-port="1" to-layer="3543" to-port="1" />
		<edge from-layer="3543" from-port="2" to-layer="3544" to-port="1" />
		<edge from-layer="3544" from-port="2" to-layer="3546" to-port="0" />
		<edge from-layer="3545" from-port="0" to-layer="3546" to-port="1" />
		<edge from-layer="3546" from-port="2" to-layer="3549" to-port="0" />
		<edge from-layer="3547" from-port="0" to-layer="3548" to-port="0" />
		<edge from-layer="3548" from-port="1" to-layer="3549" to-port="1" />
		<edge from-layer="3549" from-port="2" to-layer="3551" to-port="0" />
		<edge from-layer="3550" from-port="0" to-layer="3551" to-port="1" />
		<edge from-layer="3551" from-port="2" to-layer="3552" to-port="0" />
		<edge from-layer="3552" from-port="2" to-layer="3553" to-port="8" />
		<edge from-layer="3553" from-port="9" to-layer="3556" to-port="0" />
		<edge from-layer="3553" from-port="9" to-layer="3566" to-port="0" />
		<edge from-layer="3554" from-port="0" to-layer="3555" to-port="0" />
		<edge from-layer="3555" from-port="1" to-layer="3556" to-port="1" />
		<edge from-layer="3556" from-port="2" to-layer="3559" to-port="0" />
		<edge from-layer="3557" from-port="0" to-layer="3558" to-port="0" />
		<edge from-layer="3558" from-port="1" to-layer="3559" to-port="1" />
		<edge from-layer="3559" from-port="2" to-layer="3560" to-port="0" />
		<edge from-layer="3560" from-port="1" to-layer="3563" to-port="0" />
		<edge from-layer="3561" from-port="0" to-layer="3562" to-port="0" />
		<edge from-layer="3562" from-port="1" to-layer="3563" to-port="1" />
		<edge from-layer="3563" from-port="2" to-layer="3565" to-port="0" />
		<edge from-layer="3564" from-port="0" to-layer="3565" to-port="1" />
		<edge from-layer="3565" from-port="2" to-layer="3566" to-port="1" />
		<edge from-layer="3566" from-port="2" to-layer="3568" to-port="0" />
		<edge from-layer="3567" from-port="0" to-layer="3568" to-port="1" />
		<edge from-layer="3568" from-port="2" to-layer="3571" to-port="0" />
		<edge from-layer="3569" from-port="0" to-layer="3570" to-port="0" />
		<edge from-layer="3570" from-port="1" to-layer="3571" to-port="1" />
		<edge from-layer="3571" from-port="2" to-layer="3574" to-port="0" />
		<edge from-layer="3572" from-port="0" to-layer="3573" to-port="0" />
		<edge from-layer="3573" from-port="1" to-layer="3574" to-port="1" />
		<edge from-layer="3574" from-port="2" to-layer="3577" to-port="0" />
		<edge from-layer="3574" from-port="2" to-layer="3588" to-port="0" />
		<edge from-layer="3574" from-port="2" to-layer="3662" to-port="0" />
		<edge from-layer="3575" from-port="0" to-layer="3576" to-port="0" />
		<edge from-layer="3576" from-port="1" to-layer="3577" to-port="1" />
		<edge from-layer="3577" from-port="2" to-layer="3580" to-port="0" />
		<edge from-layer="3578" from-port="0" to-layer="3579" to-port="0" />
		<edge from-layer="3579" from-port="1" to-layer="3580" to-port="1" />
		<edge from-layer="3580" from-port="2" to-layer="3581" to-port="0" />
		<edge from-layer="3581" from-port="1" to-layer="3584" to-port="0" />
		<edge from-layer="3582" from-port="0" to-layer="3583" to-port="0" />
		<edge from-layer="3583" from-port="1" to-layer="3584" to-port="1" />
		<edge from-layer="3584" from-port="2" to-layer="3587" to-port="0" />
		<edge from-layer="3585" from-port="0" to-layer="3586" to-port="0" />
		<edge from-layer="3586" from-port="1" to-layer="3587" to-port="1" />
		<edge from-layer="3587" from-port="2" to-layer="3588" to-port="1" />
		<edge from-layer="3588" from-port="2" to-layer="3590" to-port="0" />
		<edge from-layer="3589" from-port="0" to-layer="3590" to-port="1" />
		<edge from-layer="3590" from-port="2" to-layer="3593" to-port="0" />
		<edge from-layer="3591" from-port="0" to-layer="3592" to-port="0" />
		<edge from-layer="3592" from-port="1" to-layer="3593" to-port="1" />
		<edge from-layer="3593" from-port="2" to-layer="3596" to-port="0" />
		<edge from-layer="3594" from-port="0" to-layer="3595" to-port="0" />
		<edge from-layer="3595" from-port="1" to-layer="3596" to-port="1" />
		<edge from-layer="3596" from-port="2" to-layer="3599" to-port="0" />
		<edge from-layer="3596" from-port="2" to-layer="3608" to-port="0" />
		<edge from-layer="3596" from-port="2" to-layer="3619" to-port="0" />
		<edge from-layer="3596" from-port="2" to-layer="3685" to-port="0" />
		<edge from-layer="3596" from-port="2" to-layer="3698" to-port="0" />
		<edge from-layer="3597" from-port="0" to-layer="3598" to-port="0" />
		<edge from-layer="3598" from-port="1" to-layer="3599" to-port="1" />
		<edge from-layer="3599" from-port="2" to-layer="3601" to-port="0" />
		<edge from-layer="3600" from-port="0" to-layer="3601" to-port="1" />
		<edge from-layer="3601" from-port="2" to-layer="3602" to-port="0" />
		<edge from-layer="3601" from-port="2" to-layer="3605" to-port="0" />
		<edge from-layer="3602" from-port="2" to-layer="3604" to-port="0" />
		<edge from-layer="3603" from-port="0" to-layer="3604" to-port="1" />
		<edge from-layer="3604" from-port="2" to-layer="3605" to-port="1" />
		<edge from-layer="3605" from-port="2" to-layer="3708" to-port="0" />
		<edge from-layer="3606" from-port="0" to-layer="3607" to-port="0" />
		<edge from-layer="3607" from-port="1" to-layer="3608" to-port="1" />
		<edge from-layer="3608" from-port="2" to-layer="3610" to-port="0" />
		<edge from-layer="3609" from-port="0" to-layer="3610" to-port="1" />
		<edge from-layer="3610" from-port="2" to-layer="3611" to-port="0" />
		<edge from-layer="3611" from-port="1" to-layer="3612" to-port="0" />
		<edge from-layer="3611" from-port="1" to-layer="3617" to-port="0" />
		<edge from-layer="3612" from-port="3" to-layer="3707" to-port="0" />
		<edge from-layer="3613" from-port="0" to-layer="3617" to-port="1" />
		<edge from-layer="3614" from-port="0" to-layer="3617" to-port="2" />
		<edge from-layer="3615" from-port="0" to-layer="3617" to-port="3" />
		<edge from-layer="3616" from-port="0" to-layer="3617" to-port="4" />
		<edge from-layer="3617" from-port="5" to-layer="3706" to-port="0" />
		<edge from-layer="3618" from-port="0" to-layer="3619" to-port="1" />
		<edge from-layer="3619" from-port="2" to-layer="3621" to-port="0" />
		<edge from-layer="3620" from-port="0" to-layer="3621" to-port="1" />
		<edge from-layer="3621" from-port="2" to-layer="3622" to-port="0" />
		<edge from-layer="3622" from-port="1" to-layer="3623" to-port="0" />
		<edge from-layer="3622" from-port="1" to-layer="3628" to-port="0" />
		<edge from-layer="3623" from-port="3" to-layer="3705" to-port="0" />
		<edge from-layer="3624" from-port="0" to-layer="3628" to-port="1" />
		<edge from-layer="3625" from-port="0" to-layer="3628" to-port="2" />
		<edge from-layer="3626" from-port="0" to-layer="3628" to-port="3" />
		<edge from-layer="3627" from-port="0" to-layer="3628" to-port="4" />
		<edge from-layer="3628" from-port="5" to-layer="3704" to-port="0" />
		<edge from-layer="3629" from-port="0" to-layer="3630" to-port="1" />
		<edge from-layer="3629" from-port="0" to-layer="3631" to-port="1" />
		<edge from-layer="3629" from-port="0" to-layer="3632" to-port="1" />
		<edge from-layer="3629" from-port="0" to-layer="3633" to-port="1" />
		<edge from-layer="3629" from-port="0" to-layer="3634" to-port="1" />
		<edge from-layer="3629" from-port="0" to-layer="3635" to-port="1" />
		<edge from-layer="3629" from-port="0" to-layer="3636" to-port="1" />
		<edge from-layer="3629" from-port="0" to-layer="3637" to-port="1" />
		<edge from-layer="3630" from-port="2" to-layer="3638" to-port="0" />
		<edge from-layer="3631" from-port="2" to-layer="3638" to-port="1" />
		<edge from-layer="3632" from-port="2" to-layer="3638" to-port="2" />
		<edge from-layer="3633" from-port="2" to-layer="3638" to-port="3" />
		<edge from-layer="3634" from-port="2" to-layer="3638" to-port="4" />
		<edge from-layer="3635" from-port="2" to-layer="3638" to-port="5" />
		<edge from-layer="3636" from-port="2" to-layer="3638" to-port="6" />
		<edge from-layer="3637" from-port="2" to-layer="3638" to-port="7" />
		<edge from-layer="3638" from-port="8" to-layer="3703" to-port="0" />
		<edge from-layer="3639" from-port="0" to-layer="3640" to-port="1" />
		<edge from-layer="3639" from-port="0" to-layer="3641" to-port="1" />
		<edge from-layer="3639" from-port="0" to-layer="3642" to-port="1" />
		<edge from-layer="3639" from-port="0" to-layer="3643" to-port="1" />
		<edge from-layer="3639" from-port="0" to-layer="3644" to-port="1" />
		<edge from-layer="3639" from-port="0" to-layer="3645" to-port="1" />
		<edge from-layer="3639" from-port="0" to-layer="3646" to-port="1" />
		<edge from-layer="3639" from-port="0" to-layer="3647" to-port="1" />
		<edge from-layer="3639" from-port="0" to-layer="3648" to-port="1" />
		<edge from-layer="3640" from-port="2" to-layer="3649" to-port="0" />
		<edge from-layer="3641" from-port="2" to-layer="3649" to-port="1" />
		<edge from-layer="3642" from-port="2" to-layer="3649" to-port="2" />
		<edge from-layer="3643" from-port="2" to-layer="3649" to-port="3" />
		<edge from-layer="3644" from-port="2" to-layer="3649" to-port="4" />
		<edge from-layer="3645" from-port="2" to-layer="3649" to-port="5" />
		<edge from-layer="3646" from-port="2" to-layer="3649" to-port="6" />
		<edge from-layer="3647" from-port="2" to-layer="3649" to-port="7" />
		<edge from-layer="3648" from-port="2" to-layer="3649" to-port="8" />
		<edge from-layer="3649" from-port="9" to-layer="3650" to-port="0" />
		<edge from-layer="3650" from-port="1" to-layer="3651" to-port="0" />
		<edge from-layer="3650" from-port="1" to-layer="3654" to-port="0" />
		<edge from-layer="3651" from-port="1" to-layer="3659" to-port="0" />
		<edge from-layer="3652" from-port="0" to-layer="3653" to-port="0" />
		<edge from-layer="3653" from-port="1" to-layer="3654" to-port="1" />
		<edge from-layer="3654" from-port="2" to-layer="3657" to-port="0" />
		<edge from-layer="3655" from-port="0" to-layer="3656" to-port="0" />
		<edge from-layer="3656" from-port="1" to-layer="3657" to-port="1" />
		<edge from-layer="3657" from-port="2" to-layer="3658" to-port="0" />
		<edge from-layer="3658" from-port="1" to-layer="3659" to-port="1" />
		<edge from-layer="3659" from-port="2" to-layer="3671" to-port="0" />
		<edge from-layer="3660" from-port="0" to-layer="3661" to-port="0" />
		<edge from-layer="3661" from-port="1" to-layer="3662" to-port="1" />
		<edge from-layer="3662" from-port="2" to-layer="3664" to-port="0" />
		<edge from-layer="3663" from-port="0" to-layer="3664" to-port="1" />
		<edge from-layer="3664" from-port="2" to-layer="3665" to-port="0" />
		<edge from-layer="3665" from-port="1" to-layer="3668" to-port="0" />
		<edge from-layer="3666" from-port="0" to-layer="3667" to-port="0" />
		<edge from-layer="3667" from-port="1" to-layer="3668" to-port="1" />
		<edge from-layer="3668" from-port="2" to-layer="3670" to-port="0" />
		<edge from-layer="3669" from-port="0" to-layer="3670" to-port="1" />
		<edge from-layer="3670" from-port="2" to-layer="3671" to-port="1" />
		<edge from-layer="3671" from-port="2" to-layer="3672" to-port="0" />
		<edge from-layer="3672" from-port="1" to-layer="3673" to-port="0" />
		<edge from-layer="3673" from-port="1" to-layer="3674" to-port="0" />
		<edge from-layer="3673" from-port="1" to-layer="3677" to-port="0" />
		<edge from-layer="3674" from-port="1" to-layer="3682" to-port="0" />
		<edge from-layer="3675" from-port="0" to-layer="3676" to-port="0" />
		<edge from-layer="3676" from-port="1" to-layer="3677" to-port="1" />
		<edge from-layer="3677" from-port="2" to-layer="3680" to-port="0" />
		<edge from-layer="3678" from-port="0" to-layer="3679" to-port="0" />
		<edge from-layer="3679" from-port="1" to-layer="3680" to-port="1" />
		<edge from-layer="3680" from-port="2" to-layer="3681" to-port="0" />
		<edge from-layer="3681" from-port="1" to-layer="3682" to-port="1" />
		<edge from-layer="3682" from-port="2" to-layer="3694" to-port="0" />
		<edge from-layer="3683" from-port="0" to-layer="3684" to-port="0" />
		<edge from-layer="3684" from-port="1" to-layer="3685" to-port="1" />
		<edge from-layer="3685" from-port="2" to-layer="3687" to-port="0" />
		<edge from-layer="3686" from-port="0" to-layer="3687" to-port="1" />
		<edge from-layer="3687" from-port="2" to-layer="3688" to-port="0" />
		<edge from-layer="3688" from-port="1" to-layer="3691" to-port="0" />
		<edge from-layer="3689" from-port="0" to-layer="3690" to-port="0" />
		<edge from-layer="3690" from-port="1" to-layer="3691" to-port="1" />
		<edge from-layer="3691" from-port="2" to-layer="3693" to-port="0" />
		<edge from-layer="3692" from-port="0" to-layer="3693" to-port="1" />
		<edge from-layer="3693" from-port="2" to-layer="3694" to-port="1" />
		<edge from-layer="3694" from-port="2" to-layer="3695" to-port="0" />
		<edge from-layer="3695" from-port="1" to-layer="3702" to-port="0" />
		<edge from-layer="3696" from-port="0" to-layer="3697" to-port="0" />
		<edge from-layer="3697" from-port="1" to-layer="3698" to-port="1" />
		<edge from-layer="3698" from-port="2" to-layer="3700" to-port="0" />
		<edge from-layer="3699" from-port="0" to-layer="3700" to-port="1" />
		<edge from-layer="3700" from-port="2" to-layer="3701" to-port="0" />
	</edges>
	<rt_info>
		<info name="OpenVINO Runtime" value="2026.2.0-21903-52ddc073857-releases/2026/2" />
		<Runtime_version value="2026.2.0-21903-52ddc073857-releases/2026/2" />
		<conversion_parameters>
			<framework value="pytorch" />
			<is_python_object value="True" />
		</conversion_parameters>
	</rt_info>
</net>
